…
I0616 21:38:59.295892 32690 net.cpp:313] The NetState phase (0) differed from the phase (1) specified by a rule in layer accuracy_top5-teste
I0616 21:38:59.295938 32690 net.cpp:313] The NetState phase (0) differed from the phase (1) specified by a rule in layer loss
I0616 21:38:59.296218 32690 net.cpp:49] Initializing net from parameters: 
name: "arface-vgg"
state {
  phase: TRAIN
}
layer {
  name: "data"
  type: "ImageData"
  top: "data"
  top: "label"
  include {
    phase: TRAIN
  }
  image_data_param {
    source: "treino-b2.txt"
    batch_size: 10
    new_height: 224
    new_width: 224
  }
}
layer {
  name: "conv1_1"
  type: "Convolution"
  bottom: "data"
  top: "conv1_1"
  param {
    lr_mult: 0.1
  }
  convolution_param {
    num_output: 64
    pad: 1
    kernel_size: 3
  }
}
layer {
  name: "relu1_1"
  type: "ReLU"
  bottom: "conv1_1"
  top: "conv1_1"
}
layer {
  name: "conv1_2"
  type: "Convolution"
  bottom: "conv1_1"
  top: "conv1_2"
  param {
    lr_mult: 0.1
  }
  convolution_param {
    num_output: 64
    pad: 1
    kernel_size: 3
  }
}
layer {
  name: "relu1_2"
  type: "ReLU"
  bottom: "conv1_2"
  top: "conv1_2"
}
layer {
  name: "pool1"
  type: "Pooling"
  bottom: "conv1_2"
  top: "pool1"
  pooling_param {
    pool: MAX
    kernel_size: 2
    stride: 2
  }
}
layer {
  name: "conv2_1"
  type: "Convolution"
  bottom: "pool1"
  top: "conv2_1"
  param {
    lr_mult: 0.1
  }
  convolution_param {
    num_output: 128
    pad: 1
    kernel_size: 3
  }
}
layer {
  name: "relu2_1"
  type: "ReLU"
  bottom: "conv2_1"
  top: "conv2_1"
}
layer {
  name: "conv2_2"
  type: "Convolution"
  bottom: "conv2_1"
  top: "conv2_2"
  param {
    lr_mult: 0.1
  }
  convolution_param {
    num_output: 128
    pad: 1
    kernel_size: 3
  }
}
layer {
  name: "relu2_2"
  type: "ReLU"
  bottom: "conv2_2"
  top: "conv2_2"
}
layer {
  name: "pool2"
  type: "Pooling"
  bottom: "conv2_2"
  top: "pool2"
  pooling_param {
    pool: MAX
    kernel_size: 2
    stride: 2
  }
}
layer {
  name: "conv3_1"
  type: "Convolution"
  bottom: "pool2"
  top: "conv3_1"
  param {
    lr_mult: 0.1
    decay_mult: 1
  }
  convolution_param {
    num_output: 256
    pad: 1
    kernel_size: 3
  }
}
layer {
  name: "relu3_1"
  type: "ReLU"
  bottom: "conv3_1"
  top: "conv3_1"
}
layer {
  name: "conv3_2"
  type: "Convolution"
  bottom: "conv3_1"
  top: "conv3_2"
  param {
    lr_mult: 0.1
  }
  convolution_param {
    num_output: 256
    pad: 1
    kernel_size: 3
  }
}
layer {
  name: "relu3_2"
  type: "ReLU"
  bottom: "conv3_2"
  top: "conv3_2"
}
layer {
  name: "conv3_3"
  type: "Convolution"
  bottom: "conv3_2"
  top: "conv3_3"
  param {
    lr_mult: 0.1
  }
  convolution_param {
    num_output: 256
    pad: 1
    kernel_size: 3
  }
}
layer {
  name: "relu3_3"
  type: "ReLU"
  bottom: "conv3_3"
  top: "conv3_3"
}
layer {
  name: "pool3"
  type: "Pooling"
  bottom: "conv3_3"
  top: "pool3"
  pooling_param {
    pool: MAX
    kernel_size: 2
    stride: 2
  }
}
layer {
  name: "conv4_1"
  type: "Convolution"
  bottom: "pool3"
  top: "conv4_1"
  param {
    lr_mult: 0.1
  }
  convolution_param {
    num_output: 512
    pad: 1
    kernel_size: 3
  }
}
layer {
  name: "relu4_1"
  type: "ReLU"
  bottom: "conv4_1"
  top: "conv4_1"
}
layer {
  name: "conv4_2"
  type: "Convolution"
  bottom: "conv4_1"
  top: "conv4_2"
  param {
    lr_mult: 0.1
  }
  convolution_param {
    num_output: 512
    pad: 1
    kernel_size: 3
  }
}
layer {
  name: "relu4_2"
  type: "ReLU"
  bottom: "conv4_2"
  top: "conv4_2"
}
layer {
  name: "conv4_3"
  type: "Convolution"
  bottom: "conv4_2"
  top: "conv4_3"
  param {
    lr_mult: 0.1
  }
  convolution_param {
    num_output: 512
    pad: 1
    kernel_size: 3
  }
}
layer {
  name: "relu4_3"
  type: "ReLU"
  bottom: "conv4_3"
  top: "conv4_3"
}
layer {
  name: "pool4"
  type: "Pooling"
  bottom: "conv4_3"
  top: "pool4"
  pooling_param {
    pool: MAX
    kernel_size: 2
    stride: 2
  }
}
layer {
  name: "conv5_1"
  type: "Convolution"
  bottom: "pool4"
  top: "conv5_1"
  param {
    lr_mult: 0.1
  }
  convolution_param {
    num_output: 512
    pad: 1
    kernel_size: 3
  }
}
layer {
  name: "relu5_1"
  type: "ReLU"
  bottom: "conv5_1"
  top: "conv5_1"
}
layer {
  name: "conv5_2"
  type: "Convolution"
  bottom: "conv5_1"
  top: "conv5_2"
  param {
    lr_mult: 0.1
  }
  convolution_param {
    num_output: 512
    pad: 1
    kernel_size: 3
  }
}
layer {
  name: "relu5_2"
  type: "ReLU"
  bottom: "conv5_2"
  top: "conv5_2"
}
layer {
  name: "conv5_3"
  type: "Convolution"
  bottom: "conv5_2"
  top: "conv5_3"
  param {
    lr_mult: 0.1
  }
  convolution_param {
    num_output: 512
    pad: 1
    kernel_size: 3
  }
}
layer {
  name: "relu5_3"
  type: "ReLU"
  bottom: "conv5_3"
  top: "conv5_3"
}
layer {
  name: "pool5"
  type: "Pooling"
  bottom: "conv5_3"
  top: "pool5"
  pooling_param {
    pool: MAX
    kernel_size: 2
    stride: 2
  }
}
layer {
  name: "fc_6"
  type: "InnerProduct"
  bottom: "pool5"
  top: "fc_6"
  param {
    lr_mult: 1
    decay_mult: 1
  }
  param {
    lr_mult: 2
    decay_mult: 2
  }
  inner_product_param {
    num_output: 256
    weight_filler {
      type: "xavier"
    }
  }
}
layer {
  name: "relu_fc6"
  type: "ReLU"
  bottom: "fc_6"
  top: "fc_6"
}
layer {
  name: "fc_7"
  type: "InnerProduct"
  bottom: "fc_6"
  top: "fc_7"
  param {
    lr_mult: 1
    decay_mult: 1
  }
  param {
    lr_mult: 2
    decay_mult: 1
  }
  inner_product_param {
    num_output: 135
    weight_filler {
      type: "xavier"
      std: 0.5
    }
    bias_filler {
      type: "constant"
      value: 0.1
    }
  }
}
layer {
  name: "accuracy_top1-Treino"
  type: "Accuracy"
  bottom: "fc_7"
  bottom: "label"
  top: "accuracy_top1"
  include {
    phase: TRAIN
  }
  accuracy_param {
    top_k: 1
  }
}
layer {
  name: "loss-treino"
  type: "SoftmaxWithLoss"
  bottom: "fc_7"
  bottom: "label"
  top: "loss-treino"
  include {
    phase: TRAIN
  }
}
I0616 21:38:59.299047 32690 layer_factory.hpp:77] Creating layer data
I0616 21:38:59.299175 32690 net.cpp:91] Creating Layer data
I0616 21:38:59.299199 32690 net.cpp:399] data -> data
I0616 21:38:59.299263 32690 net.cpp:399] data -> label
I0616 21:38:59.299355 32690 image_data_layer.cpp:38] Opening file treino-b2.txt
I0616 21:38:59.301321 32690 image_data_layer.cpp:53] A total of 270 images.
I0616 21:38:59.334352 32690 image_data_layer.cpp:80] output data size: 10,3,224,224
I0616 21:38:59.355737 32690 net.cpp:141] Setting up data
I0616 21:38:59.355862 32690 net.cpp:148] Top shape: 10 3 224 224 (1505280)
I0616 21:38:59.355916 32690 net.cpp:148] Top shape: 10 (10)
I0616 21:38:59.355929 32690 net.cpp:156] Memory required for data: 6021160
I0616 21:38:59.355963 32690 layer_factory.hpp:77] Creating layer label_data_1_split
I0616 21:38:59.355999 32690 net.cpp:91] Creating Layer label_data_1_split
I0616 21:38:59.356025 32690 net.cpp:425] label_data_1_split <- label
I0616 21:38:59.356052 32690 net.cpp:399] label_data_1_split -> label_data_1_split_0
I0616 21:38:59.356087 32690 net.cpp:399] label_data_1_split -> label_data_1_split_1
I0616 21:38:59.356184 32690 net.cpp:141] Setting up label_data_1_split
I0616 21:38:59.356295 32690 net.cpp:148] Top shape: 10 (10)
I0616 21:38:59.356319 32690 net.cpp:148] Top shape: 10 (10)
I0616 21:38:59.356335 32690 net.cpp:156] Memory required for data: 6021240
I0616 21:38:59.356362 32690 layer_factory.hpp:77] Creating layer conv1_1
I0616 21:38:59.356400 32690 net.cpp:91] Creating Layer conv1_1
I0616 21:38:59.356529 32690 net.cpp:425] conv1_1 <- data
I0616 21:38:59.356554 32690 net.cpp:399] conv1_1 -> conv1_1
I0616 21:38:59.358917 32690 net.cpp:141] Setting up conv1_1
I0616 21:38:59.359009 32690 net.cpp:148] Top shape: 10 64 224 224 (32112640)
I0616 21:38:59.359025 32690 net.cpp:156] Memory required for data: 134471800
I0616 21:38:59.359066 32690 layer_factory.hpp:77] Creating layer relu1_1
I0616 21:38:59.359108 32690 net.cpp:91] Creating Layer relu1_1
I0616 21:38:59.359130 32690 net.cpp:425] relu1_1 <- conv1_1
I0616 21:38:59.359154 32690 net.cpp:386] relu1_1 -> conv1_1 (in-place)
I0616 21:38:59.359189 32690 net.cpp:141] Setting up relu1_1
I0616 21:38:59.359207 32690 net.cpp:148] Top shape: 10 64 224 224 (32112640)
I0616 21:38:59.359228 32690 net.cpp:156] Memory required for data: 262922360
I0616 21:38:59.359242 32690 layer_factory.hpp:77] Creating layer conv1_2
I0616 21:38:59.359263 32690 net.cpp:91] Creating Layer conv1_2
I0616 21:38:59.359280 32690 net.cpp:425] conv1_2 <- conv1_1
I0616 21:38:59.359300 32690 net.cpp:399] conv1_2 -> conv1_2
I0616 21:38:59.359804 32690 net.cpp:141] Setting up conv1_2
I0616 21:38:59.359886 32690 net.cpp:148] Top shape: 10 64 224 224 (32112640)
I0616 21:38:59.359904 32690 net.cpp:156] Memory required for data: 391372920
I0616 21:38:59.359925 32690 layer_factory.hpp:77] Creating layer relu1_2
I0616 21:38:59.359946 32690 net.cpp:91] Creating Layer relu1_2
I0616 21:38:59.359962 32690 net.cpp:425] relu1_2 <- conv1_2
I0616 21:38:59.359982 32690 net.cpp:386] relu1_2 -> conv1_2 (in-place)
I0616 21:38:59.360004 32690 net.cpp:141] Setting up relu1_2
I0616 21:38:59.360023 32690 net.cpp:148] Top shape: 10 64 224 224 (32112640)
I0616 21:38:59.360038 32690 net.cpp:156] Memory required for data: 519823480
I0616 21:38:59.360051 32690 layer_factory.hpp:77] Creating layer pool1
I0616 21:38:59.360076 32690 net.cpp:91] Creating Layer pool1
I0616 21:38:59.360092 32690 net.cpp:425] pool1 <- conv1_2
I0616 21:38:59.360112 32690 net.cpp:399] pool1 -> pool1
I0616 21:38:59.360201 32690 net.cpp:141] Setting up pool1
I0616 21:38:59.360262 32690 net.cpp:148] Top shape: 10 64 112 112 (8028160)
I0616 21:38:59.360294 32690 net.cpp:156] Memory required for data: 551936120
I0616 21:38:59.360312 32690 layer_factory.hpp:77] Creating layer conv2_1
I0616 21:38:59.360333 32690 net.cpp:91] Creating Layer conv2_1
I0616 21:38:59.360352 32690 net.cpp:425] conv2_1 <- pool1
I0616 21:38:59.360373 32690 net.cpp:399] conv2_1 -> conv2_1
I0616 21:38:59.362404 32690 net.cpp:141] Setting up conv2_1
I0616 21:38:59.362475 32690 net.cpp:148] Top shape: 10 128 112 112 (16056320)
I0616 21:38:59.362490 32690 net.cpp:156] Memory required for data: 616161400
I0616 21:38:59.362529 32690 layer_factory.hpp:77] Creating layer relu2_1
I0616 21:38:59.362551 32690 net.cpp:91] Creating Layer relu2_1
I0616 21:38:59.362573 32690 net.cpp:425] relu2_1 <- conv2_1
I0616 21:38:59.362599 32690 net.cpp:386] relu2_1 -> conv2_1 (in-place)
I0616 21:38:59.362627 32690 net.cpp:141] Setting up relu2_1
I0616 21:38:59.362649 32690 net.cpp:148] Top shape: 10 128 112 112 (16056320)
I0616 21:38:59.362668 32690 net.cpp:156] Memory required for data: 680386680
I0616 21:38:59.362684 32690 layer_factory.hpp:77] Creating layer conv2_2
I0616 21:38:59.362704 32690 net.cpp:91] Creating Layer conv2_2
I0616 21:38:59.362720 32690 net.cpp:425] conv2_2 <- conv2_1
I0616 21:38:59.362740 32690 net.cpp:399] conv2_2 -> conv2_2
I0616 21:38:59.363324 32690 net.cpp:141] Setting up conv2_2
I0616 21:38:59.363390 32690 net.cpp:148] Top shape: 10 128 112 112 (16056320)
I0616 21:38:59.363405 32690 net.cpp:156] Memory required for data: 744611960
I0616 21:38:59.363423 32690 layer_factory.hpp:77] Creating layer relu2_2
I0616 21:38:59.363446 32690 net.cpp:91] Creating Layer relu2_2
I0616 21:38:59.363464 32690 net.cpp:425] relu2_2 <- conv2_2
I0616 21:38:59.363481 32690 net.cpp:386] relu2_2 -> conv2_2 (in-place)
I0616 21:38:59.363502 32690 net.cpp:141] Setting up relu2_2
I0616 21:38:59.363520 32690 net.cpp:148] Top shape: 10 128 112 112 (16056320)
I0616 21:38:59.363535 32690 net.cpp:156] Memory required for data: 808837240
I0616 21:38:59.363572 32690 layer_factory.hpp:77] Creating layer pool2
I0616 21:38:59.363592 32690 net.cpp:91] Creating Layer pool2
I0616 21:38:59.363607 32690 net.cpp:425] pool2 <- conv2_2
I0616 21:38:59.363626 32690 net.cpp:399] pool2 -> pool2
I0616 21:38:59.363721 32690 net.cpp:141] Setting up pool2
I0616 21:38:59.363788 32690 net.cpp:148] Top shape: 10 128 56 56 (4014080)
I0616 21:38:59.363802 32690 net.cpp:156] Memory required for data: 824893560
I0616 21:38:59.363826 32690 layer_factory.hpp:77] Creating layer conv3_1
I0616 21:38:59.363852 32690 net.cpp:91] Creating Layer conv3_1
I0616 21:38:59.363869 32690 net.cpp:425] conv3_1 <- pool2
I0616 21:38:59.363904 32690 net.cpp:399] conv3_1 -> conv3_1
I0616 21:38:59.365547 32690 net.cpp:141] Setting up conv3_1
I0616 21:38:59.365618 32690 net.cpp:148] Top shape: 10 256 56 56 (8028160)
I0616 21:38:59.365633 32690 net.cpp:156] Memory required for data: 857006200
I0616 21:38:59.365667 32690 layer_factory.hpp:77] Creating layer relu3_1
I0616 21:38:59.365690 32690 net.cpp:91] Creating Layer relu3_1
I0616 21:38:59.365715 32690 net.cpp:425] relu3_1 <- conv3_1
I0616 21:38:59.365733 32690 net.cpp:386] relu3_1 -> conv3_1 (in-place)
I0616 21:38:59.365759 32690 net.cpp:141] Setting up relu3_1
I0616 21:38:59.365782 32690 net.cpp:148] Top shape: 10 256 56 56 (8028160)
I0616 21:38:59.365800 32690 net.cpp:156] Memory required for data: 889118840
I0616 21:38:59.365814 32690 layer_factory.hpp:77] Creating layer conv3_2
I0616 21:38:59.365842 32690 net.cpp:91] Creating Layer conv3_2
I0616 21:38:59.365860 32690 net.cpp:425] conv3_2 <- conv3_1
I0616 21:38:59.365880 32690 net.cpp:399] conv3_2 -> conv3_2
I0616 21:38:59.368960 32690 net.cpp:141] Setting up conv3_2
I0616 21:38:59.369041 32690 net.cpp:148] Top shape: 10 256 56 56 (8028160)
I0616 21:38:59.369056 32690 net.cpp:156] Memory required for data: 921231480
I0616 21:38:59.369093 32690 layer_factory.hpp:77] Creating layer relu3_2
I0616 21:38:59.369118 32690 net.cpp:91] Creating Layer relu3_2
I0616 21:38:59.369141 32690 net.cpp:425] relu3_2 <- conv3_2
I0616 21:38:59.369160 32690 net.cpp:386] relu3_2 -> conv3_2 (in-place)
I0616 21:38:59.369192 32690 net.cpp:141] Setting up relu3_2
I0616 21:38:59.369215 32690 net.cpp:148] Top shape: 10 256 56 56 (8028160)
I0616 21:38:59.369235 32690 net.cpp:156] Memory required for data: 953344120
I0616 21:38:59.369254 32690 layer_factory.hpp:77] Creating layer conv3_3
I0616 21:38:59.369282 32690 net.cpp:91] Creating Layer conv3_3
I0616 21:38:59.369298 32690 net.cpp:425] conv3_3 <- conv3_2
I0616 21:38:59.369320 32690 net.cpp:399] conv3_3 -> conv3_3
I0616 21:38:59.372450 32690 net.cpp:141] Setting up conv3_3
I0616 21:38:59.372529 32690 net.cpp:148] Top shape: 10 256 56 56 (8028160)
I0616 21:38:59.372557 32690 net.cpp:156] Memory required for data: 985456760
I0616 21:38:59.372577 32690 layer_factory.hpp:77] Creating layer relu3_3
I0616 21:38:59.372598 32690 net.cpp:91] Creating Layer relu3_3
I0616 21:38:59.372613 32690 net.cpp:425] relu3_3 <- conv3_3
I0616 21:38:59.372635 32690 net.cpp:386] relu3_3 -> conv3_3 (in-place)
I0616 21:38:59.372669 32690 net.cpp:141] Setting up relu3_3
I0616 21:38:59.372691 32690 net.cpp:148] Top shape: 10 256 56 56 (8028160)
I0616 21:38:59.372705 32690 net.cpp:156] Memory required for data: 1017569400
I0616 21:38:59.372727 32690 layer_factory.hpp:77] Creating layer pool3
I0616 21:38:59.372824 32690 net.cpp:91] Creating Layer pool3
I0616 21:38:59.372861 32690 net.cpp:425] pool3 <- conv3_3
I0616 21:38:59.372884 32690 net.cpp:399] pool3 -> pool3
I0616 21:38:59.372983 32690 net.cpp:141] Setting up pool3
I0616 21:38:59.373059 32690 net.cpp:148] Top shape: 10 256 28 28 (2007040)
I0616 21:38:59.373075 32690 net.cpp:156] Memory required for data: 1025597560
I0616 21:38:59.373092 32690 layer_factory.hpp:77] Creating layer conv4_1
I0616 21:38:59.373117 32690 net.cpp:91] Creating Layer conv4_1
I0616 21:38:59.373134 32690 net.cpp:425] conv4_1 <- pool3
I0616 21:38:59.373157 32690 net.cpp:399] conv4_1 -> conv4_1
I0616 21:38:59.380894 32690 net.cpp:141] Setting up conv4_1
I0616 21:38:59.381041 32690 net.cpp:148] Top shape: 10 512 28 28 (4014080)
I0616 21:38:59.381074 32690 net.cpp:156] Memory required for data: 1041653880
I0616 21:38:59.381099 32690 layer_factory.hpp:77] Creating layer relu4_1
I0616 21:38:59.381136 32690 net.cpp:91] Creating Layer relu4_1
I0616 21:38:59.381152 32690 net.cpp:425] relu4_1 <- conv4_1
I0616 21:38:59.381181 32690 net.cpp:386] relu4_1 -> conv4_1 (in-place)
I0616 21:38:59.381212 32690 net.cpp:141] Setting up relu4_1
I0616 21:38:59.381237 32690 net.cpp:148] Top shape: 10 512 28 28 (4014080)
I0616 21:38:59.381255 32690 net.cpp:156] Memory required for data: 1057710200
I0616 21:38:59.381271 32690 layer_factory.hpp:77] Creating layer conv4_2
I0616 21:38:59.381296 32690 net.cpp:91] Creating Layer conv4_2
I0616 21:38:59.381314 32690 net.cpp:425] conv4_2 <- conv4_1
I0616 21:38:59.381333 32690 net.cpp:399] conv4_2 -> conv4_2
I0616 21:38:59.391932 32690 net.cpp:141] Setting up conv4_2
I0616 21:38:59.392055 32690 net.cpp:148] Top shape: 10 512 28 28 (4014080)
I0616 21:38:59.392103 32690 net.cpp:156] Memory required for data: 1073766520
I0616 21:38:59.392138 32690 layer_factory.hpp:77] Creating layer relu4_2
I0616 21:38:59.392169 32690 net.cpp:91] Creating Layer relu4_2
I0616 21:38:59.392186 32690 net.cpp:425] relu4_2 <- conv4_2
I0616 21:38:59.392216 32690 net.cpp:386] relu4_2 -> conv4_2 (in-place)
I0616 21:38:59.392251 32690 net.cpp:141] Setting up relu4_2
I0616 21:38:59.392272 32690 net.cpp:148] Top shape: 10 512 28 28 (4014080)
I0616 21:38:59.392285 32690 net.cpp:156] Memory required for data: 1089822840
I0616 21:38:59.392304 32690 layer_factory.hpp:77] Creating layer conv4_3
I0616 21:38:59.392336 32690 net.cpp:91] Creating Layer conv4_3
I0616 21:38:59.392354 32690 net.cpp:425] conv4_3 <- conv4_2
I0616 21:38:59.392372 32690 net.cpp:399] conv4_3 -> conv4_3
I0616 21:38:59.403141 32690 net.cpp:141] Setting up conv4_3
I0616 21:38:59.403273 32690 net.cpp:148] Top shape: 10 512 28 28 (4014080)
I0616 21:38:59.403288 32690 net.cpp:156] Memory required for data: 1105879160
I0616 21:38:59.403314 32690 layer_factory.hpp:77] Creating layer relu4_3
I0616 21:38:59.403375 32690 net.cpp:91] Creating Layer relu4_3
I0616 21:38:59.403391 32690 net.cpp:425] relu4_3 <- conv4_3
I0616 21:38:59.403417 32690 net.cpp:386] relu4_3 -> conv4_3 (in-place)
I0616 21:38:59.403453 32690 net.cpp:141] Setting up relu4_3
I0616 21:38:59.403477 32690 net.cpp:148] Top shape: 10 512 28 28 (4014080)
I0616 21:38:59.403497 32690 net.cpp:156] Memory required for data: 1121935480
I0616 21:38:59.403517 32690 layer_factory.hpp:77] Creating layer pool4
I0616 21:38:59.403537 32690 net.cpp:91] Creating Layer pool4
I0616 21:38:59.403558 32690 net.cpp:425] pool4 <- conv4_3
I0616 21:38:59.403579 32690 net.cpp:399] pool4 -> pool4
I0616 21:38:59.403658 32690 net.cpp:141] Setting up pool4
I0616 21:38:59.403775 32690 net.cpp:148] Top shape: 10 512 14 14 (1003520)
I0616 21:38:59.403795 32690 net.cpp:156] Memory required for data: 1125949560
I0616 21:38:59.403810 32690 layer_factory.hpp:77] Creating layer conv5_1
I0616 21:38:59.403851 32690 net.cpp:91] Creating Layer conv5_1
I0616 21:38:59.403868 32690 net.cpp:425] conv5_1 <- pool4
I0616 21:38:59.403893 32690 net.cpp:399] conv5_1 -> conv5_1
I0616 21:38:59.414630 32690 net.cpp:141] Setting up conv5_1
I0616 21:38:59.414754 32690 net.cpp:148] Top shape: 10 512 14 14 (1003520)
I0616 21:38:59.414801 32690 net.cpp:156] Memory required for data: 1129963640
I0616 21:38:59.414825 32690 layer_factory.hpp:77] Creating layer relu5_1
I0616 21:38:59.414852 32690 net.cpp:91] Creating Layer relu5_1
I0616 21:38:59.414870 32690 net.cpp:425] relu5_1 <- conv5_1
I0616 21:38:59.414896 32690 net.cpp:386] relu5_1 -> conv5_1 (in-place)
I0616 21:38:59.414927 32690 net.cpp:141] Setting up relu5_1
I0616 21:38:59.414952 32690 net.cpp:148] Top shape: 10 512 14 14 (1003520)
I0616 21:38:59.414970 32690 net.cpp:156] Memory required for data: 1133977720
I0616 21:38:59.414990 32690 layer_factory.hpp:77] Creating layer conv5_2
I0616 21:38:59.415017 32690 net.cpp:91] Creating Layer conv5_2
I0616 21:38:59.415149 32690 net.cpp:425] conv5_2 <- conv5_1
I0616 21:38:59.415170 32690 net.cpp:399] conv5_2 -> conv5_2
I0616 21:38:59.425954 32690 net.cpp:141] Setting up conv5_2
I0616 21:38:59.426074 32690 net.cpp:148] Top shape: 10 512 14 14 (1003520)
I0616 21:38:59.426118 32690 net.cpp:156] Memory required for data: 1137991800
I0616 21:38:59.426143 32690 layer_factory.hpp:77] Creating layer relu5_2
I0616 21:38:59.426173 32690 net.cpp:91] Creating Layer relu5_2
I0616 21:38:59.426190 32690 net.cpp:425] relu5_2 <- conv5_2
I0616 21:38:59.426213 32690 net.cpp:386] relu5_2 -> conv5_2 (in-place)
I0616 21:38:59.426249 32690 net.cpp:141] Setting up relu5_2
I0616 21:38:59.426270 32690 net.cpp:148] Top shape: 10 512 14 14 (1003520)
I0616 21:38:59.426290 32690 net.cpp:156] Memory required for data: 1142005880
I0616 21:38:59.426303 32690 layer_factory.hpp:77] Creating layer conv5_3
I0616 21:38:59.426329 32690 net.cpp:91] Creating Layer conv5_3
I0616 21:38:59.426348 32690 net.cpp:425] conv5_3 <- conv5_2
I0616 21:38:59.426374 32690 net.cpp:399] conv5_3 -> conv5_3
I0616 21:38:59.437269 32690 net.cpp:141] Setting up conv5_3
I0616 21:38:59.437386 32690 net.cpp:148] Top shape: 10 512 14 14 (1003520)
I0616 21:38:59.437414 32690 net.cpp:156] Memory required for data: 1146019960
I0616 21:38:59.437438 32690 layer_factory.hpp:77] Creating layer relu5_3
I0616 21:38:59.437469 32690 net.cpp:91] Creating Layer relu5_3
I0616 21:38:59.437486 32690 net.cpp:425] relu5_3 <- conv5_3
I0616 21:38:59.437511 32690 net.cpp:386] relu5_3 -> conv5_3 (in-place)
I0616 21:38:59.437541 32690 net.cpp:141] Setting up relu5_3
I0616 21:38:59.437566 32690 net.cpp:148] Top shape: 10 512 14 14 (1003520)
I0616 21:38:59.437584 32690 net.cpp:156] Memory required for data: 1150034040
I0616 21:38:59.437598 32690 layer_factory.hpp:77] Creating layer pool5
I0616 21:38:59.437630 32690 net.cpp:91] Creating Layer pool5
I0616 21:38:59.437654 32690 net.cpp:425] pool5 <- conv5_3
I0616 21:38:59.437679 32690 net.cpp:399] pool5 -> pool5
I0616 21:38:59.437765 32690 net.cpp:141] Setting up pool5
I0616 21:38:59.437882 32690 net.cpp:148] Top shape: 10 512 7 7 (250880)
I0616 21:38:59.437901 32690 net.cpp:156] Memory required for data: 1151037560
I0616 21:38:59.437917 32690 layer_factory.hpp:77] Creating layer fc_6
I0616 21:38:59.437953 32690 net.cpp:91] Creating Layer fc_6
I0616 21:38:59.437984 32690 net.cpp:425] fc_6 <- pool5
I0616 21:38:59.438009 32690 net.cpp:399] fc_6 -> fc_6
I0616 21:38:59.525980 32690 net.cpp:141] Setting up fc_6
I0616 21:38:59.526108 32690 net.cpp:148] Top shape: 10 256 (2560)
I0616 21:38:59.526124 32690 net.cpp:156] Memory required for data: 1151047800
I0616 21:38:59.526149 32690 layer_factory.hpp:77] Creating layer relu_fc6
I0616 21:38:59.526207 32690 net.cpp:91] Creating Layer relu_fc6
I0616 21:38:59.526224 32690 net.cpp:425] relu_fc6 <- fc_6
I0616 21:38:59.526247 32690 net.cpp:386] relu_fc6 -> fc_6 (in-place)
I0616 21:38:59.526275 32690 net.cpp:141] Setting up relu_fc6
I0616 21:38:59.526298 32690 net.cpp:148] Top shape: 10 256 (2560)
I0616 21:38:59.526316 32690 net.cpp:156] Memory required for data: 1151058040
I0616 21:38:59.526337 32690 layer_factory.hpp:77] Creating layer fc_7
I0616 21:38:59.526363 32690 net.cpp:91] Creating Layer fc_7
I0616 21:38:59.526383 32690 net.cpp:425] fc_7 <- fc_6
I0616 21:38:59.526407 32690 net.cpp:399] fc_7 -> fc_7
I0616 21:38:59.527022 32690 net.cpp:141] Setting up fc_7
I0616 21:38:59.527107 32690 net.cpp:148] Top shape: 10 135 (1350)
I0616 21:38:59.527124 32690 net.cpp:156] Memory required for data: 1151063440
I0616 21:38:59.527144 32690 layer_factory.hpp:77] Creating layer fc_7_fc_7_0_split
I0616 21:38:59.527164 32690 net.cpp:91] Creating Layer fc_7_fc_7_0_split
I0616 21:38:59.527179 32690 net.cpp:425] fc_7_fc_7_0_split <- fc_7
I0616 21:38:59.527199 32690 net.cpp:399] fc_7_fc_7_0_split -> fc_7_fc_7_0_split_0
I0616 21:38:59.527221 32690 net.cpp:399] fc_7_fc_7_0_split -> fc_7_fc_7_0_split_1
I0616 21:38:59.527297 32690 net.cpp:141] Setting up fc_7_fc_7_0_split
I0616 21:38:59.527384 32690 net.cpp:148] Top shape: 10 135 (1350)
I0616 21:38:59.527443 32690 net.cpp:148] Top shape: 10 135 (1350)
I0616 21:38:59.527462 32690 net.cpp:156] Memory required for data: 1151074240
I0616 21:38:59.527475 32690 layer_factory.hpp:77] Creating layer accuracy_top1-Treino
I0616 21:38:59.527536 32690 net.cpp:91] Creating Layer accuracy_top1-Treino
I0616 21:38:59.527608 32690 net.cpp:425] accuracy_top1-Treino <- fc_7_fc_7_0_split_0
I0616 21:38:59.527629 32690 net.cpp:425] accuracy_top1-Treino <- label_data_1_split_0
…
I0616 21:38:59.530344 32690 net.cpp:313] The NetState phase (1) differed from the phase (0) specified by a rule in layer accuracy_top1-Treino
I0616 21:38:59.530377 32690 net.cpp:313] The NetState phase (1) differed from the phase (0) specified by a rule in layer loss-treino
I0616 21:38:59.530679 32690 net.cpp:49] Initializing net from parameters: 
name: "arface-vgg"
state {
  phase: TEST
}
layer {
  name: "data"
  type: "ImageData"
  top: "data"
  top: "label"
  include {
    phase: TEST
  }
  image_data_param {
    source: "teste.txt"
    batch_size: 5
    new_height: 224
    new_width: 224
  }
}
layer {
  name: "conv1_1"
  type: "Convolution"
  bottom: "data"
  top: "conv1_1"
  param {
    lr_mult: 0.1
  }
  convolution_param {
    num_output: 64
    pad: 1
    kernel_size: 3
  }
}
layer {
  name: "relu1_1"
  type: "ReLU"
  bottom: "conv1_1"
  top: "conv1_1"
}
layer {
  name: "conv1_2"
  type: "Convolution"
  bottom: "conv1_1"
  top: "conv1_2"
  param {
    lr_mult: 0.1
  }
  convolution_param {
    num_output: 64
    pad: 1
    kernel_size: 3
  }
}
layer {
  name: "relu1_2"
  type: "ReLU"
  bottom: "conv1_2"
  top: "conv1_2"
}
layer {
  name: "pool1"
  type: "Pooling"
  bottom: "conv1_2"
  top: "pool1"
  pooling_param {
    pool: MAX
    kernel_size: 2
    stride: 2
  }
}
layer {
  name: "conv2_1"
  type: "Convolution"
  bottom: "pool1"
  top: "conv2_1"
  param {
    lr_mult: 0.1
  }
  convolution_param {
    num_output: 128
    pad: 1
    kernel_size: 3
  }
}
layer {
  name: "relu2_1"
  type: "ReLU"
  bottom: "conv2_1"
  top: "conv2_1"
}
layer {
  name: "conv2_2"
  type: "Convolution"
  bottom: "conv2_1"
  top: "conv2_2"
  param {
    lr_mult: 0.1
  }
  convolution_param {
    num_output: 128
    pad: 1
    kernel_size: 3
  }
}
layer {
  name: "relu2_2"
  type: "ReLU"
  bottom: "conv2_2"
  top: "conv2_2"
}
layer {
  name: "pool2"
  type: "Pooling"
  bottom: "conv2_2"
  top: "pool2"
  pooling_param {
    pool: MAX
    kernel_size: 2
    stride: 2
  }
}
layer {
  name: "conv3_1"
  type: "Convolution"
  bottom: "pool2"
  top: "conv3_1"
  param {
    lr_mult: 0.1
    decay_mult: 1
  }
  convolution_param {
    num_output: 256
    pad: 1
    kernel_size: 3
  }
}
layer {
  name: "relu3_1"
  type: "ReLU"
  bottom: "conv3_1"
  top: "conv3_1"
}
layer {
  name: "conv3_2"
  type: "Convolution"
  bottom: "conv3_1"
  top: "conv3_2"
  param {
    lr_mult: 0.1
  }
  convolution_param {
    num_output: 256
    pad: 1
    kernel_size: 3
  }
}
layer {
  name: "relu3_2"
  type: "ReLU"
  bottom: "conv3_2"
  top: "conv3_2"
}
layer {
  name: "conv3_3"
  type: "Convolution"
  bottom: "conv3_2"
  top: "conv3_3"
  param {
    lr_mult: 0.1
  }
  convolution_param {
    num_output: 256
    pad: 1
    kernel_size: 3
  }
}
layer {
  name: "relu3_3"
  type: "ReLU"
  bottom: "conv3_3"
  top: "conv3_3"
}
layer {
  name: "pool3"
  type: "Pooling"
  bottom: "conv3_3"
  top: "pool3"
  pooling_param {
    pool: MAX
    kernel_size: 2
    stride: 2
  }
}
layer {
  name: "conv4_1"
  type: "Convolution"
  bottom: "pool3"
  top: "conv4_1"
  param {
    lr_mult: 0.1
  }
  convolution_param {
    num_output: 512
    pad: 1
    kernel_size: 3
  }
}
layer {
  name: "relu4_1"
  type: "ReLU"
  bottom: "conv4_1"
  top: "conv4_1"
}
layer {
  name: "conv4_2"
  type: "Convolution"
  bottom: "conv4_1"
  top: "conv4_2"
  param {
    lr_mult: 0.1
  }
  convolution_param {
    num_output: 512
    pad: 1
    kernel_size: 3
  }
}
layer {
  name: "relu4_2"
  type: "ReLU"
  bottom: "conv4_2"
  top: "conv4_2"
}
layer {
  name: "conv4_3"
  type: "Convolution"
  bottom: "conv4_2"
  top: "conv4_3"
  param {
    lr_mult: 0.1
  }
  convolution_param {
    num_output: 512
    pad: 1
    kernel_size: 3
  }
}
layer {
  name: "relu4_3"
  type: "ReLU"
  bottom: "conv4_3"
  top: "conv4_3"
}
layer {
  name: "pool4"
  type: "Pooling"
  bottom: "conv4_3"
  top: "pool4"
  pooling_param {
    pool: MAX
    kernel_size: 2
    stride: 2
  }
}
layer {
  name: "conv5_1"
  type: "Convolution"
  bottom: "pool4"
  top: "conv5_1"
  param {
    lr_mult: 0.1
  }
  convolution_param {
    num_output: 512
    pad: 1
    kernel_size: 3
  }
}
layer {
  name: "relu5_1"
  type: "ReLU"
  bottom: "conv5_1"
  top: "conv5_1"
}
layer {
  name: "conv5_2"
  type: "Convolution"
  bottom: "conv5_1"
  top: "conv5_2"
  param {
    lr_mult: 0.1
  }
  convolution_param {
    num_output: 512
    pad: 1
    kernel_size: 3
  }
}
layer {
  name: "relu5_2"
  type: "ReLU"
  bottom: "conv5_2"
  top: "conv5_2"
}
layer {
  name: "conv5_3"
  type: "Convolution"
  bottom: "conv5_2"
  top: "conv5_3"
  param {
    lr_mult: 0.1
  }
  convolution_param {
    num_output: 512
    pad: 1
    kernel_size: 3
  }
}
layer {
  name: "relu5_3"
  type: "ReLU"
  bottom: "conv5_3"
  top: "conv5_3"
}
layer {
  name: "pool5"
  type: "Pooling"
  bottom: "conv5_3"
  top: "pool5"
  pooling_param {
    pool: MAX
    kernel_size: 2
    stride: 2
  }
}
layer {
  name: "fc_6"
  type: "InnerProduct"
  bottom: "pool5"
  top: "fc_6"
  param {
    lr_mult: 1
    decay_mult: 1
  }
  param {
    lr_mult: 2
    decay_mult: 2
  }
  inner_product_param {
    num_output: 256
    weight_filler {
      type: "xavier"
    }
  }
}
layer {
  name: "relu_fc6"
  type: "ReLU"
  bottom: "fc_6"
  top: "fc_6"
}
layer {
  name: "fc_7"
  type: "InnerProduct"
  bottom: "fc_6"
  top: "fc_7"
  param {
    lr_mult: 1
    decay_mult: 1
  }
  param {
    lr_mult: 2
    decay_mult: 1
  }
  inner_product_param {
    num_output: 135
    weight_filler {
      type: "xavier"
      std: 0.5
    }
    bias_filler {
      type: "constant"
      value: 0.1
    }
  }
}
layer {
  name: "accuracy_top1-teste"
  type: "Accuracy"
  bottom: "fc_7"
  bottom: "label"
  top: "accuracy_top1-teste"
  include {
    phase: TEST
  }
  accuracy_param {
    top_k: 1
  }
}
layer {
  name: "accuracy_top5-teste"
  type: "Accuracy"
  bottom: "fc_7"
  bottom: "label"
  top: "accuracy_top5-teste"
  include {
    phase: TEST
  }
  accuracy_param {
    top_k: 5
  }
}
layer {
  name: "loss"
  type: "SoftmaxWithLoss"
  bottom: "fc_7"
  bottom: "label"
  top: "loss"
  include {
    phase: TEST
  }
}
I0616 21:38:59.533725 32690 layer_factory.hpp:77] Creating layer data
I0616 21:38:59.533768 32690 net.cpp:91] Creating Layer data
I0616 21:38:59.533802 32690 net.cpp:399] data -> data
I0616 21:38:59.533830 32690 net.cpp:399] data -> label
I0616 21:38:59.533859 32690 image_data_layer.cpp:38] Opening file teste.txt
I0616 21:38:59.533988 32690 image_data_layer.cpp:53] A total of 119 images.
I0616 21:38:59.546830 32690 image_data_layer.cpp:80] output data size: 5,3,224,224
I0616 21:38:59.558298 32690 net.cpp:141] Setting up data
I0616 21:38:59.558423 32690 net.cpp:148] Top shape: 5 3 224 224 (752640)
I0616 21:38:59.558459 32690 net.cpp:148] Top shape: 5 (5)
I0616 21:38:59.558471 32690 net.cpp:156] Memory required for data: 3010580
I0616 21:38:59.558498 32690 layer_factory.hpp:77] Creating layer label_data_1_split
I0616 21:38:59.558526 32690 net.cpp:91] Creating Layer label_data_1_split
I0616 21:38:59.558547 32690 net.cpp:425] label_data_1_split <- label
I0616 21:38:59.558568 32690 net.cpp:399] label_data_1_split -> label_data_1_split_0
I0616 21:38:59.558603 32690 net.cpp:399] label_data_1_split -> label_data_1_split_1
I0616 21:38:59.558625 32690 net.cpp:399] label_data_1_split -> label_data_1_split_2
I0616 21:38:59.559695 32690 net.cpp:141] Setting up label_data_1_split
I0616 21:38:59.559804 32690 net.cpp:148] Top shape: 5 (5)
I0616 21:38:59.559830 32690 net.cpp:148] Top shape: 5 (5)
I0616 21:38:59.559846 32690 net.cpp:148] Top shape: 5 (5)
I0616 21:38:59.559873 32690 net.cpp:156] Memory required for data: 3010640
I0616 21:38:59.559888 32690 layer_factory.hpp:77] Creating layer conv1_1
I0616 21:38:59.559914 32690 net.cpp:91] Creating Layer conv1_1
I0616 21:38:59.559937 32690 net.cpp:425] conv1_1 <- data
I0616 21:38:59.559962 32690 net.cpp:399] conv1_1 -> conv1_1
I0616 21:38:59.560472 32690 net.cpp:141] Setting up conv1_1
I0616 21:38:59.560557 32690 net.cpp:148] Top shape: 5 64 224 224 (16056320)
I0616 21:38:59.560585 32690 net.cpp:156] Memory required for data: 67235920
I0616 21:38:59.560618 32690 layer_factory.hpp:77] Creating layer relu1_1
I0616 21:38:59.560641 32690 net.cpp:91] Creating Layer relu1_1
I0616 21:38:59.560657 32690 net.cpp:425] relu1_1 <- conv1_1
I0616 21:38:59.560678 32690 net.cpp:386] relu1_1 -> conv1_1 (in-place)
I0616 21:38:59.560701 32690 net.cpp:141] Setting up relu1_1
I0616 21:38:59.560719 32690 net.cpp:148] Top shape: 5 64 224 224 (16056320)
I0616 21:38:59.560734 32690 net.cpp:156] Memory required for data: 131461200
I0616 21:38:59.560842 32690 layer_factory.hpp:77] Creating layer conv1_2
I0616 21:38:59.560868 32690 net.cpp:91] Creating Layer conv1_2
I0616 21:38:59.560885 32690 net.cpp:425] conv1_2 <- conv1_1
I0616 21:38:59.560994 32690 net.cpp:399] conv1_2 -> conv1_2
I0616 21:38:59.562319 32690 net.cpp:141] Setting up conv1_2
I0616 21:38:59.562408 32690 net.cpp:148] Top shape: 5 64 224 224 (16056320)
I0616 21:38:59.562434 32690 net.cpp:156] Memory required for data: 195686480
I0616 21:38:59.562465 32690 layer_factory.hpp:77] Creating layer relu1_2
I0616 21:38:59.562490 32690 net.cpp:91] Creating Layer relu1_2
I0616 21:38:59.562505 32690 net.cpp:425] relu1_2 <- conv1_2
I0616 21:38:59.562523 32690 net.cpp:386] relu1_2 -> conv1_2 (in-place)
I0616 21:38:59.562549 32690 net.cpp:141] Setting up relu1_2
I0616 21:38:59.562573 32690 net.cpp:148] Top shape: 5 64 224 224 (16056320)
I0616 21:38:59.562593 32690 net.cpp:156] Memory required for data: 259911760
I0616 21:38:59.562608 32690 layer_factory.hpp:77] Creating layer pool1
I0616 21:38:59.562628 32690 net.cpp:91] Creating Layer pool1
I0616 21:38:59.562644 32690 net.cpp:425] pool1 <- conv1_2
I0616 21:38:59.562661 32690 net.cpp:399] pool1 -> pool1
I0616 21:38:59.562738 32690 net.cpp:141] Setting up pool1
I0616 21:38:59.562824 32690 net.cpp:148] Top shape: 5 64 112 112 (4014080)
I0616 21:38:59.562839 32690 net.cpp:156] Memory required for data: 275968080
I0616 21:38:59.562862 32690 layer_factory.hpp:77] Creating layer conv2_1
I0616 21:38:59.562885 32690 net.cpp:91] Creating Layer conv2_1
I0616 21:38:59.562901 32690 net.cpp:425] conv2_1 <- pool1
I0616 21:38:59.562921 32690 net.cpp:399] conv2_1 -> conv2_1
I0616 21:38:59.564239 32690 net.cpp:141] Setting up conv2_1
I0616 21:38:59.564329 32690 net.cpp:148] Top shape: 5 128 112 112 (8028160)
I0616 21:38:59.564357 32690 net.cpp:156] Memory required for data: 308080720
I0616 21:38:59.564378 32690 layer_factory.hpp:77] Creating layer relu2_1
I0616 21:38:59.564399 32690 net.cpp:91] Creating Layer relu2_1
I0616 21:38:59.564424 32690 net.cpp:425] relu2_1 <- conv2_1
I0616 21:38:59.564441 32690 net.cpp:386] relu2_1 -> conv2_1 (in-place)
I0616 21:38:59.564470 32690 net.cpp:141] Setting up relu2_1
I0616 21:38:59.564491 32690 net.cpp:148] Top shape: 5 128 112 112 (8028160)
I0616 21:38:59.564508 32690 net.cpp:156] Memory required for data: 340193360
I0616 21:38:59.564522 32690 layer_factory.hpp:77] Creating layer conv2_2
I0616 21:38:59.564543 32690 net.cpp:91] Creating Layer conv2_2
I0616 21:38:59.564561 32690 net.cpp:425] conv2_2 <- conv2_1
I0616 21:38:59.564579 32690 net.cpp:399] conv2_2 -> conv2_2
I0616 21:38:59.565246 32690 net.cpp:141] Setting up conv2_2
I0616 21:38:59.565333 32690 net.cpp:148] Top shape: 5 128 112 112 (8028160)
I0616 21:38:59.565349 32690 net.cpp:156] Memory required for data: 372306000
I0616 21:38:59.565387 32690 layer_factory.hpp:77] Creating layer relu2_2
I0616 21:38:59.565412 32690 net.cpp:91] Creating Layer relu2_2
I0616 21:38:59.565428 32690 net.cpp:425] relu2_2 <- conv2_2
I0616 21:38:59.565445 32690 net.cpp:386] relu2_2 -> conv2_2 (in-place)
I0616 21:38:59.565465 32690 net.cpp:141] Setting up relu2_2
I0616 21:38:59.565485 32690 net.cpp:148] Top shape: 5 128 112 112 (8028160)
I0616 21:38:59.565500 32690 net.cpp:156] Memory required for data: 404418640
I0616 21:38:59.565515 32690 layer_factory.hpp:77] Creating layer pool2
I0616 21:38:59.565532 32690 net.cpp:91] Creating Layer pool2
I0616 21:38:59.565547 32690 net.cpp:425] pool2 <- conv2_2
I0616 21:38:59.565567 32690 net.cpp:399] pool2 -> pool2
I0616 21:38:59.565641 32690 net.cpp:141] Setting up pool2
I0616 21:38:59.565742 32690 net.cpp:148] Top shape: 5 128 56 56 (2007040)
I0616 21:38:59.565759 32690 net.cpp:156] Memory required for data: 412446800
I0616 21:38:59.565775 32690 layer_factory.hpp:77] Creating layer conv3_1
I0616 21:38:59.565794 32690 net.cpp:91] Creating Layer conv3_1
I0616 21:38:59.565811 32690 net.cpp:425] conv3_1 <- pool2
I0616 21:38:59.565830 32690 net.cpp:399] conv3_1 -> conv3_1
I0616 21:38:59.567519 32690 net.cpp:141] Setting up conv3_1
I0616 21:38:59.567605 32690 net.cpp:148] Top shape: 5 256 56 56 (4014080)
I0616 21:38:59.567632 32690 net.cpp:156] Memory required for data: 428503120
I0616 21:38:59.567663 32690 layer_factory.hpp:77] Creating layer relu3_1
I0616 21:38:59.567689 32690 net.cpp:91] Creating Layer relu3_1
I0616 21:38:59.567704 32690 net.cpp:425] relu3_1 <- conv3_1
I0616 21:38:59.567723 32690 net.cpp:386] relu3_1 -> conv3_1 (in-place)
I0616 21:38:59.567747 32690 net.cpp:141] Setting up relu3_1
I0616 21:38:59.567770 32690 net.cpp:148] Top shape: 5 256 56 56 (4014080)
I0616 21:38:59.567787 32690 net.cpp:156] Memory required for data: 444559440
I0616 21:38:59.567802 32690 layer_factory.hpp:77] Creating layer conv3_2
I0616 21:38:59.567821 32690 net.cpp:91] Creating Layer conv3_2
I0616 21:38:59.567836 32690 net.cpp:425] conv3_2 <- conv3_1
I0616 21:38:59.567857 32690 net.cpp:399] conv3_2 -> conv3_2
I0616 21:38:59.571112 32690 net.cpp:141] Setting up conv3_2
I0616 21:38:59.571211 32690 net.cpp:148] Top shape: 5 256 56 56 (4014080)
I0616 21:38:59.571228 32690 net.cpp:156] Memory required for data: 460615760
I0616 21:38:59.571247 32690 layer_factory.hpp:77] Creating layer relu3_2
I0616 21:38:59.571269 32690 net.cpp:91] Creating Layer relu3_2
I0616 21:38:59.571285 32690 net.cpp:425] relu3_2 <- conv3_2
I0616 21:38:59.571305 32690 net.cpp:386] relu3_2 -> conv3_2 (in-place)
I0616 21:38:59.571346 32690 net.cpp:141] Setting up relu3_2
I0616 21:38:59.571368 32690 net.cpp:148] Top shape: 5 256 56 56 (4014080)
I0616 21:38:59.571387 32690 net.cpp:156] Memory required for data: 476672080
I0616 21:38:59.571400 32690 layer_factory.hpp:77] Creating layer conv3_3
I0616 21:38:59.571431 32690 net.cpp:91] Creating Layer conv3_3
I0616 21:38:59.571451 32690 net.cpp:425] conv3_3 <- conv3_2
I0616 21:38:59.571470 32690 net.cpp:399] conv3_3 -> conv3_3
I0616 21:38:59.574708 32690 net.cpp:141] Setting up conv3_3
I0616 21:38:59.574805 32690 net.cpp:148] Top shape: 5 256 56 56 (4014080)
I0616 21:38:59.574836 32690 net.cpp:156] Memory required for data: 492728400
I0616 21:38:59.574857 32690 layer_factory.hpp:77] Creating layer relu3_3
I0616 21:38:59.574880 32690 net.cpp:91] Creating Layer relu3_3
I0616 21:38:59.574905 32690 net.cpp:425] relu3_3 <- conv3_3
I0616 21:38:59.574929 32690 net.cpp:386] relu3_3 -> conv3_3 (in-place)
I0616 21:38:59.574954 32690 net.cpp:141] Setting up relu3_3
I0616 21:38:59.574971 32690 net.cpp:148] Top shape: 5 256 56 56 (4014080)
I0616 21:38:59.574992 32690 net.cpp:156] Memory required for data: 508784720
I0616 21:38:59.575006 32690 layer_factory.hpp:77] Creating layer pool3
I0616 21:38:59.575026 32690 net.cpp:91] Creating Layer pool3
I0616 21:38:59.575047 32690 net.cpp:425] pool3 <- conv3_3
I0616 21:38:59.575067 32690 net.cpp:399] pool3 -> pool3
I0616 21:38:59.575470 32690 net.cpp:141] Setting up pool3
I0616 21:38:59.575587 32690 net.cpp:148] Top shape: 5 256 28 28 (1003520)
I0616 21:38:59.575603 32690 net.cpp:156] Memory required for data: 512798800
I0616 21:38:59.575620 32690 layer_factory.hpp:77] Creating layer conv4_1
I0616 21:38:59.575644 32690 net.cpp:91] Creating Layer conv4_1
I0616 21:38:59.575660 32690 net.cpp:425] conv4_1 <- pool3
I0616 21:38:59.575680 32690 net.cpp:399] conv4_1 -> conv4_1
I0616 21:38:59.581470 32690 net.cpp:141] Setting up conv4_1
I0616 21:38:59.581583 32690 net.cpp:148] Top shape: 5 512 28 28 (2007040)
I0616 21:38:59.581599 32690 net.cpp:156] Memory required for data: 520826960
I0616 21:38:59.581642 32690 layer_factory.hpp:77] Creating layer relu4_1
I0616 21:38:59.581667 32690 net.cpp:91] Creating Layer relu4_1
I0616 21:38:59.581683 32690 net.cpp:425] relu4_1 <- conv4_1
I0616 21:38:59.581704 32690 net.cpp:386] relu4_1 -> conv4_1 (in-place)
I0616 21:38:59.581738 32690 net.cpp:141] Setting up relu4_1
I0616 21:38:59.581761 32690 net.cpp:148] Top shape: 5 512 28 28 (2007040)
I0616 21:38:59.581781 32690 net.cpp:156] Memory required for data: 528855120
I0616 21:38:59.581795 32690 layer_factory.hpp:77] Creating layer conv4_2
I0616 21:38:59.581823 32690 net.cpp:91] Creating Layer conv4_2
I0616 21:38:59.581840 32690 net.cpp:425] conv4_2 <- conv4_1
I0616 21:38:59.581861 32690 net.cpp:399] conv4_2 -> conv4_2
I0616 21:38:59.592622 32690 net.cpp:141] Setting up conv4_2
I0616 21:38:59.592850 32690 net.cpp:148] Top shape: 5 512 28 28 (2007040)
I0616 21:38:59.592890 32690 net.cpp:156] Memory required for data: 536883280
I0616 21:38:59.592927 32690 layer_factory.hpp:77] Creating layer relu4_2
I0616 21:38:59.592957 32690 net.cpp:91] Creating Layer relu4_2
I0616 21:38:59.592986 32690 net.cpp:425] relu4_2 <- conv4_2
I0616 21:38:59.593024 32690 net.cpp:386] relu4_2 -> conv4_2 (in-place)
I0616 21:38:59.593060 32690 net.cpp:141] Setting up relu4_2
I0616 21:38:59.593080 32690 net.cpp:148] Top shape: 5 512 28 28 (2007040)
I0616 21:38:59.593096 32690 net.cpp:156] Memory required for data: 544911440
I0616 21:38:59.593132 32690 layer_factory.hpp:77] Creating layer conv4_3
I0616 21:38:59.593158 32690 net.cpp:91] Creating Layer conv4_3
I0616 21:38:59.593175 32690 net.cpp:425] conv4_3 <- conv4_2
I0616 21:38:59.593196 32690 net.cpp:399] conv4_3 -> conv4_3
I0616 21:38:59.603893 32690 net.cpp:141] Setting up conv4_3
I0616 21:38:59.604027 32690 net.cpp:148] Top shape: 5 512 28 28 (2007040)
I0616 21:38:59.604044 32690 net.cpp:156] Memory required for data: 552939600
I0616 21:38:59.604099 32690 layer_factory.hpp:77] Creating layer relu4_3
I0616 21:38:59.604127 32690 net.cpp:91] Creating Layer relu4_3
I0616 21:38:59.604143 32690 net.cpp:425] relu4_3 <- conv4_3
I0616 21:38:59.604166 32690 net.cpp:386] relu4_3 -> conv4_3 (in-place)
I0616 21:38:59.604194 32690 net.cpp:141] Setting up relu4_3
I0616 21:38:59.604220 32690 net.cpp:148] Top shape: 5 512 28 28 (2007040)
I0616 21:38:59.604239 32690 net.cpp:156] Memory required for data: 560967760
I0616 21:38:59.604254 32690 layer_factory.hpp:77] Creating layer pool4
I0616 21:38:59.604279 32690 net.cpp:91] Creating Layer pool4
I0616 21:38:59.604297 32690 net.cpp:425] pool4 <- conv4_3
I0616 21:38:59.604316 32690 net.cpp:399] pool4 -> pool4
I0616 21:38:59.604400 32690 net.cpp:141] Setting up pool4
I0616 21:38:59.604488 32690 net.cpp:148] Top shape: 5 512 14 14 (501760)
I0616 21:38:59.604526 32690 net.cpp:156] Memory required for data: 562974800
I0616 21:38:59.604542 32690 layer_factory.hpp:77] Creating layer conv5_1
I0616 21:38:59.604568 32690 net.cpp:91] Creating Layer conv5_1
I0616 21:38:59.604584 32690 net.cpp:425] conv5_1 <- pool4
I0616 21:38:59.604605 32690 net.cpp:399] conv5_1 -> conv5_1
I0616 21:38:59.615274 32690 net.cpp:141] Setting up conv5_1
I0616 21:38:59.615398 32690 net.cpp:148] Top shape: 5 512 14 14 (501760)
I0616 21:38:59.615443 32690 net.cpp:156] Memory required for data: 564981840
I0616 21:38:59.615468 32690 layer_factory.hpp:77] Creating layer relu5_1
I0616 21:38:59.615495 32690 net.cpp:91] Creating Layer relu5_1
I0616 21:38:59.615512 32690 net.cpp:425] relu5_1 <- conv5_1
I0616 21:38:59.615587 32690 net.cpp:386] relu5_1 -> conv5_1 (in-place)
I0616 21:38:59.615618 32690 net.cpp:141] Setting up relu5_1
I0616 21:38:59.615643 32690 net.cpp:148] Top shape: 5 512 14 14 (501760)
I0616 21:38:59.615658 32690 net.cpp:156] Memory required for data: 566988880
I0616 21:38:59.615676 32690 layer_factory.hpp:77] Creating layer conv5_2
I0616 21:38:59.615700 32690 net.cpp:91] Creating Layer conv5_2
I0616 21:38:59.615721 32690 net.cpp:425] conv5_2 <- conv5_1
I0616 21:38:59.615742 32690 net.cpp:399] conv5_2 -> conv5_2
I0616 21:38:59.626446 32690 net.cpp:141] Setting up conv5_2
I0616 21:38:59.626580 32690 net.cpp:148] Top shape: 5 512 14 14 (501760)
I0616 21:38:59.626647 32690 net.cpp:156] Memory required for data: 568995920
I0616 21:38:59.626674 32690 layer_factory.hpp:77] Creating layer relu5_2
I0616 21:38:59.626703 32690 net.cpp:91] Creating Layer relu5_2
I0616 21:38:59.626721 32690 net.cpp:425] relu5_2 <- conv5_2
I0616 21:38:59.626754 32690 net.cpp:386] relu5_2 -> conv5_2 (in-place)
I0616 21:38:59.626787 32690 net.cpp:141] Setting up relu5_2
I0616 21:38:59.626812 32690 net.cpp:148] Top shape: 5 512 14 14 (501760)
I0616 21:38:59.626826 32690 net.cpp:156] Memory required for data: 571002960
I0616 21:38:59.626844 32690 layer_factory.hpp:77] Creating layer conv5_3
I0616 21:38:59.626875 32690 net.cpp:91] Creating Layer conv5_3
I0616 21:38:59.626890 32690 net.cpp:425] conv5_3 <- conv5_2
I0616 21:38:59.626911 32690 net.cpp:399] conv5_3 -> conv5_3
I0616 21:38:59.637614 32690 net.cpp:141] Setting up conv5_3
I0616 21:38:59.637755 32690 net.cpp:148] Top shape: 5 512 14 14 (501760)
I0616 21:38:59.637771 32690 net.cpp:156] Memory required for data: 573010000
I0616 21:38:59.637796 32690 layer_factory.hpp:77] Creating layer relu5_3
I0616 21:38:59.637848 32690 net.cpp:91] Creating Layer relu5_3
I0616 21:38:59.637866 32690 net.cpp:425] relu5_3 <- conv5_3
I0616 21:38:59.637888 32690 net.cpp:386] relu5_3 -> conv5_3 (in-place)
I0616 21:38:59.637924 32690 net.cpp:141] Setting up relu5_3
I0616 21:38:59.637948 32690 net.cpp:148] Top shape: 5 512 14 14 (501760)
I0616 21:38:59.637965 32690 net.cpp:156] Memory required for data: 575017040
I0616 21:38:59.637979 32690 layer_factory.hpp:77] Creating layer pool5
I0616 21:38:59.638011 32690 net.cpp:91] Creating Layer pool5
I0616 21:38:59.638032 32690 net.cpp:425] pool5 <- conv5_3
I0616 21:38:59.638052 32690 net.cpp:399] pool5 -> pool5
I0616 21:38:59.638140 32690 net.cpp:141] Setting up pool5
I0616 21:38:59.638257 32690 net.cpp:148] Top shape: 5 512 7 7 (125440)
I0616 21:38:59.638288 32690 net.cpp:156] Memory required for data: 575518800
I0616 21:38:59.638303 32690 layer_factory.hpp:77] Creating layer fc_6
I0616 21:38:59.638327 32690 net.cpp:91] Creating Layer fc_6
I0616 21:38:59.638345 32690 net.cpp:425] fc_6 <- pool5
I0616 21:38:59.638365 32690 net.cpp:399] fc_6 -> fc_6
I0616 21:38:59.725638 32690 net.cpp:141] Setting up fc_6
I0616 21:38:59.725759 32690 net.cpp:148] Top shape: 5 256 (1280)
I0616 21:38:59.725805 32690 net.cpp:156] Memory required for data: 575523920
I0616 21:38:59.725831 32690 layer_factory.hpp:77] Creating layer relu_fc6
I0616 21:38:59.725858 32690 net.cpp:91] Creating Layer relu_fc6
I0616 21:38:59.725875 32690 net.cpp:425] relu_fc6 <- fc_6
I0616 21:38:59.725898 32690 net.cpp:386] relu_fc6 -> fc_6 (in-place)
I0616 21:38:59.725926 32690 net.cpp:141] Setting up relu_fc6
I0616 21:38:59.725951 32690 net.cpp:148] Top shape: 5 256 (1280)
I0616 21:38:59.725968 32690 net.cpp:156] Memory required for data: 575529040
I0616 21:38:59.725983 32690 layer_factory.hpp:77] Creating layer fc_7
I0616 21:38:59.726011 32690 net.cpp:91] Creating Layer fc_7
I0616 21:38:59.726030 32690 net.cpp:425] fc_7 <- fc_6
I0616 21:38:59.726050 32690 net.cpp:399] fc_7 -> fc_7
I0616 21:38:59.726675 32690 net.cpp:141] Setting up fc_7
I0616 21:38:59.726759 32690 net.cpp:148] Top shape: 5 135 (675)
I0616 21:38:59.726778 32690 net.cpp:156] Memory required for data: 575531740
I0616 21:38:59.726797 32690 layer_factory.hpp:77] Creating layer fc_7_fc_7_0_split
I0616 21:38:59.726819 32690 net.cpp:91] Creating Layer fc_7_fc_7_0_split
I0616 21:38:59.726877 32690 net.cpp:425] fc_7_fc_7_0_split <- fc_7
I0616 21:38:59.726900 32690 net.cpp:399] fc_7_fc_7_0_split -> fc_7_fc_7_0_split_0
I0616 21:38:59.726923 32690 net.cpp:399] fc_7_fc_7_0_split -> fc_7_fc_7_0_split_1
I0616 21:38:59.726948 32690 net.cpp:399] fc_7_fc_7_0_split -> fc_7_fc_7_0_split_2
I0616 21:38:59.727044 32690 net.cpp:141] Setting up fc_7_fc_7_0_split
I0616 21:38:59.727126 32690 net.cpp:148] Top shape: 5 135 (675)
I0616 21:38:59.727154 32690 net.cpp:148] Top shape: 5 135 (675)
I0616 21:38:59.727172 32690 net.cpp:148] Top shape: 5 135 (675)
I0616 21:38:59.727186 32690 net.cpp:156] Memory required for data: 575539840
I0616 21:38:59.727205 32690 layer_factory.hpp:77] Creating layer accuracy_top1-teste
I0616 21:38:59.727227 32690 net.cpp:91] Creating Layer accuracy_top1-teste
I0616 21:38:59.727243 32690 net.cpp:425] accuracy_top1-teste <- fc_7_fc_7_0_split_0
I0616 21:38:59.727277 32690 net.cpp:425] accuracy_top1-teste <- label_data_1_split_0
…
