…
I0703 22:19:27.228219  7928 net.cpp:313] The NetState phase (0) differed from the phase (1) specified by a rule in layer accuracy_top5-teste
I0703 22:19:27.228258  7928 net.cpp:313] The NetState phase (0) differed from the phase (1) specified by a rule in layer loss
I0703 22:19:27.228535  7928 net.cpp:49] Initializing net from parameters: 
name: "arface-vgg"
state {
  phase: TRAIN
}
layer {
  name: "data"
  type: "ImageData"
  top: "data"
  top: "label"
  include {
    phase: TRAIN
  }
  image_data_param {
    source: "treino-b8.txt"
    batch_size: 10
    new_height: 224
    new_width: 224
  }
}
layer {
  name: "conv1_1"
  type: "Convolution"
  bottom: "data"
  top: "conv1_1"
  param {
    lr_mult: 0.1
  }
  convolution_param {
    num_output: 64
    pad: 1
    kernel_size: 3
  }
}
layer {
  name: "relu1_1"
  type: "ReLU"
  bottom: "conv1_1"
  top: "conv1_1"
}
layer {
  name: "conv1_2"
  type: "Convolution"
  bottom: "conv1_1"
  top: "conv1_2"
  param {
    lr_mult: 0.1
  }
  convolution_param {
    num_output: 64
    pad: 1
    kernel_size: 3
  }
}
layer {
  name: "relu1_2"
  type: "ReLU"
  bottom: "conv1_2"
  top: "conv1_2"
}
layer {
  name: "pool1"
  type: "Pooling"
  bottom: "conv1_2"
  top: "pool1"
  pooling_param {
    pool: MAX
    kernel_size: 2
    stride: 2
  }
}
layer {
  name: "conv2_1"
  type: "Convolution"
  bottom: "pool1"
  top: "conv2_1"
  param {
    lr_mult: 0.1
  }
  convolution_param {
    num_output: 128
    pad: 1
    kernel_size: 3
  }
}
layer {
  name: "relu2_1"
  type: "ReLU"
  bottom: "conv2_1"
  top: "conv2_1"
}
layer {
  name: "conv2_2"
  type: "Convolution"
  bottom: "conv2_1"
  top: "conv2_2"
  param {
    lr_mult: 0.1
  }
  convolution_param {
    num_output: 128
    pad: 1
    kernel_size: 3
  }
}
layer {
  name: "relu2_2"
  type: "ReLU"
  bottom: "conv2_2"
  top: "conv2_2"
}
layer {
  name: "pool2"
  type: "Pooling"
  bottom: "conv2_2"
  top: "pool2"
  pooling_param {
    pool: MAX
    kernel_size: 2
    stride: 2
  }
}
layer {
  name: "conv3_1"
  type: "Convolution"
  bottom: "pool2"
  top: "conv3_1"
  param {
    lr_mult: 0.1
    decay_mult: 1
  }
  convolution_param {
    num_output: 256
    pad: 1
    kernel_size: 3
  }
}
layer {
  name: "relu3_1"
  type: "ReLU"
  bottom: "conv3_1"
  top: "conv3_1"
}
layer {
  name: "conv3_2"
  type: "Convolution"
  bottom: "conv3_1"
  top: "conv3_2"
  param {
    lr_mult: 0.1
  }
  convolution_param {
    num_output: 256
    pad: 1
    kernel_size: 3
  }
}
layer {
  name: "relu3_2"
  type: "ReLU"
  bottom: "conv3_2"
  top: "conv3_2"
}
layer {
  name: "conv3_3"
  type: "Convolution"
  bottom: "conv3_2"
  top: "conv3_3"
  param {
    lr_mult: 0.1
  }
  convolution_param {
    num_output: 256
    pad: 1
    kernel_size: 3
  }
}
layer {
  name: "relu3_3"
  type: "ReLU"
  bottom: "conv3_3"
  top: "conv3_3"
}
layer {
  name: "pool3"
  type: "Pooling"
  bottom: "conv3_3"
  top: "pool3"
  pooling_param {
    pool: MAX
    kernel_size: 2
    stride: 2
  }
}
layer {
  name: "conv4_1"
  type: "Convolution"
  bottom: "pool3"
  top: "conv4_1"
  param {
    lr_mult: 0.1
  }
  convolution_param {
    num_output: 512
    pad: 1
    kernel_size: 3
  }
}
layer {
  name: "relu4_1"
  type: "ReLU"
  bottom: "conv4_1"
  top: "conv4_1"
}
layer {
  name: "conv4_2"
  type: "Convolution"
  bottom: "conv4_1"
  top: "conv4_2"
  param {
    lr_mult: 0.1
  }
  convolution_param {
    num_output: 512
    pad: 1
    kernel_size: 3
  }
}
layer {
  name: "relu4_2"
  type: "ReLU"
  bottom: "conv4_2"
  top: "conv4_2"
}
layer {
  name: "conv4_3"
  type: "Convolution"
  bottom: "conv4_2"
  top: "conv4_3"
  param {
    lr_mult: 0.1
  }
  convolution_param {
    num_output: 512
    pad: 1
    kernel_size: 3
  }
}
layer {
  name: "relu4_3"
  type: "ReLU"
  bottom: "conv4_3"
  top: "conv4_3"
}
layer {
  name: "pool4"
  type: "Pooling"
  bottom: "conv4_3"
  top: "pool4"
  pooling_param {
    pool: MAX
    kernel_size: 2
    stride: 2
  }
}
layer {
  name: "conv5_1"
  type: "Convolution"
  bottom: "pool4"
  top: "conv5_1"
  param {
    lr_mult: 0.1
  }
  convolution_param {
    num_output: 512
    pad: 1
    kernel_size: 3
  }
}
layer {
  name: "relu5_1"
  type: "ReLU"
  bottom: "conv5_1"
  top: "conv5_1"
}
layer {
  name: "conv5_2"
  type: "Convolution"
  bottom: "conv5_1"
  top: "conv5_2"
  param {
    lr_mult: 0.1
  }
  convolution_param {
    num_output: 512
    pad: 1
    kernel_size: 3
  }
}
layer {
  name: "relu5_2"
  type: "ReLU"
  bottom: "conv5_2"
  top: "conv5_2"
}
layer {
  name: "conv5_3"
  type: "Convolution"
  bottom: "conv5_2"
  top: "conv5_3"
  param {
    lr_mult: 0.1
  }
  convolution_param {
    num_output: 512
    pad: 1
    kernel_size: 3
  }
}
layer {
  name: "relu5_3"
  type: "ReLU"
  bottom: "conv5_3"
  top: "conv5_3"
}
layer {
  name: "pool5"
  type: "Pooling"
  bottom: "conv5_3"
  top: "pool5"
  pooling_param {
    pool: MAX
    kernel_size: 2
    stride: 2
  }
}
layer {
  name: "fc_6"
  type: "InnerProduct"
  bottom: "pool5"
  top: "fc_6"
  param {
    lr_mult: 1
    decay_mult: 1
  }
  param {
    lr_mult: 2
    decay_mult: 2
  }
  inner_product_param {
    num_output: 256
    weight_filler {
      type: "xavier"
    }
  }
}
layer {
  name: "relu_fc6"
  type: "ReLU"
  bottom: "fc_6"
  top: "fc_6"
}
layer {
  name: "fc_7"
  type: "InnerProduct"
  bottom: "fc_6"
  top: "fc_7"
  param {
    lr_mult: 1
    decay_mult: 1
  }
  param {
    lr_mult: 2
    decay_mult: 1
  }
  inner_product_param {
    num_output: 135
    weight_filler {
      type: "xavier"
      std: 0.5
    }
    bias_filler {
      type: "constant"
      value: 0.1
    }
  }
}
layer {
  name: "accuracy_top1-Treino"
  type: "Accuracy"
  bottom: "fc_7"
  bottom: "label"
  top: "accuracy_top1"
  include {
    phase: TRAIN
  }
  accuracy_param {
    top_k: 1
  }
}
layer {
  name: "loss-treino"
  type: "SoftmaxWithLoss"
  bottom: "fc_7"
  bottom: "label"
  top: "loss-treino"
  include {
    phase: TRAIN
  }
}
I0703 22:19:27.231686  7928 layer_factory.hpp:77] Creating layer data
I0703 22:19:27.231760  7928 net.cpp:91] Creating Layer data
I0703 22:19:27.231787  7928 net.cpp:399] data -> data
I0703 22:19:27.231851  7928 net.cpp:399] data -> label
I0703 22:19:27.231896  7928 image_data_layer.cpp:38] Opening file treino-b8.txt
I0703 22:19:27.232712  7928 image_data_layer.cpp:53] A total of 1035 images.
I0703 22:19:27.281066  7928 image_data_layer.cpp:80] output data size: 10,3,224,224
I0703 22:19:27.302212  7928 net.cpp:141] Setting up data
I0703 22:19:27.302943  7928 net.cpp:148] Top shape: 10 3 224 224 (1505280)
I0703 22:19:27.303022  7928 net.cpp:148] Top shape: 10 (10)
I0703 22:19:27.303125  7928 net.cpp:156] Memory required for data: 6021160
I0703 22:19:27.303153  7928 layer_factory.hpp:77] Creating layer label_data_1_split
I0703 22:19:27.303916  7928 net.cpp:91] Creating Layer label_data_1_split
I0703 22:19:27.304003  7928 net.cpp:425] label_data_1_split <- label
I0703 22:19:27.304057  7928 net.cpp:399] label_data_1_split -> label_data_1_split_0
I0703 22:19:27.304093  7928 net.cpp:399] label_data_1_split -> label_data_1_split_1
I0703 22:19:27.304217  7928 net.cpp:141] Setting up label_data_1_split
I0703 22:19:27.304265  7928 net.cpp:148] Top shape: 10 (10)
I0703 22:19:27.304286  7928 net.cpp:148] Top shape: 10 (10)
I0703 22:19:27.304299  7928 net.cpp:156] Memory required for data: 6021240
I0703 22:19:27.304316  7928 layer_factory.hpp:77] Creating layer conv1_1
I0703 22:19:27.304349  7928 net.cpp:91] Creating Layer conv1_1
I0703 22:19:27.304404  7928 net.cpp:425] conv1_1 <- data
I0703 22:19:27.304426  7928 net.cpp:399] conv1_1 -> conv1_1
I0703 22:19:27.307157  7928 net.cpp:141] Setting up conv1_1
I0703 22:19:27.307215  7928 net.cpp:148] Top shape: 10 64 224 224 (32112640)
I0703 22:19:27.307236  7928 net.cpp:156] Memory required for data: 134471800
I0703 22:19:27.307277  7928 layer_factory.hpp:77] Creating layer relu1_1
I0703 22:19:27.307323  7928 net.cpp:91] Creating Layer relu1_1
I0703 22:19:27.307339  7928 net.cpp:425] relu1_1 <- conv1_1
I0703 22:19:27.307376  7928 net.cpp:386] relu1_1 -> conv1_1 (in-place)
I0703 22:19:27.307402  7928 net.cpp:141] Setting up relu1_1
I0703 22:19:27.307436  7928 net.cpp:148] Top shape: 10 64 224 224 (32112640)
I0703 22:19:27.307453  7928 net.cpp:156] Memory required for data: 262922360
I0703 22:19:27.307472  7928 layer_factory.hpp:77] Creating layer conv1_2
I0703 22:19:27.307494  7928 net.cpp:91] Creating Layer conv1_2
I0703 22:19:27.307510  7928 net.cpp:425] conv1_2 <- conv1_1
I0703 22:19:27.307530  7928 net.cpp:399] conv1_2 -> conv1_2
I0703 22:19:27.307960  7928 net.cpp:141] Setting up conv1_2
I0703 22:19:27.308027  7928 net.cpp:148] Top shape: 10 64 224 224 (32112640)
I0703 22:19:27.308046  7928 net.cpp:156] Memory required for data: 391372920
I0703 22:19:27.308069  7928 layer_factory.hpp:77] Creating layer relu1_2
I0703 22:19:27.308089  7928 net.cpp:91] Creating Layer relu1_2
I0703 22:19:27.308112  7928 net.cpp:425] relu1_2 <- conv1_2
I0703 22:19:27.308131  7928 net.cpp:386] relu1_2 -> conv1_2 (in-place)
I0703 22:19:27.308156  7928 net.cpp:141] Setting up relu1_2
I0703 22:19:27.308174  7928 net.cpp:148] Top shape: 10 64 224 224 (32112640)
I0703 22:19:27.308192  7928 net.cpp:156] Memory required for data: 519823480
I0703 22:19:27.308207  7928 layer_factory.hpp:77] Creating layer pool1
I0703 22:19:27.308238  7928 net.cpp:91] Creating Layer pool1
I0703 22:19:27.308253  7928 net.cpp:425] pool1 <- conv1_2
I0703 22:19:27.308274  7928 net.cpp:399] pool1 -> pool1
I0703 22:19:27.308363  7928 net.cpp:141] Setting up pool1
I0703 22:19:27.308392  7928 net.cpp:148] Top shape: 10 64 112 112 (8028160)
I0703 22:19:27.308413  7928 net.cpp:156] Memory required for data: 551936120
I0703 22:19:27.308429  7928 layer_factory.hpp:77] Creating layer conv2_1
I0703 22:19:27.308454  7928 net.cpp:91] Creating Layer conv2_1
I0703 22:19:27.308470  7928 net.cpp:425] conv2_1 <- pool1
I0703 22:19:27.308495  7928 net.cpp:399] conv2_1 -> conv2_1
I0703 22:19:27.310396  7928 net.cpp:141] Setting up conv2_1
I0703 22:19:27.310452  7928 net.cpp:148] Top shape: 10 128 112 112 (16056320)
I0703 22:19:27.310472  7928 net.cpp:156] Memory required for data: 616161400
I0703 22:19:27.310497  7928 layer_factory.hpp:77] Creating layer relu2_1
I0703 22:19:27.310520  7928 net.cpp:91] Creating Layer relu2_1
I0703 22:19:27.310560  7928 net.cpp:425] relu2_1 <- conv2_1
I0703 22:19:27.310580  7928 net.cpp:386] relu2_1 -> conv2_1 (in-place)
I0703 22:19:27.310618  7928 net.cpp:141] Setting up relu2_1
I0703 22:19:27.310636  7928 net.cpp:148] Top shape: 10 128 112 112 (16056320)
I0703 22:19:27.310664  7928 net.cpp:156] Memory required for data: 680386680
I0703 22:19:27.310678  7928 layer_factory.hpp:77] Creating layer conv2_2
I0703 22:19:27.310711  7928 net.cpp:91] Creating Layer conv2_2
I0703 22:19:27.310726  7928 net.cpp:425] conv2_2 <- conv2_1
I0703 22:19:27.310750  7928 net.cpp:399] conv2_2 -> conv2_2
I0703 22:19:27.311295  7928 net.cpp:141] Setting up conv2_2
I0703 22:19:27.311327  7928 net.cpp:148] Top shape: 10 128 112 112 (16056320)
I0703 22:19:27.311342  7928 net.cpp:156] Memory required for data: 744611960
I0703 22:19:27.311365  7928 layer_factory.hpp:77] Creating layer relu2_2
I0703 22:19:27.311383  7928 net.cpp:91] Creating Layer relu2_2
I0703 22:19:27.311398  7928 net.cpp:425] relu2_2 <- conv2_2
I0703 22:19:27.311422  7928 net.cpp:386] relu2_2 -> conv2_2 (in-place)
I0703 22:19:27.311444  7928 net.cpp:141] Setting up relu2_2
I0703 22:19:27.311461  7928 net.cpp:148] Top shape: 10 128 112 112 (16056320)
I0703 22:19:27.311476  7928 net.cpp:156] Memory required for data: 808837240
I0703 22:19:27.311519  7928 layer_factory.hpp:77] Creating layer pool2
I0703 22:19:27.311542  7928 net.cpp:91] Creating Layer pool2
I0703 22:19:27.311564  7928 net.cpp:425] pool2 <- conv2_2
I0703 22:19:27.311583  7928 net.cpp:399] pool2 -> pool2
I0703 22:19:27.311657  7928 net.cpp:141] Setting up pool2
I0703 22:19:27.311683  7928 net.cpp:148] Top shape: 10 128 56 56 (4014080)
I0703 22:19:27.311702  7928 net.cpp:156] Memory required for data: 824893560
I0703 22:19:27.311715  7928 layer_factory.hpp:77] Creating layer conv3_1
I0703 22:19:27.311738  7928 net.cpp:91] Creating Layer conv3_1
I0703 22:19:27.311755  7928 net.cpp:425] conv3_1 <- pool2
I0703 22:19:27.311779  7928 net.cpp:399] conv3_1 -> conv3_1
I0703 22:19:27.313333  7928 net.cpp:141] Setting up conv3_1
I0703 22:19:27.313417  7928 net.cpp:148] Top shape: 10 256 56 56 (8028160)
I0703 22:19:27.313438  7928 net.cpp:156] Memory required for data: 857006200
I0703 22:19:27.313469  7928 layer_factory.hpp:77] Creating layer relu3_1
I0703 22:19:27.313489  7928 net.cpp:91] Creating Layer relu3_1
I0703 22:19:27.313504  7928 net.cpp:425] relu3_1 <- conv3_1
I0703 22:19:27.313529  7928 net.cpp:386] relu3_1 -> conv3_1 (in-place)
I0703 22:19:27.313552  7928 net.cpp:141] Setting up relu3_1
I0703 22:19:27.313571  7928 net.cpp:148] Top shape: 10 256 56 56 (8028160)
I0703 22:19:27.313586  7928 net.cpp:156] Memory required for data: 889118840
I0703 22:19:27.313601  7928 layer_factory.hpp:77] Creating layer conv3_2
I0703 22:19:27.313628  7928 net.cpp:91] Creating Layer conv3_2
I0703 22:19:27.313645  7928 net.cpp:425] conv3_2 <- conv3_1
I0703 22:19:27.313664  7928 net.cpp:399] conv3_2 -> conv3_2
I0703 22:19:27.316632  7928 net.cpp:141] Setting up conv3_2
I0703 22:19:27.316680  7928 net.cpp:148] Top shape: 10 256 56 56 (8028160)
I0703 22:19:27.316695  7928 net.cpp:156] Memory required for data: 921231480
I0703 22:19:27.316725  7928 layer_factory.hpp:77] Creating layer relu3_2
I0703 22:19:27.316748  7928 net.cpp:91] Creating Layer relu3_2
I0703 22:19:27.316763  7928 net.cpp:425] relu3_2 <- conv3_2
I0703 22:19:27.316790  7928 net.cpp:386] relu3_2 -> conv3_2 (in-place)
I0703 22:19:27.316814  7928 net.cpp:141] Setting up relu3_2
I0703 22:19:27.316833  7928 net.cpp:148] Top shape: 10 256 56 56 (8028160)
I0703 22:19:27.316848  7928 net.cpp:156] Memory required for data: 953344120
I0703 22:19:27.316865  7928 layer_factory.hpp:77] Creating layer conv3_3
I0703 22:19:27.316900  7928 net.cpp:91] Creating Layer conv3_3
I0703 22:19:27.316920  7928 net.cpp:425] conv3_3 <- conv3_2
I0703 22:19:27.316946  7928 net.cpp:399] conv3_3 -> conv3_3
I0703 22:19:27.319912  7928 net.cpp:141] Setting up conv3_3
I0703 22:19:27.319978  7928 net.cpp:148] Top shape: 10 256 56 56 (8028160)
I0703 22:19:27.320014  7928 net.cpp:156] Memory required for data: 985456760
I0703 22:19:27.320035  7928 layer_factory.hpp:77] Creating layer relu3_3
I0703 22:19:27.320071  7928 net.cpp:91] Creating Layer relu3_3
I0703 22:19:27.320092  7928 net.cpp:425] relu3_3 <- conv3_3
I0703 22:19:27.320118  7928 net.cpp:386] relu3_3 -> conv3_3 (in-place)
I0703 22:19:27.320149  7928 net.cpp:141] Setting up relu3_3
I0703 22:19:27.320173  7928 net.cpp:148] Top shape: 10 256 56 56 (8028160)
I0703 22:19:27.320190  7928 net.cpp:156] Memory required for data: 1017569400
I0703 22:19:27.320206  7928 layer_factory.hpp:77] Creating layer pool3
I0703 22:19:27.320228  7928 net.cpp:91] Creating Layer pool3
I0703 22:19:27.320243  7928 net.cpp:425] pool3 <- conv3_3
I0703 22:19:27.320267  7928 net.cpp:399] pool3 -> pool3
I0703 22:19:27.320344  7928 net.cpp:141] Setting up pool3
I0703 22:19:27.320371  7928 net.cpp:148] Top shape: 10 256 28 28 (2007040)
I0703 22:19:27.320391  7928 net.cpp:156] Memory required for data: 1025597560
I0703 22:19:27.320407  7928 layer_factory.hpp:77] Creating layer conv4_1
I0703 22:19:27.320435  7928 net.cpp:91] Creating Layer conv4_1
I0703 22:19:27.320457  7928 net.cpp:425] conv4_1 <- pool3
I0703 22:19:27.320482  7928 net.cpp:399] conv4_1 -> conv4_1
I0703 22:19:27.327867  7928 net.cpp:141] Setting up conv4_1
I0703 22:19:27.327997  7928 net.cpp:148] Top shape: 10 512 28 28 (4014080)
I0703 22:19:27.328033  7928 net.cpp:156] Memory required for data: 1041653880
I0703 22:19:27.328059  7928 layer_factory.hpp:77] Creating layer relu4_1
I0703 22:19:27.328131  7928 net.cpp:91] Creating Layer relu4_1
I0703 22:19:27.328150  7928 net.cpp:425] relu4_1 <- conv4_1
I0703 22:19:27.328217  7928 net.cpp:386] relu4_1 -> conv4_1 (in-place)
I0703 22:19:27.328245  7928 net.cpp:141] Setting up relu4_1
I0703 22:19:27.328325  7928 net.cpp:148] Top shape: 10 512 28 28 (4014080)
I0703 22:19:27.328337  7928 net.cpp:156] Memory required for data: 1057710200
I0703 22:19:27.328356  7928 layer_factory.hpp:77] Creating layer conv4_2
I0703 22:19:27.328382  7928 net.cpp:91] Creating Layer conv4_2
I0703 22:19:27.328397  7928 net.cpp:425] conv4_2 <- conv4_1
I0703 22:19:27.328416  7928 net.cpp:399] conv4_2 -> conv4_2
I0703 22:19:27.338706  7928 net.cpp:141] Setting up conv4_2
I0703 22:19:27.338825  7928 net.cpp:148] Top shape: 10 512 28 28 (4014080)
I0703 22:19:27.338845  7928 net.cpp:156] Memory required for data: 1073766520
I0703 22:19:27.338903  7928 layer_factory.hpp:77] Creating layer relu4_2
I0703 22:19:27.338932  7928 net.cpp:91] Creating Layer relu4_2
I0703 22:19:27.338963  7928 net.cpp:425] relu4_2 <- conv4_2
I0703 22:19:27.338990  7928 net.cpp:386] relu4_2 -> conv4_2 (in-place)
I0703 22:19:27.339020  7928 net.cpp:141] Setting up relu4_2
I0703 22:19:27.339042  7928 net.cpp:148] Top shape: 10 512 28 28 (4014080)
I0703 22:19:27.339057  7928 net.cpp:156] Memory required for data: 1089822840
I0703 22:19:27.339076  7928 layer_factory.hpp:77] Creating layer conv4_3
I0703 22:19:27.339103  7928 net.cpp:91] Creating Layer conv4_3
I0703 22:19:27.339125  7928 net.cpp:425] conv4_3 <- conv4_2
I0703 22:19:27.339149  7928 net.cpp:399] conv4_3 -> conv4_3
I0703 22:19:27.349619  7928 net.cpp:141] Setting up conv4_3
I0703 22:19:27.349720  7928 net.cpp:148] Top shape: 10 512 28 28 (4014080)
I0703 22:19:27.349755  7928 net.cpp:156] Memory required for data: 1105879160
I0703 22:19:27.349792  7928 layer_factory.hpp:77] Creating layer relu4_3
I0703 22:19:27.349818  7928 net.cpp:91] Creating Layer relu4_3
I0703 22:19:27.349836  7928 net.cpp:425] relu4_3 <- conv4_3
I0703 22:19:27.349867  7928 net.cpp:386] relu4_3 -> conv4_3 (in-place)
I0703 22:19:27.349900  7928 net.cpp:141] Setting up relu4_3
I0703 22:19:27.349920  7928 net.cpp:148] Top shape: 10 512 28 28 (4014080)
I0703 22:19:27.349937  7928 net.cpp:156] Memory required for data: 1121935480
I0703 22:19:27.349956  7928 layer_factory.hpp:77] Creating layer pool4
I0703 22:19:27.349975  7928 net.cpp:91] Creating Layer pool4
I0703 22:19:27.349992  7928 net.cpp:425] pool4 <- conv4_3
I0703 22:19:27.350015  7928 net.cpp:399] pool4 -> pool4
I0703 22:19:27.350097  7928 net.cpp:141] Setting up pool4
I0703 22:19:27.350164  7928 net.cpp:148] Top shape: 10 512 14 14 (1003520)
I0703 22:19:27.350183  7928 net.cpp:156] Memory required for data: 1125949560
I0703 22:19:27.350198  7928 layer_factory.hpp:77] Creating layer conv5_1
I0703 22:19:27.350227  7928 net.cpp:91] Creating Layer conv5_1
I0703 22:19:27.350250  7928 net.cpp:425] conv5_1 <- pool4
I0703 22:19:27.350275  7928 net.cpp:399] conv5_1 -> conv5_1
I0703 22:19:27.360538  7928 net.cpp:141] Setting up conv5_1
I0703 22:19:27.360625  7928 net.cpp:148] Top shape: 10 512 14 14 (1003520)
I0703 22:19:27.360642  7928 net.cpp:156] Memory required for data: 1129963640
I0703 22:19:27.360700  7928 layer_factory.hpp:77] Creating layer relu5_1
I0703 22:19:27.360729  7928 net.cpp:91] Creating Layer relu5_1
I0703 22:19:27.360745  7928 net.cpp:425] relu5_1 <- conv5_1
I0703 22:19:27.360774  7928 net.cpp:386] relu5_1 -> conv5_1 (in-place)
I0703 22:19:27.360808  7928 net.cpp:141] Setting up relu5_1
I0703 22:19:27.360857  7928 net.cpp:148] Top shape: 10 512 14 14 (1003520)
I0703 22:19:27.360874  7928 net.cpp:156] Memory required for data: 1133977720
I0703 22:19:27.360889  7928 layer_factory.hpp:77] Creating layer conv5_2
I0703 22:19:27.360914  7928 net.cpp:91] Creating Layer conv5_2
I0703 22:19:27.360967  7928 net.cpp:425] conv5_2 <- conv5_1
I0703 22:19:27.360996  7928 net.cpp:399] conv5_2 -> conv5_2
I0703 22:19:27.371264  7928 net.cpp:141] Setting up conv5_2
I0703 22:19:27.371350  7928 net.cpp:148] Top shape: 10 512 14 14 (1003520)
I0703 22:19:27.371486  7928 net.cpp:156] Memory required for data: 1137991800
I0703 22:19:27.371515  7928 layer_factory.hpp:77] Creating layer relu5_2
I0703 22:19:27.371544  7928 net.cpp:91] Creating Layer relu5_2
I0703 22:19:27.371577  7928 net.cpp:425] relu5_2 <- conv5_2
I0703 22:19:27.371603  7928 net.cpp:386] relu5_2 -> conv5_2 (in-place)
I0703 22:19:27.371704  7928 net.cpp:141] Setting up relu5_2
I0703 22:19:27.371723  7928 net.cpp:148] Top shape: 10 512 14 14 (1003520)
I0703 22:19:27.371737  7928 net.cpp:156] Memory required for data: 1142005880
I0703 22:19:27.371767  7928 layer_factory.hpp:77] Creating layer conv5_3
I0703 22:19:27.371794  7928 net.cpp:91] Creating Layer conv5_3
I0703 22:19:27.371809  7928 net.cpp:425] conv5_3 <- conv5_2
I0703 22:19:27.371842  7928 net.cpp:399] conv5_3 -> conv5_3
I0703 22:19:27.382186  7928 net.cpp:141] Setting up conv5_3
I0703 22:19:27.382289  7928 net.cpp:148] Top shape: 10 512 14 14 (1003520)
I0703 22:19:27.382323  7928 net.cpp:156] Memory required for data: 1146019960
I0703 22:19:27.382380  7928 layer_factory.hpp:77] Creating layer relu5_3
I0703 22:19:27.382408  7928 net.cpp:91] Creating Layer relu5_3
I0703 22:19:27.382437  7928 net.cpp:425] relu5_3 <- conv5_3
I0703 22:19:27.382462  7928 net.cpp:386] relu5_3 -> conv5_3 (in-place)
I0703 22:19:27.382500  7928 net.cpp:141] Setting up relu5_3
I0703 22:19:27.382535  7928 net.cpp:148] Top shape: 10 512 14 14 (1003520)
I0703 22:19:27.382550  7928 net.cpp:156] Memory required for data: 1150034040
I0703 22:19:27.382565  7928 layer_factory.hpp:77] Creating layer pool5
I0703 22:19:27.382596  7928 net.cpp:91] Creating Layer pool5
I0703 22:19:27.382621  7928 net.cpp:425] pool5 <- conv5_3
I0703 22:19:27.382642  7928 net.cpp:399] pool5 -> pool5
I0703 22:19:27.382730  7928 net.cpp:141] Setting up pool5
I0703 22:19:27.382776  7928 net.cpp:148] Top shape: 10 512 7 7 (250880)
I0703 22:19:27.382797  7928 net.cpp:156] Memory required for data: 1151037560
I0703 22:19:27.382817  7928 layer_factory.hpp:77] Creating layer fc_6
I0703 22:19:27.384812  7928 net.cpp:91] Creating Layer fc_6
I0703 22:19:27.384847  7928 net.cpp:425] fc_6 <- pool5
I0703 22:19:27.384862  7928 net.cpp:399] fc_6 -> fc_6
I0703 22:19:27.473865  7928 net.cpp:141] Setting up fc_6
I0703 22:19:27.473978  7928 net.cpp:148] Top shape: 10 256 (2560)
I0703 22:19:27.474020  7928 net.cpp:156] Memory required for data: 1151047800
I0703 22:19:27.474046  7928 layer_factory.hpp:77] Creating layer relu_fc6
I0703 22:19:27.474090  7928 net.cpp:91] Creating Layer relu_fc6
I0703 22:19:27.474108  7928 net.cpp:425] relu_fc6 <- fc_6
I0703 22:19:27.474131  7928 net.cpp:386] relu_fc6 -> fc_6 (in-place)
I0703 22:19:27.474160  7928 net.cpp:141] Setting up relu_fc6
I0703 22:19:27.474192  7928 net.cpp:148] Top shape: 10 256 (2560)
I0703 22:19:27.474221  7928 net.cpp:156] Memory required for data: 1151058040
I0703 22:19:27.474251  7928 layer_factory.hpp:77] Creating layer fc_7
I0703 22:19:27.474279  7928 net.cpp:91] Creating Layer fc_7
I0703 22:19:27.474298  7928 net.cpp:425] fc_7 <- fc_6
I0703 22:19:27.474320  7928 net.cpp:399] fc_7 -> fc_7
I0703 22:19:27.474889  7928 net.cpp:141] Setting up fc_7
I0703 22:19:27.474953  7928 net.cpp:148] Top shape: 10 135 (1350)
I0703 22:19:27.474970  7928 net.cpp:156] Memory required for data: 1151063440
I0703 22:19:27.474990  7928 layer_factory.hpp:77] Creating layer fc_7_fc_7_0_split
I0703 22:19:27.475013  7928 net.cpp:91] Creating Layer fc_7_fc_7_0_split
I0703 22:19:27.475028  7928 net.cpp:425] fc_7_fc_7_0_split <- fc_7
I0703 22:19:27.475055  7928 net.cpp:399] fc_7_fc_7_0_split -> fc_7_fc_7_0_split_0
I0703 22:19:27.475080  7928 net.cpp:399] fc_7_fc_7_0_split -> fc_7_fc_7_0_split_1
I0703 22:19:27.475178  7928 net.cpp:141] Setting up fc_7_fc_7_0_split
I0703 22:19:27.475211  7928 net.cpp:148] Top shape: 10 135 (1350)
I0703 22:19:27.475273  7928 net.cpp:148] Top shape: 10 135 (1350)
I0703 22:19:27.475292  7928 net.cpp:156] Memory required for data: 1151074240
I0703 22:19:27.475311  7928 layer_factory.hpp:77] Creating layer accuracy_top1-Treino
I0703 22:19:27.475342  7928 net.cpp:91] Creating Layer accuracy_top1-Treino
I0703 22:19:27.475361  7928 net.cpp:425] accuracy_top1-Treino <- fc_7_fc_7_0_split_0
I0703 22:19:27.475381  7928 net.cpp:425] accuracy_top1-Treino <- label_data_1_split_0
…
I0703 22:19:27.480161  7928 net.cpp:313] The NetState phase (1) differed from the phase (0) specified by a rule in layer accuracy_top1-Treino
I0703 22:19:27.480188  7928 net.cpp:313] The NetState phase (1) differed from the phase (0) specified by a rule in layer loss-treino
I0703 22:19:27.480463  7928 net.cpp:49] Initializing net from parameters: 
name: "arface-vgg"
state {
  phase: TEST
}
layer {
  name: "data"
  type: "ImageData"
  top: "data"
  top: "label"
  include {
    phase: TEST
  }
  image_data_param {
    source: "teste.txt"
    batch_size: 5
    new_height: 224
    new_width: 224
  }
}
layer {
  name: "conv1_1"
  type: "Convolution"
  bottom: "data"
  top: "conv1_1"
  param {
    lr_mult: 0.1
  }
  convolution_param {
    num_output: 64
    pad: 1
    kernel_size: 3
  }
}
layer {
  name: "relu1_1"
  type: "ReLU"
  bottom: "conv1_1"
  top: "conv1_1"
}
layer {
  name: "conv1_2"
  type: "Convolution"
  bottom: "conv1_1"
  top: "conv1_2"
  param {
    lr_mult: 0.1
  }
  convolution_param {
    num_output: 64
    pad: 1
    kernel_size: 3
  }
}
layer {
  name: "relu1_2"
  type: "ReLU"
  bottom: "conv1_2"
  top: "conv1_2"
}
layer {
  name: "pool1"
  type: "Pooling"
  bottom: "conv1_2"
  top: "pool1"
  pooling_param {
    pool: MAX
    kernel_size: 2
    stride: 2
  }
}
layer {
  name: "conv2_1"
  type: "Convolution"
  bottom: "pool1"
  top: "conv2_1"
  param {
    lr_mult: 0.1
  }
  convolution_param {
    num_output: 128
    pad: 1
    kernel_size: 3
  }
}
layer {
  name: "relu2_1"
  type: "ReLU"
  bottom: "conv2_1"
  top: "conv2_1"
}
layer {
  name: "conv2_2"
  type: "Convolution"
  bottom: "conv2_1"
  top: "conv2_2"
  param {
    lr_mult: 0.1
  }
  convolution_param {
    num_output: 128
    pad: 1
    kernel_size: 3
  }
}
layer {
  name: "relu2_2"
  type: "ReLU"
  bottom: "conv2_2"
  top: "conv2_2"
}
layer {
  name: "pool2"
  type: "Pooling"
  bottom: "conv2_2"
  top: "pool2"
  pooling_param {
    pool: MAX
    kernel_size: 2
    stride: 2
  }
}
layer {
  name: "conv3_1"
  type: "Convolution"
  bottom: "pool2"
  top: "conv3_1"
  param {
    lr_mult: 0.1
    decay_mult: 1
  }
  convolution_param {
    num_output: 256
    pad: 1
    kernel_size: 3
  }
}
layer {
  name: "relu3_1"
  type: "ReLU"
  bottom: "conv3_1"
  top: "conv3_1"
}
layer {
  name: "conv3_2"
  type: "Convolution"
  bottom: "conv3_1"
  top: "conv3_2"
  param {
    lr_mult: 0.1
  }
  convolution_param {
    num_output: 256
    pad: 1
    kernel_size: 3
  }
}
layer {
  name: "relu3_2"
  type: "ReLU"
  bottom: "conv3_2"
  top: "conv3_2"
}
layer {
  name: "conv3_3"
  type: "Convolution"
  bottom: "conv3_2"
  top: "conv3_3"
  param {
    lr_mult: 0.1
  }
  convolution_param {
    num_output: 256
    pad: 1
    kernel_size: 3
  }
}
layer {
  name: "relu3_3"
  type: "ReLU"
  bottom: "conv3_3"
  top: "conv3_3"
}
layer {
  name: "pool3"
  type: "Pooling"
  bottom: "conv3_3"
  top: "pool3"
  pooling_param {
    pool: MAX
    kernel_size: 2
    stride: 2
  }
}
layer {
  name: "conv4_1"
  type: "Convolution"
  bottom: "pool3"
  top: "conv4_1"
  param {
    lr_mult: 0.1
  }
  convolution_param {
    num_output: 512
    pad: 1
    kernel_size: 3
  }
}
layer {
  name: "relu4_1"
  type: "ReLU"
  bottom: "conv4_1"
  top: "conv4_1"
}
layer {
  name: "conv4_2"
  type: "Convolution"
  bottom: "conv4_1"
  top: "conv4_2"
  param {
    lr_mult: 0.1
  }
  convolution_param {
    num_output: 512
    pad: 1
    kernel_size: 3
  }
}
layer {
  name: "relu4_2"
  type: "ReLU"
  bottom: "conv4_2"
  top: "conv4_2"
}
layer {
  name: "conv4_3"
  type: "Convolution"
  bottom: "conv4_2"
  top: "conv4_3"
  param {
    lr_mult: 0.1
  }
  convolution_param {
    num_output: 512
    pad: 1
    kernel_size: 3
  }
}
layer {
  name: "relu4_3"
  type: "ReLU"
  bottom: "conv4_3"
  top: "conv4_3"
}
layer {
  name: "pool4"
  type: "Pooling"
  bottom: "conv4_3"
  top: "pool4"
  pooling_param {
    pool: MAX
    kernel_size: 2
    stride: 2
  }
}
layer {
  name: "conv5_1"
  type: "Convolution"
  bottom: "pool4"
  top: "conv5_1"
  param {
    lr_mult: 0.1
  }
  convolution_param {
    num_output: 512
    pad: 1
    kernel_size: 3
  }
}
layer {
  name: "relu5_1"
  type: "ReLU"
  bottom: "conv5_1"
  top: "conv5_1"
}
layer {
  name: "conv5_2"
  type: "Convolution"
  bottom: "conv5_1"
  top: "conv5_2"
  param {
    lr_mult: 0.1
  }
  convolution_param {
    num_output: 512
    pad: 1
    kernel_size: 3
  }
}
layer {
  name: "relu5_2"
  type: "ReLU"
  bottom: "conv5_2"
  top: "conv5_2"
}
layer {
  name: "conv5_3"
  type: "Convolution"
  bottom: "conv5_2"
  top: "conv5_3"
  param {
    lr_mult: 0.1
  }
  convolution_param {
    num_output: 512
    pad: 1
    kernel_size: 3
  }
}
layer {
  name: "relu5_3"
  type: "ReLU"
  bottom: "conv5_3"
  top: "conv5_3"
}
layer {
  name: "pool5"
  type: "Pooling"
  bottom: "conv5_3"
  top: "pool5"
  pooling_param {
    pool: MAX
    kernel_size: 2
    stride: 2
  }
}
layer {
  name: "fc_6"
  type: "InnerProduct"
  bottom: "pool5"
  top: "fc_6"
  param {
    lr_mult: 1
    decay_mult: 1
  }
  param {
    lr_mult: 2
    decay_mult: 2
  }
  inner_product_param {
    num_output: 256
    weight_filler {
      type: "xavier"
    }
  }
}
layer {
  name: "relu_fc6"
  type: "ReLU"
  bottom: "fc_6"
  top: "fc_6"
}
layer {
  name: "fc_7"
  type: "InnerProduct"
  bottom: "fc_6"
  top: "fc_7"
  param {
    lr_mult: 1
    decay_mult: 1
  }
  param {
    lr_mult: 2
    decay_mult: 1
  }
  inner_product_param {
    num_output: 135
    weight_filler {
      type: "xavier"
      std: 0.5
    }
    bias_filler {
      type: "constant"
      value: 0.1
    }
  }
}
layer {
  name: "accuracy_top1-teste"
  type: "Accuracy"
  bottom: "fc_7"
  bottom: "label"
  top: "accuracy_top1-teste"
  include {
    phase: TEST
  }
  accuracy_param {
    top_k: 1
  }
}
layer {
  name: "accuracy_top5-teste"
  type: "Accuracy"
  bottom: "fc_7"
  bottom: "label"
  top: "accuracy_top5-teste"
  include {
    phase: TEST
  }
  accuracy_param {
    top_k: 5
  }
}
layer {
  name: "loss"
  type: "SoftmaxWithLoss"
  bottom: "fc_7"
  bottom: "label"
  top: "loss"
  include {
    phase: TEST
  }
}
I0703 22:19:27.483706  7928 layer_factory.hpp:77] Creating layer data
I0703 22:19:27.483748  7928 net.cpp:91] Creating Layer data
I0703 22:19:27.483769  7928 net.cpp:399] data -> data
I0703 22:19:27.483793  7928 net.cpp:399] data -> label
I0703 22:19:27.483817  7928 image_data_layer.cpp:38] Opening file teste.txt
I0703 22:19:27.483947  7928 image_data_layer.cpp:53] A total of 119 images.
I0703 22:19:27.496686  7928 image_data_layer.cpp:80] output data size: 5,3,224,224
I0703 22:19:27.507853  7928 net.cpp:141] Setting up data
I0703 22:19:27.507956  7928 net.cpp:148] Top shape: 5 3 224 224 (752640)
I0703 22:19:27.507974  7928 net.cpp:148] Top shape: 5 (5)
I0703 22:19:27.508111  7928 net.cpp:156] Memory required for data: 3010580
I0703 22:19:27.508139  7928 layer_factory.hpp:77] Creating layer label_data_1_split
I0703 22:19:27.508168  7928 net.cpp:91] Creating Layer label_data_1_split
I0703 22:19:27.508193  7928 net.cpp:425] label_data_1_split <- label
I0703 22:19:27.508213  7928 net.cpp:399] label_data_1_split -> label_data_1_split_0
I0703 22:19:27.508249  7928 net.cpp:399] label_data_1_split -> label_data_1_split_1
I0703 22:19:27.508293  7928 net.cpp:399] label_data_1_split -> label_data_1_split_2
I0703 22:19:27.508421  7928 net.cpp:141] Setting up label_data_1_split
I0703 22:19:27.508447  7928 net.cpp:148] Top shape: 5 (5)
I0703 22:19:27.508466  7928 net.cpp:148] Top shape: 5 (5)
I0703 22:19:27.508481  7928 net.cpp:148] Top shape: 5 (5)
I0703 22:19:27.508497  7928 net.cpp:156] Memory required for data: 3010640
I0703 22:19:27.508512  7928 layer_factory.hpp:77] Creating layer conv1_1
I0703 22:19:27.508538  7928 net.cpp:91] Creating Layer conv1_1
I0703 22:19:27.508554  7928 net.cpp:425] conv1_1 <- data
I0703 22:19:27.508587  7928 net.cpp:399] conv1_1 -> conv1_1
I0703 22:19:27.509063  7928 net.cpp:141] Setting up conv1_1
I0703 22:19:27.509152  7928 net.cpp:148] Top shape: 5 64 224 224 (16056320)
I0703 22:19:27.509167  7928 net.cpp:156] Memory required for data: 67235920
I0703 22:19:27.509217  7928 layer_factory.hpp:77] Creating layer relu1_1
I0703 22:19:27.509248  7928 net.cpp:91] Creating Layer relu1_1
I0703 22:19:27.509265  7928 net.cpp:425] relu1_1 <- conv1_1
I0703 22:19:27.509292  7928 net.cpp:386] relu1_1 -> conv1_1 (in-place)
I0703 22:19:27.509320  7928 net.cpp:141] Setting up relu1_1
I0703 22:19:27.509341  7928 net.cpp:148] Top shape: 5 64 224 224 (16056320)
I0703 22:19:27.509356  7928 net.cpp:156] Memory required for data: 131461200
I0703 22:19:27.509377  7928 layer_factory.hpp:77] Creating layer conv1_2
I0703 22:19:27.509397  7928 net.cpp:91] Creating Layer conv1_2
I0703 22:19:27.509446  7928 net.cpp:425] conv1_2 <- conv1_1
I0703 22:19:27.509466  7928 net.cpp:399] conv1_2 -> conv1_2
I0703 22:19:27.510737  7928 net.cpp:141] Setting up conv1_2
I0703 22:19:27.510782  7928 net.cpp:148] Top shape: 5 64 224 224 (16056320)
I0703 22:19:27.510800  7928 net.cpp:156] Memory required for data: 195686480
I0703 22:19:27.510824  7928 layer_factory.hpp:77] Creating layer relu1_2
I0703 22:19:27.510849  7928 net.cpp:91] Creating Layer relu1_2
I0703 22:19:27.510870  7928 net.cpp:425] relu1_2 <- conv1_2
I0703 22:19:27.510890  7928 net.cpp:386] relu1_2 -> conv1_2 (in-place)
I0703 22:19:27.510916  7928 net.cpp:141] Setting up relu1_2
I0703 22:19:27.510934  7928 net.cpp:148] Top shape: 5 64 224 224 (16056320)
I0703 22:19:27.510953  7928 net.cpp:156] Memory required for data: 259911760
I0703 22:19:27.510969  7928 layer_factory.hpp:77] Creating layer pool1
I0703 22:19:27.510988  7928 net.cpp:91] Creating Layer pool1
I0703 22:19:27.511003  7928 net.cpp:425] pool1 <- conv1_2
I0703 22:19:27.511023  7928 net.cpp:399] pool1 -> pool1
I0703 22:19:27.511099  7928 net.cpp:141] Setting up pool1
I0703 22:19:27.511126  7928 net.cpp:148] Top shape: 5 64 112 112 (4014080)
I0703 22:19:27.511140  7928 net.cpp:156] Memory required for data: 275968080
I0703 22:19:27.511158  7928 layer_factory.hpp:77] Creating layer conv2_1
I0703 22:19:27.511272  7928 net.cpp:91] Creating Layer conv2_1
I0703 22:19:27.511291  7928 net.cpp:425] conv2_1 <- pool1
I0703 22:19:27.511312  7928 net.cpp:399] conv2_1 -> conv2_1
I0703 22:19:27.512517  7928 net.cpp:141] Setting up conv2_1
I0703 22:19:27.512570  7928 net.cpp:148] Top shape: 5 128 112 112 (8028160)
I0703 22:19:27.512594  7928 net.cpp:156] Memory required for data: 308080720
I0703 22:19:27.512622  7928 layer_factory.hpp:77] Creating layer relu2_1
I0703 22:19:27.512650  7928 net.cpp:91] Creating Layer relu2_1
I0703 22:19:27.512675  7928 net.cpp:425] relu2_1 <- conv2_1
I0703 22:19:27.512699  7928 net.cpp:386] relu2_1 -> conv2_1 (in-place)
I0703 22:19:27.512722  7928 net.cpp:141] Setting up relu2_1
I0703 22:19:27.512740  7928 net.cpp:148] Top shape: 5 128 112 112 (8028160)
I0703 22:19:27.512756  7928 net.cpp:156] Memory required for data: 340193360
I0703 22:19:27.512773  7928 layer_factory.hpp:77] Creating layer conv2_2
I0703 22:19:27.512794  7928 net.cpp:91] Creating Layer conv2_2
I0703 22:19:27.512810  7928 net.cpp:425] conv2_2 <- conv2_1
I0703 22:19:27.512876  7928 net.cpp:399] conv2_2 -> conv2_2
I0703 22:19:27.513434  7928 net.cpp:141] Setting up conv2_2
I0703 22:19:27.513465  7928 net.cpp:148] Top shape: 5 128 112 112 (8028160)
I0703 22:19:27.513481  7928 net.cpp:156] Memory required for data: 372306000
I0703 22:19:27.513525  7928 layer_factory.hpp:77] Creating layer relu2_2
I0703 22:19:27.513546  7928 net.cpp:91] Creating Layer relu2_2
I0703 22:19:27.513562  7928 net.cpp:425] relu2_2 <- conv2_2
I0703 22:19:27.513583  7928 net.cpp:386] relu2_2 -> conv2_2 (in-place)
I0703 22:19:27.513604  7928 net.cpp:141] Setting up relu2_2
I0703 22:19:27.513623  7928 net.cpp:148] Top shape: 5 128 112 112 (8028160)
I0703 22:19:27.513639  7928 net.cpp:156] Memory required for data: 404418640
I0703 22:19:27.513654  7928 layer_factory.hpp:77] Creating layer pool2
I0703 22:19:27.513674  7928 net.cpp:91] Creating Layer pool2
I0703 22:19:27.513690  7928 net.cpp:425] pool2 <- conv2_2
I0703 22:19:27.513710  7928 net.cpp:399] pool2 -> pool2
I0703 22:19:27.513785  7928 net.cpp:141] Setting up pool2
I0703 22:19:27.513923  7928 net.cpp:148] Top shape: 5 128 56 56 (2007040)
I0703 22:19:27.513939  7928 net.cpp:156] Memory required for data: 412446800
I0703 22:19:27.513965  7928 layer_factory.hpp:77] Creating layer conv3_1
I0703 22:19:27.514014  7928 net.cpp:91] Creating Layer conv3_1
I0703 22:19:27.514030  7928 net.cpp:425] conv3_1 <- pool2
I0703 22:19:27.514051  7928 net.cpp:399] conv3_1 -> conv3_1
I0703 22:19:27.515645  7928 net.cpp:141] Setting up conv3_1
I0703 22:19:27.515691  7928 net.cpp:148] Top shape: 5 256 56 56 (4014080)
I0703 22:19:27.515709  7928 net.cpp:156] Memory required for data: 428503120
I0703 22:19:27.515734  7928 layer_factory.hpp:77] Creating layer relu3_1
I0703 22:19:27.515761  7928 net.cpp:91] Creating Layer relu3_1
I0703 22:19:27.515782  7928 net.cpp:425] relu3_1 <- conv3_1
I0703 22:19:27.515801  7928 net.cpp:386] relu3_1 -> conv3_1 (in-place)
I0703 22:19:27.515830  7928 net.cpp:141] Setting up relu3_1
I0703 22:19:27.515846  7928 net.cpp:148] Top shape: 5 256 56 56 (4014080)
I0703 22:19:27.515866  7928 net.cpp:156] Memory required for data: 444559440
I0703 22:19:27.515882  7928 layer_factory.hpp:77] Creating layer conv3_2
I0703 22:19:27.515902  7928 net.cpp:91] Creating Layer conv3_2
I0703 22:19:27.515915  7928 net.cpp:425] conv3_2 <- conv3_1
I0703 22:19:27.515936  7928 net.cpp:399] conv3_2 -> conv3_2
I0703 22:19:27.518918  7928 net.cpp:141] Setting up conv3_2
I0703 22:19:27.518992  7928 net.cpp:148] Top shape: 5 256 56 56 (4014080)
I0703 22:19:27.519006  7928 net.cpp:156] Memory required for data: 460615760
I0703 22:19:27.519043  7928 layer_factory.hpp:77] Creating layer relu3_2
I0703 22:19:27.519065  7928 net.cpp:91] Creating Layer relu3_2
I0703 22:19:27.519089  7928 net.cpp:425] relu3_2 <- conv3_2
I0703 22:19:27.519109  7928 net.cpp:386] relu3_2 -> conv3_2 (in-place)
I0703 22:19:27.519148  7928 net.cpp:141] Setting up relu3_2
I0703 22:19:27.519171  7928 net.cpp:148] Top shape: 5 256 56 56 (4014080)
I0703 22:19:27.519207  7928 net.cpp:156] Memory required for data: 476672080
I0703 22:19:27.519224  7928 layer_factory.hpp:77] Creating layer conv3_3
I0703 22:19:27.519253  7928 net.cpp:91] Creating Layer conv3_3
I0703 22:19:27.519281  7928 net.cpp:425] conv3_3 <- conv3_2
I0703 22:19:27.519302  7928 net.cpp:399] conv3_3 -> conv3_3
I0703 22:19:27.522969  7928 net.cpp:141] Setting up conv3_3
I0703 22:19:27.523049  7928 net.cpp:148] Top shape: 5 256 56 56 (4014080)
I0703 22:19:27.523066  7928 net.cpp:156] Memory required for data: 492728400
I0703 22:19:27.523110  7928 layer_factory.hpp:77] Creating layer relu3_3
I0703 22:19:27.523134  7928 net.cpp:91] Creating Layer relu3_3
I0703 22:19:27.523159  7928 net.cpp:425] relu3_3 <- conv3_3
I0703 22:19:27.523180  7928 net.cpp:386] relu3_3 -> conv3_3 (in-place)
I0703 22:19:27.523210  7928 net.cpp:141] Setting up relu3_3
I0703 22:19:27.523234  7928 net.cpp:148] Top shape: 5 256 56 56 (4014080)
I0703 22:19:27.523249  7928 net.cpp:156] Memory required for data: 508784720
I0703 22:19:27.523263  7928 layer_factory.hpp:77] Creating layer pool3
I0703 22:19:27.523285  7928 net.cpp:91] Creating Layer pool3
I0703 22:19:27.523300  7928 net.cpp:425] pool3 <- conv3_3
I0703 22:19:27.523319  7928 net.cpp:399] pool3 -> pool3
I0703 22:19:27.523398  7928 net.cpp:141] Setting up pool3
I0703 22:19:27.523460  7928 net.cpp:148] Top shape: 5 256 28 28 (1003520)
I0703 22:19:27.523478  7928 net.cpp:156] Memory required for data: 512798800
I0703 22:19:27.523494  7928 layer_factory.hpp:77] Creating layer conv4_1
I0703 22:19:27.523517  7928 net.cpp:91] Creating Layer conv4_1
I0703 22:19:27.523535  7928 net.cpp:425] conv4_1 <- pool3
I0703 22:19:27.523555  7928 net.cpp:399] conv4_1 -> conv4_1
I0703 22:19:27.529109  7928 net.cpp:141] Setting up conv4_1
I0703 22:19:27.529217  7928 net.cpp:148] Top shape: 5 512 28 28 (2007040)
I0703 22:19:27.529260  7928 net.cpp:156] Memory required for data: 520826960
I0703 22:19:27.529284  7928 layer_factory.hpp:77] Creating layer relu4_1
I0703 22:19:27.529310  7928 net.cpp:91] Creating Layer relu4_1
I0703 22:19:27.529337  7928 net.cpp:425] relu4_1 <- conv4_1
I0703 22:19:27.529361  7928 net.cpp:386] relu4_1 -> conv4_1 (in-place)
I0703 22:19:27.529395  7928 net.cpp:141] Setting up relu4_1
I0703 22:19:27.529419  7928 net.cpp:148] Top shape: 5 512 28 28 (2007040)
I0703 22:19:27.529433  7928 net.cpp:156] Memory required for data: 528855120
I0703 22:19:27.529453  7928 layer_factory.hpp:77] Creating layer conv4_2
I0703 22:19:27.529485  7928 net.cpp:91] Creating Layer conv4_2
I0703 22:19:27.529500  7928 net.cpp:425] conv4_2 <- conv4_1
I0703 22:19:27.529520  7928 net.cpp:399] conv4_2 -> conv4_2
I0703 22:19:27.539753  7928 net.cpp:141] Setting up conv4_2
I0703 22:19:27.539876  7928 net.cpp:148] Top shape: 5 512 28 28 (2007040)
I0703 22:19:27.539892  7928 net.cpp:156] Memory required for data: 536883280
I0703 22:19:27.539928  7928 layer_factory.hpp:77] Creating layer relu4_2
I0703 22:19:27.539958  7928 net.cpp:91] Creating Layer relu4_2
I0703 22:19:27.539974  7928 net.cpp:425] relu4_2 <- conv4_2
I0703 22:19:27.539997  7928 net.cpp:386] relu4_2 -> conv4_2 (in-place)
I0703 22:19:27.540056  7928 net.cpp:141] Setting up relu4_2
I0703 22:19:27.540078  7928 net.cpp:148] Top shape: 5 512 28 28 (2007040)
I0703 22:19:27.540141  7928 net.cpp:156] Memory required for data: 544911440
I0703 22:19:27.540169  7928 layer_factory.hpp:77] Creating layer conv4_3
I0703 22:19:27.540194  7928 net.cpp:91] Creating Layer conv4_3
I0703 22:19:27.540243  7928 net.cpp:425] conv4_3 <- conv4_2
I0703 22:19:27.540263  7928 net.cpp:399] conv4_3 -> conv4_3
I0703 22:19:27.550603  7928 net.cpp:141] Setting up conv4_3
I0703 22:19:27.550707  7928 net.cpp:148] Top shape: 5 512 28 28 (2007040)
I0703 22:19:27.550724  7928 net.cpp:156] Memory required for data: 552939600
I0703 22:19:27.550748  7928 layer_factory.hpp:77] Creating layer relu4_3
I0703 22:19:27.550804  7928 net.cpp:91] Creating Layer relu4_3
I0703 22:19:27.550822  7928 net.cpp:425] relu4_3 <- conv4_3
I0703 22:19:27.550848  7928 net.cpp:386] relu4_3 -> conv4_3 (in-place)
I0703 22:19:27.550884  7928 net.cpp:141] Setting up relu4_3
I0703 22:19:27.550909  7928 net.cpp:148] Top shape: 5 512 28 28 (2007040)
I0703 22:19:27.550927  7928 net.cpp:156] Memory required for data: 560967760
I0703 22:19:27.550941  7928 layer_factory.hpp:77] Creating layer pool4
I0703 22:19:27.550963  7928 net.cpp:91] Creating Layer pool4
I0703 22:19:27.550979  7928 net.cpp:425] pool4 <- conv4_3
I0703 22:19:27.550998  7928 net.cpp:399] pool4 -> pool4
I0703 22:19:27.551080  7928 net.cpp:141] Setting up pool4
I0703 22:19:27.551151  7928 net.cpp:148] Top shape: 5 512 14 14 (501760)
I0703 22:19:27.551167  7928 net.cpp:156] Memory required for data: 562974800
I0703 22:19:27.551182  7928 layer_factory.hpp:77] Creating layer conv5_1
I0703 22:19:27.551205  7928 net.cpp:91] Creating Layer conv5_1
I0703 22:19:27.551224  7928 net.cpp:425] conv5_1 <- pool4
I0703 22:19:27.551244  7928 net.cpp:399] conv5_1 -> conv5_1
I0703 22:19:27.561692  7928 net.cpp:141] Setting up conv5_1
I0703 22:19:27.561815  7928 net.cpp:148] Top shape: 5 512 14 14 (501760)
I0703 22:19:27.561830  7928 net.cpp:156] Memory required for data: 564981840
I0703 22:19:27.561854  7928 layer_factory.hpp:77] Creating layer relu5_1
I0703 22:19:27.561883  7928 net.cpp:91] Creating Layer relu5_1
I0703 22:19:27.561900  7928 net.cpp:425] relu5_1 <- conv5_1
I0703 22:19:27.561964  7928 net.cpp:386] relu5_1 -> conv5_1 (in-place)
I0703 22:19:27.562026  7928 net.cpp:141] Setting up relu5_1
I0703 22:19:27.562050  7928 net.cpp:148] Top shape: 5 512 14 14 (501760)
I0703 22:19:27.562064  7928 net.cpp:156] Memory required for data: 566988880
I0703 22:19:27.562084  7928 layer_factory.hpp:77] Creating layer conv5_2
I0703 22:19:27.562108  7928 net.cpp:91] Creating Layer conv5_2
I0703 22:19:27.562129  7928 net.cpp:425] conv5_2 <- conv5_1
I0703 22:19:27.562155  7928 net.cpp:399] conv5_2 -> conv5_2
I0703 22:19:27.572540  7928 net.cpp:141] Setting up conv5_2
I0703 22:19:27.572618  7928 net.cpp:148] Top shape: 5 512 14 14 (501760)
I0703 22:19:27.572638  7928 net.cpp:156] Memory required for data: 568995920
I0703 22:19:27.572680  7928 layer_factory.hpp:77] Creating layer relu5_2
I0703 22:19:27.572708  7928 net.cpp:91] Creating Layer relu5_2
I0703 22:19:27.572726  7928 net.cpp:425] relu5_2 <- conv5_2
I0703 22:19:27.572749  7928 net.cpp:386] relu5_2 -> conv5_2 (in-place)
I0703 22:19:27.572784  7928 net.cpp:141] Setting up relu5_2
I0703 22:19:27.572803  7928 net.cpp:148] Top shape: 5 512 14 14 (501760)
I0703 22:19:27.572820  7928 net.cpp:156] Memory required for data: 571002960
I0703 22:19:27.572839  7928 layer_factory.hpp:77] Creating layer conv5_3
I0703 22:19:27.572861  7928 net.cpp:91] Creating Layer conv5_3
I0703 22:19:27.572877  7928 net.cpp:425] conv5_3 <- conv5_2
I0703 22:19:27.572901  7928 net.cpp:399] conv5_3 -> conv5_3
I0703 22:19:27.583315  7928 net.cpp:141] Setting up conv5_3
I0703 22:19:27.583407  7928 net.cpp:148] Top shape: 5 512 14 14 (501760)
I0703 22:19:27.583423  7928 net.cpp:156] Memory required for data: 573010000
I0703 22:19:27.583475  7928 layer_factory.hpp:77] Creating layer relu5_3
I0703 22:19:27.583504  7928 net.cpp:91] Creating Layer relu5_3
I0703 22:19:27.583541  7928 net.cpp:425] relu5_3 <- conv5_3
I0703 22:19:27.583570  7928 net.cpp:386] relu5_3 -> conv5_3 (in-place)
I0703 22:19:27.583598  7928 net.cpp:141] Setting up relu5_3
I0703 22:19:27.583617  7928 net.cpp:148] Top shape: 5 512 14 14 (501760)
I0703 22:19:27.583647  7928 net.cpp:156] Memory required for data: 575017040
I0703 22:19:27.583664  7928 layer_factory.hpp:77] Creating layer pool5
I0703 22:19:27.583706  7928 net.cpp:91] Creating Layer pool5
I0703 22:19:27.583737  7928 net.cpp:425] pool5 <- conv5_3
I0703 22:19:27.583760  7928 net.cpp:399] pool5 -> pool5
I0703 22:19:27.583849  7928 net.cpp:141] Setting up pool5
I0703 22:19:27.583876  7928 net.cpp:148] Top shape: 5 512 7 7 (125440)
I0703 22:19:27.583890  7928 net.cpp:156] Memory required for data: 575518800
I0703 22:19:27.583910  7928 layer_factory.hpp:77] Creating layer fc_6
I0703 22:19:27.583947  7928 net.cpp:91] Creating Layer fc_6
I0703 22:19:27.583963  7928 net.cpp:425] fc_6 <- pool5
I0703 22:19:27.583987  7928 net.cpp:399] fc_6 -> fc_6
I0703 22:19:27.669803  7928 net.cpp:141] Setting up fc_6
I0703 22:19:27.669898  7928 net.cpp:148] Top shape: 5 256 (1280)
I0703 22:19:27.669915  7928 net.cpp:156] Memory required for data: 575523920
I0703 22:19:27.669939  7928 layer_factory.hpp:77] Creating layer relu_fc6
I0703 22:19:27.669967  7928 net.cpp:91] Creating Layer relu_fc6
I0703 22:19:27.669984  7928 net.cpp:425] relu_fc6 <- fc_6
I0703 22:19:27.670008  7928 net.cpp:386] relu_fc6 -> fc_6 (in-place)
I0703 22:19:27.670042  7928 net.cpp:141] Setting up relu_fc6
I0703 22:19:27.670060  7928 net.cpp:148] Top shape: 5 256 (1280)
I0703 22:19:27.670074  7928 net.cpp:156] Memory required for data: 575529040
I0703 22:19:27.670094  7928 layer_factory.hpp:77] Creating layer fc_7
I0703 22:19:27.670117  7928 net.cpp:91] Creating Layer fc_7
I0703 22:19:27.670137  7928 net.cpp:425] fc_7 <- fc_6
I0703 22:19:27.670156  7928 net.cpp:399] fc_7 -> fc_7
I0703 22:19:27.670732  7928 net.cpp:141] Setting up fc_7
I0703 22:19:27.670763  7928 net.cpp:148] Top shape: 5 135 (675)
I0703 22:19:27.670799  7928 net.cpp:156] Memory required for data: 575531740
I0703 22:19:27.670819  7928 layer_factory.hpp:77] Creating layer fc_7_fc_7_0_split
I0703 22:19:27.670840  7928 net.cpp:91] Creating Layer fc_7_fc_7_0_split
I0703 22:19:27.670886  7928 net.cpp:425] fc_7_fc_7_0_split <- fc_7
I0703 22:19:27.670907  7928 net.cpp:399] fc_7_fc_7_0_split -> fc_7_fc_7_0_split_0
I0703 22:19:27.670931  7928 net.cpp:399] fc_7_fc_7_0_split -> fc_7_fc_7_0_split_1
I0703 22:19:27.670953  7928 net.cpp:399] fc_7_fc_7_0_split -> fc_7_fc_7_0_split_2
I0703 22:19:27.671047  7928 net.cpp:141] Setting up fc_7_fc_7_0_split
I0703 22:19:27.671118  7928 net.cpp:148] Top shape: 5 135 (675)
I0703 22:19:27.671138  7928 net.cpp:148] Top shape: 5 135 (675)
I0703 22:19:27.671154  7928 net.cpp:148] Top shape: 5 135 (675)
I0703 22:19:27.671171  7928 net.cpp:156] Memory required for data: 575539840
I0703 22:19:27.671186  7928 layer_factory.hpp:77] Creating layer accuracy_top1-teste
I0703 22:19:27.671211  7928 net.cpp:91] Creating Layer accuracy_top1-teste
I0703 22:19:27.671232  7928 net.cpp:425] accuracy_top1-teste <- fc_7_fc_7_0_split_0
I0703 22:19:27.671249  7928 net.cpp:425] accuracy_top1-teste <- label_data_1_split_0
…
