…
I0704 11:27:56.127164 13082 net.cpp:313] The NetState phase (0) differed from the phase (1) specified by a rule in layer accuracy_top5-teste
I0704 11:27:56.127184 13082 net.cpp:313] The NetState phase (0) differed from the phase (1) specified by a rule in layer loss
I0704 11:27:56.127460 13082 net.cpp:49] Initializing net from parameters: 
name: "arface-vgg"
state {
  phase: TRAIN
}
layer {
  name: "data"
  type: "ImageData"
  top: "data"
  top: "label"
  include {
    phase: TRAIN
  }
  image_data_param {
    source: "treino-base-total.txt"
    batch_size: 10
    new_height: 224
    new_width: 224
  }
}
layer {
  name: "conv1_1"
  type: "Convolution"
  bottom: "data"
  top: "conv1_1"
  param {
    lr_mult: 0.1
  }
  convolution_param {
    num_output: 64
    pad: 1
    kernel_size: 3
  }
}
layer {
  name: "relu1_1"
  type: "ReLU"
  bottom: "conv1_1"
  top: "conv1_1"
}
layer {
  name: "conv1_2"
  type: "Convolution"
  bottom: "conv1_1"
  top: "conv1_2"
  param {
    lr_mult: 0.1
  }
  convolution_param {
    num_output: 64
    pad: 1
    kernel_size: 3
  }
}
layer {
  name: "relu1_2"
  type: "ReLU"
  bottom: "conv1_2"
  top: "conv1_2"
}
layer {
  name: "pool1"
  type: "Pooling"
  bottom: "conv1_2"
  top: "pool1"
  pooling_param {
    pool: MAX
    kernel_size: 2
    stride: 2
  }
}
layer {
  name: "conv2_1"
  type: "Convolution"
  bottom: "pool1"
  top: "conv2_1"
  param {
    lr_mult: 0.1
  }
  convolution_param {
    num_output: 128
    pad: 1
    kernel_size: 3
  }
}
layer {
  name: "relu2_1"
  type: "ReLU"
  bottom: "conv2_1"
  top: "conv2_1"
}
layer {
  name: "conv2_2"
  type: "Convolution"
  bottom: "conv2_1"
  top: "conv2_2"
  param {
    lr_mult: 0.1
  }
  convolution_param {
    num_output: 128
    pad: 1
    kernel_size: 3
  }
}
layer {
  name: "relu2_2"
  type: "ReLU"
  bottom: "conv2_2"
  top: "conv2_2"
}
layer {
  name: "pool2"
  type: "Pooling"
  bottom: "conv2_2"
  top: "pool2"
  pooling_param {
    pool: MAX
    kernel_size: 2
    stride: 2
  }
}
layer {
  name: "conv3_1"
  type: "Convolution"
  bottom: "pool2"
  top: "conv3_1"
  param {
    lr_mult: 0.1
    decay_mult: 1
  }
  convolution_param {
    num_output: 256
    pad: 1
    kernel_size: 3
  }
}
layer {
  name: "relu3_1"
  type: "ReLU"
  bottom: "conv3_1"
  top: "conv3_1"
}
layer {
  name: "conv3_2"
  type: "Convolution"
  bottom: "conv3_1"
  top: "conv3_2"
  param {
    lr_mult: 0.1
  }
  convolution_param {
    num_output: 256
    pad: 1
    kernel_size: 3
  }
}
layer {
  name: "relu3_2"
  type: "ReLU"
  bottom: "conv3_2"
  top: "conv3_2"
}
layer {
  name: "conv3_3"
  type: "Convolution"
  bottom: "conv3_2"
  top: "conv3_3"
  param {
    lr_mult: 0.1
  }
  convolution_param {
    num_output: 256
    pad: 1
    kernel_size: 3
  }
}
layer {
  name: "relu3_3"
  type: "ReLU"
  bottom: "conv3_3"
  top: "conv3_3"
}
layer {
  name: "pool3"
  type: "Pooling"
  bottom: "conv3_3"
  top: "pool3"
  pooling_param {
    pool: MAX
    kernel_size: 2
    stride: 2
  }
}
layer {
  name: "conv4_1"
  type: "Convolution"
  bottom: "pool3"
  top: "conv4_1"
  param {
    lr_mult: 0.1
  }
  convolution_param {
    num_output: 512
    pad: 1
    kernel_size: 3
  }
}
layer {
  name: "relu4_1"
  type: "ReLU"
  bottom: "conv4_1"
  top: "conv4_1"
}
layer {
  name: "conv4_2"
  type: "Convolution"
  bottom: "conv4_1"
  top: "conv4_2"
  param {
    lr_mult: 0.1
  }
  convolution_param {
    num_output: 512
    pad: 1
    kernel_size: 3
  }
}
layer {
  name: "relu4_2"
  type: "ReLU"
  bottom: "conv4_2"
  top: "conv4_2"
}
layer {
  name: "conv4_3"
  type: "Convolution"
  bottom: "conv4_2"
  top: "conv4_3"
  param {
    lr_mult: 0.1
  }
  convolution_param {
    num_output: 512
    pad: 1
    kernel_size: 3
  }
}
layer {
  name: "relu4_3"
  type: "ReLU"
  bottom: "conv4_3"
  top: "conv4_3"
}
layer {
  name: "pool4"
  type: "Pooling"
  bottom: "conv4_3"
  top: "pool4"
  pooling_param {
    pool: MAX
    kernel_size: 2
    stride: 2
  }
}
layer {
  name: "conv5_1"
  type: "Convolution"
  bottom: "pool4"
  top: "conv5_1"
  param {
    lr_mult: 0.1
  }
  convolution_param {
    num_output: 512
    pad: 1
    kernel_size: 3
  }
}
layer {
  name: "relu5_1"
  type: "ReLU"
  bottom: "conv5_1"
  top: "conv5_1"
}
layer {
  name: "conv5_2"
  type: "Convolution"
  bottom: "conv5_1"
  top: "conv5_2"
  param {
    lr_mult: 0.1
  }
  convolution_param {
    num_output: 512
    pad: 1
    kernel_size: 3
  }
}
layer {
  name: "relu5_2"
  type: "ReLU"
  bottom: "conv5_2"
  top: "conv5_2"
}
layer {
  name: "conv5_3"
  type: "Convolution"
  bottom: "conv5_2"
  top: "conv5_3"
  param {
    lr_mult: 0.1
  }
  convolution_param {
    num_output: 512
    pad: 1
    kernel_size: 3
  }
}
layer {
  name: "relu5_3"
  type: "ReLU"
  bottom: "conv5_3"
  top: "conv5_3"
}
layer {
  name: "pool5"
  type: "Pooling"
  bottom: "conv5_3"
  top: "pool5"
  pooling_param {
    pool: MAX
    kernel_size: 2
    stride: 2
  }
}
layer {
  name: "fc_6"
  type: "InnerProduct"
  bottom: "pool5"
  top: "fc_6"
  param {
    lr_mult: 1
    decay_mult: 1
  }
  param {
    lr_mult: 2
    decay_mult: 2
  }
  inner_product_param {
    num_output: 256
    weight_filler {
      type: "xavier"
    }
  }
}
layer {
  name: "relu_fc6"
  type: "ReLU"
  bottom: "fc_6"
  top: "fc_6"
}
layer {
  name: "fc_7"
  type: "InnerProduct"
  bottom: "fc_6"
  top: "fc_7"
  param {
    lr_mult: 1
    decay_mult: 1
  }
  param {
    lr_mult: 2
    decay_mult: 1
  }
  inner_product_param {
    num_output: 135
    weight_filler {
      type: "xavier"
      std: 0.5
    }
    bias_filler {
      type: "constant"
      value: 0.1
    }
  }
}
layer {
  name: "accuracy_top1-Treino"
  type: "Accuracy"
  bottom: "fc_7"
  bottom: "label"
  top: "accuracy_top1"
  include {
    phase: TRAIN
  }
  accuracy_param {
    top_k: 1
  }
}
layer {
  name: "loss-treino"
  type: "SoftmaxWithLoss"
  bottom: "fc_7"
  bottom: "label"
  top: "loss-treino"
  include {
    phase: TRAIN
  }
}
I0704 11:27:56.131093 13082 layer_factory.hpp:77] Creating layer data
I0704 11:27:56.131165 13082 net.cpp:91] Creating Layer data
I0704 11:27:56.131225 13082 net.cpp:399] data -> data
I0704 11:27:56.131304 13082 net.cpp:399] data -> label
I0704 11:27:56.131403 13082 image_data_layer.cpp:38] Opening file treino-base-total.txt
I0704 11:27:56.133566 13082 image_data_layer.cpp:53] A total of 3195 images.
I0704 11:27:56.159973 13082 image_data_layer.cpp:80] output data size: 10,3,224,224
I0704 11:27:56.181576 13082 net.cpp:141] Setting up data
I0704 11:27:56.181713 13082 net.cpp:148] Top shape: 10 3 224 224 (1505280)
I0704 11:27:56.181735 13082 net.cpp:148] Top shape: 10 (10)
I0704 11:27:56.181751 13082 net.cpp:156] Memory required for data: 6021160
I0704 11:27:56.181774 13082 layer_factory.hpp:77] Creating layer label_data_1_split
I0704 11:27:56.181809 13082 net.cpp:91] Creating Layer label_data_1_split
I0704 11:27:56.181831 13082 net.cpp:425] label_data_1_split <- label
I0704 11:27:56.181886 13082 net.cpp:399] label_data_1_split -> label_data_1_split_0
I0704 11:27:56.181918 13082 net.cpp:399] label_data_1_split -> label_data_1_split_1
I0704 11:27:56.182015 13082 net.cpp:141] Setting up label_data_1_split
I0704 11:27:56.182044 13082 net.cpp:148] Top shape: 10 (10)
I0704 11:27:56.182076 13082 net.cpp:148] Top shape: 10 (10)
I0704 11:27:56.182142 13082 net.cpp:156] Memory required for data: 6021240
I0704 11:27:56.182157 13082 layer_factory.hpp:77] Creating layer conv1_1
I0704 11:27:56.182191 13082 net.cpp:91] Creating Layer conv1_1
I0704 11:27:56.182270 13082 net.cpp:425] conv1_1 <- data
I0704 11:27:56.182292 13082 net.cpp:399] conv1_1 -> conv1_1
I0704 11:27:56.184685 13082 net.cpp:141] Setting up conv1_1
I0704 11:27:56.184759 13082 net.cpp:148] Top shape: 10 64 224 224 (32112640)
I0704 11:27:56.184798 13082 net.cpp:156] Memory required for data: 134471800
I0704 11:27:56.184876 13082 layer_factory.hpp:77] Creating layer relu1_1
I0704 11:27:56.184938 13082 net.cpp:91] Creating Layer relu1_1
I0704 11:27:56.184959 13082 net.cpp:425] relu1_1 <- conv1_1
I0704 11:27:56.184979 13082 net.cpp:386] relu1_1 -> conv1_1 (in-place)
I0704 11:27:56.185005 13082 net.cpp:141] Setting up relu1_1
I0704 11:27:56.185044 13082 net.cpp:148] Top shape: 10 64 224 224 (32112640)
I0704 11:27:56.185061 13082 net.cpp:156] Memory required for data: 262922360
I0704 11:27:56.185076 13082 layer_factory.hpp:77] Creating layer conv1_2
I0704 11:27:56.185099 13082 net.cpp:91] Creating Layer conv1_2
I0704 11:27:56.185116 13082 net.cpp:425] conv1_2 <- conv1_1
I0704 11:27:56.185133 13082 net.cpp:399] conv1_2 -> conv1_2
I0704 11:27:56.185571 13082 net.cpp:141] Setting up conv1_2
I0704 11:27:56.185636 13082 net.cpp:148] Top shape: 10 64 224 224 (32112640)
I0704 11:27:56.185654 13082 net.cpp:156] Memory required for data: 391372920
I0704 11:27:56.185678 13082 layer_factory.hpp:77] Creating layer relu1_2
I0704 11:27:56.185698 13082 net.cpp:91] Creating Layer relu1_2
I0704 11:27:56.185716 13082 net.cpp:425] relu1_2 <- conv1_2
I0704 11:27:56.185739 13082 net.cpp:386] relu1_2 -> conv1_2 (in-place)
I0704 11:27:56.185761 13082 net.cpp:141] Setting up relu1_2
I0704 11:27:56.185783 13082 net.cpp:148] Top shape: 10 64 224 224 (32112640)
I0704 11:27:56.185797 13082 net.cpp:156] Memory required for data: 519823480
I0704 11:27:56.185816 13082 layer_factory.hpp:77] Creating layer pool1
I0704 11:27:56.185842 13082 net.cpp:91] Creating Layer pool1
I0704 11:27:56.185858 13082 net.cpp:425] pool1 <- conv1_2
I0704 11:27:56.185879 13082 net.cpp:399] pool1 -> pool1
I0704 11:27:56.185971 13082 net.cpp:141] Setting up pool1
I0704 11:27:56.186015 13082 net.cpp:148] Top shape: 10 64 112 112 (8028160)
I0704 11:27:56.186033 13082 net.cpp:156] Memory required for data: 551936120
I0704 11:27:56.186054 13082 layer_factory.hpp:77] Creating layer conv2_1
I0704 11:27:56.186076 13082 net.cpp:91] Creating Layer conv2_1
I0704 11:27:56.186092 13082 net.cpp:425] conv2_1 <- pool1
I0704 11:27:56.186115 13082 net.cpp:399] conv2_1 -> conv2_1
I0704 11:27:56.188182 13082 net.cpp:141] Setting up conv2_1
I0704 11:27:56.188262 13082 net.cpp:148] Top shape: 10 128 112 112 (16056320)
I0704 11:27:56.188282 13082 net.cpp:156] Memory required for data: 616161400
I0704 11:27:56.188308 13082 layer_factory.hpp:77] Creating layer relu2_1
I0704 11:27:56.188334 13082 net.cpp:91] Creating Layer relu2_1
I0704 11:27:56.188350 13082 net.cpp:425] relu2_1 <- conv2_1
I0704 11:27:56.188374 13082 net.cpp:386] relu2_1 -> conv2_1 (in-place)
I0704 11:27:56.188398 13082 net.cpp:141] Setting up relu2_1
I0704 11:27:56.188427 13082 net.cpp:148] Top shape: 10 128 112 112 (16056320)
I0704 11:27:56.188446 13082 net.cpp:156] Memory required for data: 680386680
I0704 11:27:56.188460 13082 layer_factory.hpp:77] Creating layer conv2_2
I0704 11:27:56.188484 13082 net.cpp:91] Creating Layer conv2_2
I0704 11:27:56.188500 13082 net.cpp:425] conv2_2 <- conv2_1
I0704 11:27:56.188522 13082 net.cpp:399] conv2_2 -> conv2_2
I0704 11:27:56.189100 13082 net.cpp:141] Setting up conv2_2
I0704 11:27:56.189170 13082 net.cpp:148] Top shape: 10 128 112 112 (16056320)
I0704 11:27:56.189193 13082 net.cpp:156] Memory required for data: 744611960
I0704 11:27:56.189213 13082 layer_factory.hpp:77] Creating layer relu2_2
I0704 11:27:56.189239 13082 net.cpp:91] Creating Layer relu2_2
I0704 11:27:56.189256 13082 net.cpp:425] relu2_2 <- conv2_2
I0704 11:27:56.189273 13082 net.cpp:386] relu2_2 -> conv2_2 (in-place)
I0704 11:27:56.189294 13082 net.cpp:141] Setting up relu2_2
I0704 11:27:56.189313 13082 net.cpp:148] Top shape: 10 128 112 112 (16056320)
I0704 11:27:56.189359 13082 net.cpp:156] Memory required for data: 808837240
I0704 11:27:56.189375 13082 layer_factory.hpp:77] Creating layer pool2
I0704 11:27:56.189398 13082 net.cpp:91] Creating Layer pool2
I0704 11:27:56.189412 13082 net.cpp:425] pool2 <- conv2_2
I0704 11:27:56.189430 13082 net.cpp:399] pool2 -> pool2
I0704 11:27:56.189508 13082 net.cpp:141] Setting up pool2
I0704 11:27:56.189534 13082 net.cpp:148] Top shape: 10 128 56 56 (4014080)
I0704 11:27:56.189556 13082 net.cpp:156] Memory required for data: 824893560
I0704 11:27:56.189571 13082 layer_factory.hpp:77] Creating layer conv3_1
I0704 11:27:56.189599 13082 net.cpp:91] Creating Layer conv3_1
I0704 11:27:56.189617 13082 net.cpp:425] conv3_1 <- pool2
I0704 11:27:56.189635 13082 net.cpp:399] conv3_1 -> conv3_1
I0704 11:27:56.191287 13082 net.cpp:141] Setting up conv3_1
I0704 11:27:56.191342 13082 net.cpp:148] Top shape: 10 256 56 56 (8028160)
I0704 11:27:56.191360 13082 net.cpp:156] Memory required for data: 857006200
I0704 11:27:56.191383 13082 layer_factory.hpp:77] Creating layer relu3_1
I0704 11:27:56.191403 13082 net.cpp:91] Creating Layer relu3_1
I0704 11:27:56.191422 13082 net.cpp:425] relu3_1 <- conv3_1
I0704 11:27:56.191442 13082 net.cpp:386] relu3_1 -> conv3_1 (in-place)
I0704 11:27:56.191468 13082 net.cpp:141] Setting up relu3_1
I0704 11:27:56.191486 13082 net.cpp:148] Top shape: 10 256 56 56 (8028160)
I0704 11:27:56.191501 13082 net.cpp:156] Memory required for data: 889118840
I0704 11:27:56.191519 13082 layer_factory.hpp:77] Creating layer conv3_2
I0704 11:27:56.191540 13082 net.cpp:91] Creating Layer conv3_2
I0704 11:27:56.191558 13082 net.cpp:425] conv3_2 <- conv3_1
I0704 11:27:56.191581 13082 net.cpp:399] conv3_2 -> conv3_2
I0704 11:27:56.194653 13082 net.cpp:141] Setting up conv3_2
I0704 11:27:56.194736 13082 net.cpp:148] Top shape: 10 256 56 56 (8028160)
I0704 11:27:56.194754 13082 net.cpp:156] Memory required for data: 921231480
I0704 11:27:56.194802 13082 layer_factory.hpp:77] Creating layer relu3_2
I0704 11:27:56.194831 13082 net.cpp:91] Creating Layer relu3_2
I0704 11:27:56.194865 13082 net.cpp:425] relu3_2 <- conv3_2
I0704 11:27:56.194900 13082 net.cpp:386] relu3_2 -> conv3_2 (in-place)
I0704 11:27:56.194926 13082 net.cpp:141] Setting up relu3_2
I0704 11:27:56.194962 13082 net.cpp:148] Top shape: 10 256 56 56 (8028160)
I0704 11:27:56.195014 13082 net.cpp:156] Memory required for data: 953344120
I0704 11:27:56.195031 13082 layer_factory.hpp:77] Creating layer conv3_3
I0704 11:27:56.195060 13082 net.cpp:91] Creating Layer conv3_3
I0704 11:27:56.195096 13082 net.cpp:425] conv3_3 <- conv3_2
I0704 11:27:56.195134 13082 net.cpp:399] conv3_3 -> conv3_3
I0704 11:27:56.199419 13082 net.cpp:141] Setting up conv3_3
I0704 11:27:56.199512 13082 net.cpp:148] Top shape: 10 256 56 56 (8028160)
I0704 11:27:56.199532 13082 net.cpp:156] Memory required for data: 985456760
I0704 11:27:56.199554 13082 layer_factory.hpp:77] Creating layer relu3_3
I0704 11:27:56.199578 13082 net.cpp:91] Creating Layer relu3_3
I0704 11:27:56.199592 13082 net.cpp:425] relu3_3 <- conv3_3
I0704 11:27:56.199618 13082 net.cpp:386] relu3_3 -> conv3_3 (in-place)
I0704 11:27:56.199645 13082 net.cpp:141] Setting up relu3_3
I0704 11:27:56.199686 13082 net.cpp:148] Top shape: 10 256 56 56 (8028160)
I0704 11:27:56.199709 13082 net.cpp:156] Memory required for data: 1017569400
I0704 11:27:56.199738 13082 layer_factory.hpp:77] Creating layer pool3
I0704 11:27:56.199762 13082 net.cpp:91] Creating Layer pool3
I0704 11:27:56.199779 13082 net.cpp:425] pool3 <- conv3_3
I0704 11:27:56.199815 13082 net.cpp:399] pool3 -> pool3
I0704 11:27:56.199890 13082 net.cpp:141] Setting up pool3
I0704 11:27:56.199918 13082 net.cpp:148] Top shape: 10 256 28 28 (2007040)
I0704 11:27:56.199939 13082 net.cpp:156] Memory required for data: 1025597560
I0704 11:27:56.199954 13082 layer_factory.hpp:77] Creating layer conv4_1
I0704 11:27:56.199980 13082 net.cpp:91] Creating Layer conv4_1
I0704 11:27:56.200042 13082 net.cpp:425] conv4_1 <- pool3
I0704 11:27:56.200062 13082 net.cpp:399] conv4_1 -> conv4_1
I0704 11:27:56.206645 13082 net.cpp:141] Setting up conv4_1
I0704 11:27:56.206755 13082 net.cpp:148] Top shape: 10 512 28 28 (4014080)
I0704 11:27:56.206795 13082 net.cpp:156] Memory required for data: 1041653880
I0704 11:27:56.206820 13082 layer_factory.hpp:77] Creating layer relu4_1
I0704 11:27:56.206850 13082 net.cpp:91] Creating Layer relu4_1
I0704 11:27:56.206882 13082 net.cpp:425] relu4_1 <- conv4_1
I0704 11:27:56.206910 13082 net.cpp:386] relu4_1 -> conv4_1 (in-place)
I0704 11:27:56.206939 13082 net.cpp:141] Setting up relu4_1
I0704 11:27:56.206976 13082 net.cpp:148] Top shape: 10 512 28 28 (4014080)
I0704 11:27:56.206991 13082 net.cpp:156] Memory required for data: 1057710200
I0704 11:27:56.207020 13082 layer_factory.hpp:77] Creating layer conv4_2
I0704 11:27:56.207049 13082 net.cpp:91] Creating Layer conv4_2
I0704 11:27:56.207067 13082 net.cpp:425] conv4_2 <- conv4_1
I0704 11:27:56.207087 13082 net.cpp:399] conv4_2 -> conv4_2
I0704 11:27:56.217810 13082 net.cpp:141] Setting up conv4_2
I0704 11:27:56.217943 13082 net.cpp:148] Top shape: 10 512 28 28 (4014080)
I0704 11:27:56.217962 13082 net.cpp:156] Memory required for data: 1073766520
I0704 11:27:56.218024 13082 layer_factory.hpp:77] Creating layer relu4_2
I0704 11:27:56.218056 13082 net.cpp:91] Creating Layer relu4_2
I0704 11:27:56.218075 13082 net.cpp:425] relu4_2 <- conv4_2
I0704 11:27:56.218098 13082 net.cpp:386] relu4_2 -> conv4_2 (in-place)
I0704 11:27:56.218127 13082 net.cpp:141] Setting up relu4_2
I0704 11:27:56.218201 13082 net.cpp:148] Top shape: 10 512 28 28 (4014080)
I0704 11:27:56.218219 13082 net.cpp:156] Memory required for data: 1089822840
I0704 11:27:56.218233 13082 layer_factory.hpp:77] Creating layer conv4_3
I0704 11:27:56.218277 13082 net.cpp:91] Creating Layer conv4_3
I0704 11:27:56.218296 13082 net.cpp:425] conv4_3 <- conv4_2
I0704 11:27:56.218332 13082 net.cpp:399] conv4_3 -> conv4_3
I0704 11:27:56.229184 13082 net.cpp:141] Setting up conv4_3
I0704 11:27:56.229321 13082 net.cpp:148] Top shape: 10 512 28 28 (4014080)
I0704 11:27:56.229341 13082 net.cpp:156] Memory required for data: 1105879160
I0704 11:27:56.229367 13082 layer_factory.hpp:77] Creating layer relu4_3
I0704 11:27:56.229394 13082 net.cpp:91] Creating Layer relu4_3
I0704 11:27:56.229410 13082 net.cpp:425] relu4_3 <- conv4_3
I0704 11:27:56.229434 13082 net.cpp:386] relu4_3 -> conv4_3 (in-place)
I0704 11:27:56.229463 13082 net.cpp:141] Setting up relu4_3
I0704 11:27:56.229504 13082 net.cpp:148] Top shape: 10 512 28 28 (4014080)
I0704 11:27:56.229538 13082 net.cpp:156] Memory required for data: 1121935480
I0704 11:27:56.229553 13082 layer_factory.hpp:77] Creating layer pool4
I0704 11:27:56.229578 13082 net.cpp:91] Creating Layer pool4
I0704 11:27:56.229593 13082 net.cpp:425] pool4 <- conv4_3
I0704 11:27:56.229614 13082 net.cpp:399] pool4 -> pool4
I0704 11:27:56.229693 13082 net.cpp:141] Setting up pool4
I0704 11:27:56.229799 13082 net.cpp:148] Top shape: 10 512 14 14 (1003520)
I0704 11:27:56.229836 13082 net.cpp:156] Memory required for data: 1125949560
I0704 11:27:56.229853 13082 layer_factory.hpp:77] Creating layer conv5_1
I0704 11:27:56.229881 13082 net.cpp:91] Creating Layer conv5_1
I0704 11:27:56.229897 13082 net.cpp:425] conv5_1 <- pool4
I0704 11:27:56.229934 13082 net.cpp:399] conv5_1 -> conv5_1
I0704 11:27:56.240700 13082 net.cpp:141] Setting up conv5_1
I0704 11:27:56.240828 13082 net.cpp:148] Top shape: 10 512 14 14 (1003520)
I0704 11:27:56.240867 13082 net.cpp:156] Memory required for data: 1129963640
I0704 11:27:56.240895 13082 layer_factory.hpp:77] Creating layer relu5_1
I0704 11:27:56.240942 13082 net.cpp:91] Creating Layer relu5_1
I0704 11:27:56.240960 13082 net.cpp:425] relu5_1 <- conv5_1
I0704 11:27:56.241005 13082 net.cpp:386] relu5_1 -> conv5_1 (in-place)
I0704 11:27:56.241035 13082 net.cpp:141] Setting up relu5_1
I0704 11:27:56.241071 13082 net.cpp:148] Top shape: 10 512 14 14 (1003520)
I0704 11:27:56.241086 13082 net.cpp:156] Memory required for data: 1133977720
I0704 11:27:56.241116 13082 layer_factory.hpp:77] Creating layer conv5_2
I0704 11:27:56.241144 13082 net.cpp:91] Creating Layer conv5_2
I0704 11:27:56.241202 13082 net.cpp:425] conv5_2 <- conv5_1
I0704 11:27:56.241227 13082 net.cpp:399] conv5_2 -> conv5_2
I0704 11:27:56.251862 13082 net.cpp:141] Setting up conv5_2
I0704 11:27:56.251958 13082 net.cpp:148] Top shape: 10 512 14 14 (1003520)
I0704 11:27:56.251976 13082 net.cpp:156] Memory required for data: 1137991800
I0704 11:27:56.252024 13082 layer_factory.hpp:77] Creating layer relu5_2
I0704 11:27:56.252055 13082 net.cpp:91] Creating Layer relu5_2
I0704 11:27:56.252091 13082 net.cpp:425] relu5_2 <- conv5_2
I0704 11:27:56.252118 13082 net.cpp:386] relu5_2 -> conv5_2 (in-place)
I0704 11:27:56.252161 13082 net.cpp:141] Setting up relu5_2
I0704 11:27:56.252183 13082 net.cpp:148] Top shape: 10 512 14 14 (1003520)
I0704 11:27:56.252198 13082 net.cpp:156] Memory required for data: 1142005880
I0704 11:27:56.252213 13082 layer_factory.hpp:77] Creating layer conv5_3
I0704 11:27:56.252243 13082 net.cpp:91] Creating Layer conv5_3
I0704 11:27:56.252275 13082 net.cpp:425] conv5_3 <- conv5_2
I0704 11:27:56.252307 13082 net.cpp:399] conv5_3 -> conv5_3
I0704 11:27:56.263152 13082 net.cpp:141] Setting up conv5_3
I0704 11:27:56.263286 13082 net.cpp:148] Top shape: 10 512 14 14 (1003520)
I0704 11:27:56.263329 13082 net.cpp:156] Memory required for data: 1146019960
I0704 11:27:56.263357 13082 layer_factory.hpp:77] Creating layer relu5_3
I0704 11:27:56.263404 13082 net.cpp:91] Creating Layer relu5_3
I0704 11:27:56.263423 13082 net.cpp:425] relu5_3 <- conv5_3
I0704 11:27:56.263476 13082 net.cpp:386] relu5_3 -> conv5_3 (in-place)
I0704 11:27:56.263523 13082 net.cpp:141] Setting up relu5_3
I0704 11:27:56.263556 13082 net.cpp:148] Top shape: 10 512 14 14 (1003520)
I0704 11:27:56.263573 13082 net.cpp:156] Memory required for data: 1150034040
I0704 11:27:56.263602 13082 layer_factory.hpp:77] Creating layer pool5
I0704 11:27:56.263655 13082 net.cpp:91] Creating Layer pool5
I0704 11:27:56.263677 13082 net.cpp:425] pool5 <- conv5_3
I0704 11:27:56.263696 13082 net.cpp:399] pool5 -> pool5
I0704 11:27:56.263787 13082 net.cpp:141] Setting up pool5
I0704 11:27:56.263859 13082 net.cpp:148] Top shape: 10 512 7 7 (250880)
I0704 11:27:56.263876 13082 net.cpp:156] Memory required for data: 1151037560
I0704 11:27:56.263891 13082 layer_factory.hpp:77] Creating layer fc_6
I0704 11:27:56.263934 13082 net.cpp:91] Creating Layer fc_6
I0704 11:27:56.263952 13082 net.cpp:425] fc_6 <- pool5
I0704 11:27:56.263974 13082 net.cpp:399] fc_6 -> fc_6
I0704 11:27:56.351785 13082 net.cpp:141] Setting up fc_6
I0704 11:27:56.351907 13082 net.cpp:148] Top shape: 10 256 (2560)
I0704 11:27:56.351923 13082 net.cpp:156] Memory required for data: 1151047800
I0704 11:27:56.351972 13082 layer_factory.hpp:77] Creating layer relu_fc6
I0704 11:27:56.352005 13082 net.cpp:91] Creating Layer relu_fc6
I0704 11:27:56.352021 13082 net.cpp:425] relu_fc6 <- fc_6
I0704 11:27:56.352046 13082 net.cpp:386] relu_fc6 -> fc_6 (in-place)
I0704 11:27:56.352073 13082 net.cpp:141] Setting up relu_fc6
I0704 11:27:56.352108 13082 net.cpp:148] Top shape: 10 256 (2560)
I0704 11:27:56.352123 13082 net.cpp:156] Memory required for data: 1151058040
I0704 11:27:56.352156 13082 layer_factory.hpp:77] Creating layer fc_7
I0704 11:27:56.352180 13082 net.cpp:91] Creating Layer fc_7
I0704 11:27:56.352195 13082 net.cpp:425] fc_7 <- fc_6
I0704 11:27:56.352219 13082 net.cpp:399] fc_7 -> fc_7
I0704 11:27:56.352866 13082 net.cpp:141] Setting up fc_7
I0704 11:27:56.352936 13082 net.cpp:148] Top shape: 10 135 (1350)
I0704 11:27:56.352975 13082 net.cpp:156] Memory required for data: 1151063440
I0704 11:27:56.352998 13082 layer_factory.hpp:77] Creating layer fc_7_fc_7_0_split
I0704 11:27:56.353023 13082 net.cpp:91] Creating Layer fc_7_fc_7_0_split
I0704 11:27:56.353039 13082 net.cpp:425] fc_7_fc_7_0_split <- fc_7
I0704 11:27:56.353056 13082 net.cpp:399] fc_7_fc_7_0_split -> fc_7_fc_7_0_split_0
I0704 11:27:56.353080 13082 net.cpp:399] fc_7_fc_7_0_split -> fc_7_fc_7_0_split_1
I0704 11:27:56.353158 13082 net.cpp:141] Setting up fc_7_fc_7_0_split
I0704 11:27:56.353204 13082 net.cpp:148] Top shape: 10 135 (1350)
I0704 11:27:56.353260 13082 net.cpp:148] Top shape: 10 135 (1350)
I0704 11:27:56.353281 13082 net.cpp:156] Memory required for data: 1151074240
I0704 11:27:56.353301 13082 layer_factory.hpp:77] Creating layer accuracy_top1-Treino
I0704 11:27:56.353332 13082 net.cpp:91] Creating Layer accuracy_top1-Treino
I0704 11:27:56.353348 13082 net.cpp:425] accuracy_top1-Treino <- fc_7_fc_7_0_split_0
I0704 11:27:56.353368 13082 net.cpp:425] accuracy_top1-Treino <- label_data_1_split_0
…
I0704 11:27:56.356004 13082 net.cpp:313] The NetState phase (1) differed from the phase (0) specified by a rule in layer accuracy_top1-Treino
I0704 11:27:56.356024 13082 net.cpp:313] The NetState phase (1) differed from the phase (0) specified by a rule in layer loss-treino
I0704 11:27:56.356302 13082 net.cpp:49] Initializing net from parameters: 
name: "arface-vgg"
state {
  phase: TEST
}
layer {
  name: "data"
  type: "ImageData"
  top: "data"
  top: "label"
  include {
    phase: TEST
  }
  image_data_param {
    source: "teste.txt"
    batch_size: 5
    new_height: 224
    new_width: 224
  }
}
layer {
  name: "conv1_1"
  type: "Convolution"
  bottom: "data"
  top: "conv1_1"
  param {
    lr_mult: 0.1
  }
  convolution_param {
    num_output: 64
    pad: 1
    kernel_size: 3
  }
}
layer {
  name: "relu1_1"
  type: "ReLU"
  bottom: "conv1_1"
  top: "conv1_1"
}
layer {
  name: "conv1_2"
  type: "Convolution"
  bottom: "conv1_1"
  top: "conv1_2"
  param {
    lr_mult: 0.1
  }
  convolution_param {
    num_output: 64
    pad: 1
    kernel_size: 3
  }
}
layer {
  name: "relu1_2"
  type: "ReLU"
  bottom: "conv1_2"
  top: "conv1_2"
}
layer {
  name: "pool1"
  type: "Pooling"
  bottom: "conv1_2"
  top: "pool1"
  pooling_param {
    pool: MAX
    kernel_size: 2
    stride: 2
  }
}
layer {
  name: "conv2_1"
  type: "Convolution"
  bottom: "pool1"
  top: "conv2_1"
  param {
    lr_mult: 0.1
  }
  convolution_param {
    num_output: 128
    pad: 1
    kernel_size: 3
  }
}
layer {
  name: "relu2_1"
  type: "ReLU"
  bottom: "conv2_1"
  top: "conv2_1"
}
layer {
  name: "conv2_2"
  type: "Convolution"
  bottom: "conv2_1"
  top: "conv2_2"
  param {
    lr_mult: 0.1
  }
  convolution_param {
    num_output: 128
    pad: 1
    kernel_size: 3
  }
}
layer {
  name: "relu2_2"
  type: "ReLU"
  bottom: "conv2_2"
  top: "conv2_2"
}
layer {
  name: "pool2"
  type: "Pooling"
  bottom: "conv2_2"
  top: "pool2"
  pooling_param {
    pool: MAX
    kernel_size: 2
    stride: 2
  }
}
layer {
  name: "conv3_1"
  type: "Convolution"
  bottom: "pool2"
  top: "conv3_1"
  param {
    lr_mult: 0.1
    decay_mult: 1
  }
  convolution_param {
    num_output: 256
    pad: 1
    kernel_size: 3
  }
}
layer {
  name: "relu3_1"
  type: "ReLU"
  bottom: "conv3_1"
  top: "conv3_1"
}
layer {
  name: "conv3_2"
  type: "Convolution"
  bottom: "conv3_1"
  top: "conv3_2"
  param {
    lr_mult: 0.1
  }
  convolution_param {
    num_output: 256
    pad: 1
    kernel_size: 3
  }
}
layer {
  name: "relu3_2"
  type: "ReLU"
  bottom: "conv3_2"
  top: "conv3_2"
}
layer {
  name: "conv3_3"
  type: "Convolution"
  bottom: "conv3_2"
  top: "conv3_3"
  param {
    lr_mult: 0.1
  }
  convolution_param {
    num_output: 256
    pad: 1
    kernel_size: 3
  }
}
layer {
  name: "relu3_3"
  type: "ReLU"
  bottom: "conv3_3"
  top: "conv3_3"
}
layer {
  name: "pool3"
  type: "Pooling"
  bottom: "conv3_3"
  top: "pool3"
  pooling_param {
    pool: MAX
    kernel_size: 2
    stride: 2
  }
}
layer {
  name: "conv4_1"
  type: "Convolution"
  bottom: "pool3"
  top: "conv4_1"
  param {
    lr_mult: 0.1
  }
  convolution_param {
    num_output: 512
    pad: 1
    kernel_size: 3
  }
}
layer {
  name: "relu4_1"
  type: "ReLU"
  bottom: "conv4_1"
  top: "conv4_1"
}
layer {
  name: "conv4_2"
  type: "Convolution"
  bottom: "conv4_1"
  top: "conv4_2"
  param {
    lr_mult: 0.1
  }
  convolution_param {
    num_output: 512
    pad: 1
    kernel_size: 3
  }
}
layer {
  name: "relu4_2"
  type: "ReLU"
  bottom: "conv4_2"
  top: "conv4_2"
}
layer {
  name: "conv4_3"
  type: "Convolution"
  bottom: "conv4_2"
  top: "conv4_3"
  param {
    lr_mult: 0.1
  }
  convolution_param {
    num_output: 512
    pad: 1
    kernel_size: 3
  }
}
layer {
  name: "relu4_3"
  type: "ReLU"
  bottom: "conv4_3"
  top: "conv4_3"
}
layer {
  name: "pool4"
  type: "Pooling"
  bottom: "conv4_3"
  top: "pool4"
  pooling_param {
    pool: MAX
    kernel_size: 2
    stride: 2
  }
}
layer {
  name: "conv5_1"
  type: "Convolution"
  bottom: "pool4"
  top: "conv5_1"
  param {
    lr_mult: 0.1
  }
  convolution_param {
    num_output: 512
    pad: 1
    kernel_size: 3
  }
}
layer {
  name: "relu5_1"
  type: "ReLU"
  bottom: "conv5_1"
  top: "conv5_1"
}
layer {
  name: "conv5_2"
  type: "Convolution"
  bottom: "conv5_1"
  top: "conv5_2"
  param {
    lr_mult: 0.1
  }
  convolution_param {
    num_output: 512
    pad: 1
    kernel_size: 3
  }
}
layer {
  name: "relu5_2"
  type: "ReLU"
  bottom: "conv5_2"
  top: "conv5_2"
}
layer {
  name: "conv5_3"
  type: "Convolution"
  bottom: "conv5_2"
  top: "conv5_3"
  param {
    lr_mult: 0.1
  }
  convolution_param {
    num_output: 512
    pad: 1
    kernel_size: 3
  }
}
layer {
  name: "relu5_3"
  type: "ReLU"
  bottom: "conv5_3"
  top: "conv5_3"
}
layer {
  name: "pool5"
  type: "Pooling"
  bottom: "conv5_3"
  top: "pool5"
  pooling_param {
    pool: MAX
    kernel_size: 2
    stride: 2
  }
}
layer {
  name: "fc_6"
  type: "InnerProduct"
  bottom: "pool5"
  top: "fc_6"
  param {
    lr_mult: 1
    decay_mult: 1
  }
  param {
    lr_mult: 2
    decay_mult: 2
  }
  inner_product_param {
    num_output: 256
    weight_filler {
      type: "xavier"
    }
  }
}
layer {
  name: "relu_fc6"
  type: "ReLU"
  bottom: "fc_6"
  top: "fc_6"
}
layer {
  name: "fc_7"
  type: "InnerProduct"
  bottom: "fc_6"
  top: "fc_7"
  param {
    lr_mult: 1
    decay_mult: 1
  }
  param {
    lr_mult: 2
    decay_mult: 1
  }
  inner_product_param {
    num_output: 135
    weight_filler {
      type: "xavier"
      std: 0.5
    }
    bias_filler {
      type: "constant"
      value: 0.1
    }
  }
}
layer {
  name: "accuracy_top1-teste"
  type: "Accuracy"
  bottom: "fc_7"
  bottom: "label"
  top: "accuracy_top1-teste"
  include {
    phase: TEST
  }
  accuracy_param {
    top_k: 1
  }
}
layer {
  name: "accuracy_top5-teste"
  type: "Accuracy"
  bottom: "fc_7"
  bottom: "label"
  top: "accuracy_top5-teste"
  include {
    phase: TEST
  }
  accuracy_param {
    top_k: 5
  }
}
layer {
  name: "loss"
  type: "SoftmaxWithLoss"
  bottom: "fc_7"
  bottom: "label"
  top: "loss"
  include {
    phase: TEST
  }
}
I0704 11:27:56.359697 13082 layer_factory.hpp:77] Creating layer data
I0704 11:27:56.359740 13082 net.cpp:91] Creating Layer data
I0704 11:27:56.359762 13082 net.cpp:399] data -> data
I0704 11:27:56.359789 13082 net.cpp:399] data -> label
I0704 11:27:56.359820 13082 image_data_layer.cpp:38] Opening file teste.txt
I0704 11:27:56.360226 13082 image_data_layer.cpp:53] A total of 119 images.
I0704 11:27:56.373149 13082 image_data_layer.cpp:80] output data size: 5,3,224,224
I0704 11:27:56.384882 13082 net.cpp:141] Setting up data
I0704 11:27:56.385027 13082 net.cpp:148] Top shape: 5 3 224 224 (752640)
I0704 11:27:56.385047 13082 net.cpp:148] Top shape: 5 (5)
I0704 11:27:56.385062 13082 net.cpp:156] Memory required for data: 3010580
I0704 11:27:56.385084 13082 layer_factory.hpp:77] Creating layer label_data_1_split
I0704 11:27:56.385116 13082 net.cpp:91] Creating Layer label_data_1_split
I0704 11:27:56.385141 13082 net.cpp:425] label_data_1_split <- label
I0704 11:27:56.385169 13082 net.cpp:399] label_data_1_split -> label_data_1_split_0
I0704 11:27:56.385200 13082 net.cpp:399] label_data_1_split -> label_data_1_split_1
I0704 11:27:56.385224 13082 net.cpp:399] label_data_1_split -> label_data_1_split_2
I0704 11:27:56.385370 13082 net.cpp:141] Setting up label_data_1_split
I0704 11:27:56.385398 13082 net.cpp:148] Top shape: 5 (5)
I0704 11:27:56.385419 13082 net.cpp:148] Top shape: 5 (5)
I0704 11:27:56.385435 13082 net.cpp:148] Top shape: 5 (5)
I0704 11:27:56.385452 13082 net.cpp:156] Memory required for data: 3010640
I0704 11:27:56.385506 13082 layer_factory.hpp:77] Creating layer conv1_1
I0704 11:27:56.385536 13082 net.cpp:91] Creating Layer conv1_1
I0704 11:27:56.385550 13082 net.cpp:425] conv1_1 <- data
I0704 11:27:56.385573 13082 net.cpp:399] conv1_1 -> conv1_1
I0704 11:27:56.386067 13082 net.cpp:141] Setting up conv1_1
I0704 11:27:56.386116 13082 net.cpp:148] Top shape: 5 64 224 224 (16056320)
I0704 11:27:56.386154 13082 net.cpp:156] Memory required for data: 67235920
I0704 11:27:56.386184 13082 layer_factory.hpp:77] Creating layer relu1_1
I0704 11:27:56.386209 13082 net.cpp:91] Creating Layer relu1_1
I0704 11:27:56.386242 13082 net.cpp:425] relu1_1 <- conv1_1
I0704 11:27:56.386272 13082 net.cpp:386] relu1_1 -> conv1_1 (in-place)
I0704 11:27:56.386294 13082 net.cpp:141] Setting up relu1_1
I0704 11:27:56.386317 13082 net.cpp:148] Top shape: 5 64 224 224 (16056320)
I0704 11:27:56.386329 13082 net.cpp:156] Memory required for data: 131461200
I0704 11:27:56.386344 13082 layer_factory.hpp:77] Creating layer conv1_2
I0704 11:27:56.386370 13082 net.cpp:91] Creating Layer conv1_2
I0704 11:27:56.386400 13082 net.cpp:425] conv1_2 <- conv1_1
I0704 11:27:56.386422 13082 net.cpp:399] conv1_2 -> conv1_2
I0704 11:27:56.387959 13082 net.cpp:141] Setting up conv1_2
I0704 11:27:56.388036 13082 net.cpp:148] Top shape: 5 64 224 224 (16056320)
I0704 11:27:56.388072 13082 net.cpp:156] Memory required for data: 195686480
I0704 11:27:56.388098 13082 layer_factory.hpp:77] Creating layer relu1_2
I0704 11:27:56.388121 13082 net.cpp:91] Creating Layer relu1_2
I0704 11:27:56.388155 13082 net.cpp:425] relu1_2 <- conv1_2
I0704 11:27:56.388178 13082 net.cpp:386] relu1_2 -> conv1_2 (in-place)
I0704 11:27:56.388200 13082 net.cpp:141] Setting up relu1_2
I0704 11:27:56.388232 13082 net.cpp:148] Top shape: 5 64 224 224 (16056320)
I0704 11:27:56.388257 13082 net.cpp:156] Memory required for data: 259911760
I0704 11:27:56.388273 13082 layer_factory.hpp:77] Creating layer pool1
I0704 11:27:56.388298 13082 net.cpp:91] Creating Layer pool1
I0704 11:27:56.388312 13082 net.cpp:425] pool1 <- conv1_2
I0704 11:27:56.388335 13082 net.cpp:399] pool1 -> pool1
I0704 11:27:56.388424 13082 net.cpp:141] Setting up pool1
I0704 11:27:56.388453 13082 net.cpp:148] Top shape: 5 64 112 112 (4014080)
I0704 11:27:56.388471 13082 net.cpp:156] Memory required for data: 275968080
I0704 11:27:56.388487 13082 layer_factory.hpp:77] Creating layer conv2_1
I0704 11:27:56.388514 13082 net.cpp:91] Creating Layer conv2_1
I0704 11:27:56.388528 13082 net.cpp:425] conv2_1 <- pool1
I0704 11:27:56.388551 13082 net.cpp:399] conv2_1 -> conv2_1
I0704 11:27:56.389885 13082 net.cpp:141] Setting up conv2_1
I0704 11:27:56.389964 13082 net.cpp:148] Top shape: 5 128 112 112 (8028160)
I0704 11:27:56.390012 13082 net.cpp:156] Memory required for data: 308080720
I0704 11:27:56.390038 13082 layer_factory.hpp:77] Creating layer relu2_1
I0704 11:27:56.390064 13082 net.cpp:91] Creating Layer relu2_1
I0704 11:27:56.390079 13082 net.cpp:425] relu2_1 <- conv2_1
I0704 11:27:56.390101 13082 net.cpp:386] relu2_1 -> conv2_1 (in-place)
I0704 11:27:56.390130 13082 net.cpp:141] Setting up relu2_1
I0704 11:27:56.390147 13082 net.cpp:148] Top shape: 5 128 112 112 (8028160)
I0704 11:27:56.390166 13082 net.cpp:156] Memory required for data: 340193360
I0704 11:27:56.390180 13082 layer_factory.hpp:77] Creating layer conv2_2
I0704 11:27:56.390202 13082 net.cpp:91] Creating Layer conv2_2
I0704 11:27:56.390219 13082 net.cpp:425] conv2_2 <- conv2_1
I0704 11:27:56.390241 13082 net.cpp:399] conv2_2 -> conv2_2
I0704 11:27:56.390812 13082 net.cpp:141] Setting up conv2_2
I0704 11:27:56.390844 13082 net.cpp:148] Top shape: 5 128 112 112 (8028160)
I0704 11:27:56.390866 13082 net.cpp:156] Memory required for data: 372306000
I0704 11:27:56.390916 13082 layer_factory.hpp:77] Creating layer relu2_2
I0704 11:27:56.390939 13082 net.cpp:91] Creating Layer relu2_2
I0704 11:27:56.390955 13082 net.cpp:425] relu2_2 <- conv2_2
I0704 11:27:56.390977 13082 net.cpp:386] relu2_2 -> conv2_2 (in-place)
I0704 11:27:56.390998 13082 net.cpp:141] Setting up relu2_2
I0704 11:27:56.391016 13082 net.cpp:148] Top shape: 5 128 112 112 (8028160)
I0704 11:27:56.391031 13082 net.cpp:156] Memory required for data: 404418640
I0704 11:27:56.391058 13082 layer_factory.hpp:77] Creating layer pool2
I0704 11:27:56.391085 13082 net.cpp:91] Creating Layer pool2
I0704 11:27:56.391101 13082 net.cpp:425] pool2 <- conv2_2
I0704 11:27:56.391132 13082 net.cpp:399] pool2 -> pool2
I0704 11:27:56.391207 13082 net.cpp:141] Setting up pool2
I0704 11:27:56.391234 13082 net.cpp:148] Top shape: 5 128 56 56 (2007040)
I0704 11:27:56.391257 13082 net.cpp:156] Memory required for data: 412446800
I0704 11:27:56.391273 13082 layer_factory.hpp:77] Creating layer conv3_1
I0704 11:27:56.391296 13082 net.cpp:91] Creating Layer conv3_1
I0704 11:27:56.391335 13082 net.cpp:425] conv3_1 <- pool2
I0704 11:27:56.391355 13082 net.cpp:399] conv3_1 -> conv3_1
I0704 11:27:56.393018 13082 net.cpp:141] Setting up conv3_1
I0704 11:27:56.393091 13082 net.cpp:148] Top shape: 5 256 56 56 (4014080)
I0704 11:27:56.393127 13082 net.cpp:156] Memory required for data: 428503120
I0704 11:27:56.393154 13082 layer_factory.hpp:77] Creating layer relu3_1
I0704 11:27:56.393177 13082 net.cpp:91] Creating Layer relu3_1
I0704 11:27:56.393211 13082 net.cpp:425] relu3_1 <- conv3_1
I0704 11:27:56.393249 13082 net.cpp:386] relu3_1 -> conv3_1 (in-place)
I0704 11:27:56.393271 13082 net.cpp:141] Setting up relu3_1
I0704 11:27:56.393306 13082 net.cpp:148] Top shape: 5 256 56 56 (4014080)
I0704 11:27:56.393322 13082 net.cpp:156] Memory required for data: 444559440
I0704 11:27:56.393339 13082 layer_factory.hpp:77] Creating layer conv3_2
I0704 11:27:56.393362 13082 net.cpp:91] Creating Layer conv3_2
I0704 11:27:56.393376 13082 net.cpp:425] conv3_2 <- conv3_1
I0704 11:27:56.393398 13082 net.cpp:399] conv3_2 -> conv3_2
I0704 11:27:56.396548 13082 net.cpp:141] Setting up conv3_2
I0704 11:27:56.396603 13082 net.cpp:148] Top shape: 5 256 56 56 (4014080)
I0704 11:27:56.396620 13082 net.cpp:156] Memory required for data: 460615760
I0704 11:27:56.396641 13082 layer_factory.hpp:77] Creating layer relu3_2
I0704 11:27:56.396672 13082 net.cpp:91] Creating Layer relu3_2
I0704 11:27:56.396688 13082 net.cpp:425] relu3_2 <- conv3_2
I0704 11:27:56.396728 13082 net.cpp:386] relu3_2 -> conv3_2 (in-place)
I0704 11:27:56.396754 13082 net.cpp:141] Setting up relu3_2
I0704 11:27:56.396777 13082 net.cpp:148] Top shape: 5 256 56 56 (4014080)
I0704 11:27:56.396790 13082 net.cpp:156] Memory required for data: 476672080
I0704 11:27:56.396806 13082 layer_factory.hpp:77] Creating layer conv3_3
I0704 11:27:56.396833 13082 net.cpp:91] Creating Layer conv3_3
I0704 11:27:56.396867 13082 net.cpp:425] conv3_3 <- conv3_2
I0704 11:27:56.396900 13082 net.cpp:399] conv3_3 -> conv3_3
I0704 11:27:56.400017 13082 net.cpp:141] Setting up conv3_3
I0704 11:27:56.400079 13082 net.cpp:148] Top shape: 5 256 56 56 (4014080)
I0704 11:27:56.400113 13082 net.cpp:156] Memory required for data: 492728400
I0704 11:27:56.400135 13082 layer_factory.hpp:77] Creating layer relu3_3
I0704 11:27:56.400172 13082 net.cpp:91] Creating Layer relu3_3
I0704 11:27:56.400188 13082 net.cpp:425] relu3_3 <- conv3_3
I0704 11:27:56.400208 13082 net.cpp:386] relu3_3 -> conv3_3 (in-place)
I0704 11:27:56.400231 13082 net.cpp:141] Setting up relu3_3
I0704 11:27:56.400250 13082 net.cpp:148] Top shape: 5 256 56 56 (4014080)
I0704 11:27:56.400279 13082 net.cpp:156] Memory required for data: 508784720
I0704 11:27:56.400295 13082 layer_factory.hpp:77] Creating layer pool3
I0704 11:27:56.400326 13082 net.cpp:91] Creating Layer pool3
I0704 11:27:56.400342 13082 net.cpp:425] pool3 <- conv3_3
I0704 11:27:56.400365 13082 net.cpp:399] pool3 -> pool3
I0704 11:27:56.400444 13082 net.cpp:141] Setting up pool3
I0704 11:27:56.400508 13082 net.cpp:148] Top shape: 5 256 28 28 (1003520)
I0704 11:27:56.400527 13082 net.cpp:156] Memory required for data: 512798800
I0704 11:27:56.400543 13082 layer_factory.hpp:77] Creating layer conv4_1
I0704 11:27:56.400586 13082 net.cpp:91] Creating Layer conv4_1
I0704 11:27:56.400604 13082 net.cpp:425] conv4_1 <- pool3
I0704 11:27:56.400646 13082 net.cpp:399] conv4_1 -> conv4_1
I0704 11:27:56.406355 13082 net.cpp:141] Setting up conv4_1
I0704 11:27:56.406464 13082 net.cpp:148] Top shape: 5 512 28 28 (2007040)
I0704 11:27:56.406503 13082 net.cpp:156] Memory required for data: 520826960
I0704 11:27:56.406528 13082 layer_factory.hpp:77] Creating layer relu4_1
I0704 11:27:56.406556 13082 net.cpp:91] Creating Layer relu4_1
I0704 11:27:56.406595 13082 net.cpp:425] relu4_1 <- conv4_1
I0704 11:27:56.406620 13082 net.cpp:386] relu4_1 -> conv4_1 (in-place)
I0704 11:27:56.406649 13082 net.cpp:141] Setting up relu4_1
I0704 11:27:56.406687 13082 net.cpp:148] Top shape: 5 512 28 28 (2007040)
I0704 11:27:56.406704 13082 net.cpp:156] Memory required for data: 528855120
I0704 11:27:56.406735 13082 layer_factory.hpp:77] Creating layer conv4_2
I0704 11:27:56.406793 13082 net.cpp:91] Creating Layer conv4_2
I0704 11:27:56.406810 13082 net.cpp:425] conv4_2 <- conv4_1
I0704 11:27:56.406857 13082 net.cpp:399] conv4_2 -> conv4_2
I0704 11:27:56.418465 13082 net.cpp:141] Setting up conv4_2
I0704 11:27:56.418613 13082 net.cpp:148] Top shape: 5 512 28 28 (2007040)
I0704 11:27:56.418654 13082 net.cpp:156] Memory required for data: 536883280
I0704 11:27:56.418694 13082 layer_factory.hpp:77] Creating layer relu4_2
I0704 11:27:56.418725 13082 net.cpp:91] Creating Layer relu4_2
I0704 11:27:56.418748 13082 net.cpp:425] relu4_2 <- conv4_2
I0704 11:27:56.418771 13082 net.cpp:386] relu4_2 -> conv4_2 (in-place)
I0704 11:27:56.418808 13082 net.cpp:141] Setting up relu4_2
I0704 11:27:56.418828 13082 net.cpp:148] Top shape: 5 512 28 28 (2007040)
I0704 11:27:56.418843 13082 net.cpp:156] Memory required for data: 544911440
I0704 11:27:56.418860 13082 layer_factory.hpp:77] Creating layer conv4_3
I0704 11:27:56.418886 13082 net.cpp:91] Creating Layer conv4_3
I0704 11:27:56.418993 13082 net.cpp:425] conv4_3 <- conv4_2
I0704 11:27:56.419080 13082 net.cpp:399] conv4_3 -> conv4_3
I0704 11:27:56.430841 13082 net.cpp:141] Setting up conv4_3
I0704 11:27:56.430965 13082 net.cpp:148] Top shape: 5 512 28 28 (2007040)
I0704 11:27:56.431002 13082 net.cpp:156] Memory required for data: 552939600
I0704 11:27:56.431031 13082 layer_factory.hpp:77] Creating layer relu4_3
I0704 11:27:56.431061 13082 net.cpp:91] Creating Layer relu4_3
I0704 11:27:56.431080 13082 net.cpp:425] relu4_3 <- conv4_3
I0704 11:27:56.431105 13082 net.cpp:386] relu4_3 -> conv4_3 (in-place)
I0704 11:27:56.431140 13082 net.cpp:141] Setting up relu4_3
I0704 11:27:56.431161 13082 net.cpp:148] Top shape: 5 512 28 28 (2007040)
I0704 11:27:56.431180 13082 net.cpp:156] Memory required for data: 560967760
I0704 11:27:56.431197 13082 layer_factory.hpp:77] Creating layer pool4
I0704 11:27:56.431224 13082 net.cpp:91] Creating Layer pool4
I0704 11:27:56.431241 13082 net.cpp:425] pool4 <- conv4_3
I0704 11:27:56.431288 13082 net.cpp:399] pool4 -> pool4
I0704 11:27:56.431368 13082 net.cpp:141] Setting up pool4
I0704 11:27:56.431396 13082 net.cpp:148] Top shape: 5 512 14 14 (501760)
I0704 11:27:56.431411 13082 net.cpp:156] Memory required for data: 562974800
I0704 11:27:56.431427 13082 layer_factory.hpp:77] Creating layer conv5_1
I0704 11:27:56.431455 13082 net.cpp:91] Creating Layer conv5_1
I0704 11:27:56.431474 13082 net.cpp:425] conv5_1 <- pool4
I0704 11:27:56.431499 13082 net.cpp:399] conv5_1 -> conv5_1
I0704 11:27:56.442591 13082 net.cpp:141] Setting up conv5_1
I0704 11:27:56.442692 13082 net.cpp:148] Top shape: 5 512 14 14 (501760)
I0704 11:27:56.442708 13082 net.cpp:156] Memory required for data: 564981840
I0704 11:27:56.442735 13082 layer_factory.hpp:77] Creating layer relu5_1
I0704 11:27:56.442766 13082 net.cpp:91] Creating Layer relu5_1
I0704 11:27:56.442785 13082 net.cpp:425] relu5_1 <- conv5_1
I0704 11:27:56.442849 13082 net.cpp:386] relu5_1 -> conv5_1 (in-place)
I0704 11:27:56.442886 13082 net.cpp:141] Setting up relu5_1
I0704 11:27:56.442909 13082 net.cpp:148] Top shape: 5 512 14 14 (501760)
I0704 11:27:56.442926 13082 net.cpp:156] Memory required for data: 566988880
I0704 11:27:56.442940 13082 layer_factory.hpp:77] Creating layer conv5_2
I0704 11:27:56.442965 13082 net.cpp:91] Creating Layer conv5_2
I0704 11:27:56.442984 13082 net.cpp:425] conv5_2 <- conv5_1
I0704 11:27:56.443004 13082 net.cpp:399] conv5_2 -> conv5_2
I0704 11:27:56.453987 13082 net.cpp:141] Setting up conv5_2
I0704 11:27:56.454082 13082 net.cpp:148] Top shape: 5 512 14 14 (501760)
I0704 11:27:56.454123 13082 net.cpp:156] Memory required for data: 568995920
I0704 11:27:56.454149 13082 layer_factory.hpp:77] Creating layer relu5_2
I0704 11:27:56.454180 13082 net.cpp:91] Creating Layer relu5_2
I0704 11:27:56.454198 13082 net.cpp:425] relu5_2 <- conv5_2
I0704 11:27:56.454223 13082 net.cpp:386] relu5_2 -> conv5_2 (in-place)
I0704 11:27:56.454252 13082 net.cpp:141] Setting up relu5_2
I0704 11:27:56.454293 13082 net.cpp:148] Top shape: 5 512 14 14 (501760)
I0704 11:27:56.454308 13082 net.cpp:156] Memory required for data: 571002960
I0704 11:27:56.454381 13082 layer_factory.hpp:77] Creating layer conv5_3
I0704 11:27:56.454406 13082 net.cpp:91] Creating Layer conv5_3
I0704 11:27:56.454423 13082 net.cpp:425] conv5_3 <- conv5_2
I0704 11:27:56.454464 13082 net.cpp:399] conv5_3 -> conv5_3
I0704 11:27:56.465354 13082 net.cpp:141] Setting up conv5_3
I0704 11:27:56.465453 13082 net.cpp:148] Top shape: 5 512 14 14 (501760)
I0704 11:27:56.465469 13082 net.cpp:156] Memory required for data: 573010000
I0704 11:27:56.465522 13082 layer_factory.hpp:77] Creating layer relu5_3
I0704 11:27:56.465550 13082 net.cpp:91] Creating Layer relu5_3
I0704 11:27:56.465569 13082 net.cpp:425] relu5_3 <- conv5_3
I0704 11:27:56.465595 13082 net.cpp:386] relu5_3 -> conv5_3 (in-place)
I0704 11:27:56.465641 13082 net.cpp:141] Setting up relu5_3
I0704 11:27:56.465664 13082 net.cpp:148] Top shape: 5 512 14 14 (501760)
I0704 11:27:56.465698 13082 net.cpp:156] Memory required for data: 575017040
I0704 11:27:56.465718 13082 layer_factory.hpp:77] Creating layer pool5
I0704 11:27:56.465744 13082 net.cpp:91] Creating Layer pool5
I0704 11:27:56.465764 13082 net.cpp:425] pool5 <- conv5_3
I0704 11:27:56.465787 13082 net.cpp:399] pool5 -> pool5
I0704 11:27:56.465878 13082 net.cpp:141] Setting up pool5
I0704 11:27:56.465905 13082 net.cpp:148] Top shape: 5 512 7 7 (125440)
I0704 11:27:56.465927 13082 net.cpp:156] Memory required for data: 575518800
I0704 11:27:56.465944 13082 layer_factory.hpp:77] Creating layer fc_6
I0704 11:27:56.465972 13082 net.cpp:91] Creating Layer fc_6
I0704 11:27:56.465988 13082 net.cpp:425] fc_6 <- pool5
I0704 11:27:56.466013 13082 net.cpp:399] fc_6 -> fc_6
I0704 11:27:56.553582 13082 net.cpp:141] Setting up fc_6
I0704 11:27:56.553697 13082 net.cpp:148] Top shape: 5 256 (1280)
I0704 11:27:56.553717 13082 net.cpp:156] Memory required for data: 575523920
I0704 11:27:56.553742 13082 layer_factory.hpp:77] Creating layer relu_fc6
I0704 11:27:56.553773 13082 net.cpp:91] Creating Layer relu_fc6
I0704 11:27:56.553791 13082 net.cpp:425] relu_fc6 <- fc_6
I0704 11:27:56.553815 13082 net.cpp:386] relu_fc6 -> fc_6 (in-place)
I0704 11:27:56.553845 13082 net.cpp:141] Setting up relu_fc6
I0704 11:27:56.553864 13082 net.cpp:148] Top shape: 5 256 (1280)
I0704 11:27:56.553920 13082 net.cpp:156] Memory required for data: 575529040
I0704 11:27:56.553936 13082 layer_factory.hpp:77] Creating layer fc_7
I0704 11:27:56.553961 13082 net.cpp:91] Creating Layer fc_7
I0704 11:27:56.553974 13082 net.cpp:425] fc_7 <- fc_6
I0704 11:27:56.554019 13082 net.cpp:399] fc_7 -> fc_7
I0704 11:27:56.554601 13082 net.cpp:141] Setting up fc_7
I0704 11:27:56.554664 13082 net.cpp:148] Top shape: 5 135 (675)
I0704 11:27:56.554702 13082 net.cpp:156] Memory required for data: 575531740
I0704 11:27:56.554721 13082 layer_factory.hpp:77] Creating layer fc_7_fc_7_0_split
I0704 11:27:56.554746 13082 net.cpp:91] Creating Layer fc_7_fc_7_0_split
I0704 11:27:56.554811 13082 net.cpp:425] fc_7_fc_7_0_split <- fc_7
I0704 11:27:56.554838 13082 net.cpp:399] fc_7_fc_7_0_split -> fc_7_fc_7_0_split_0
I0704 11:27:56.554872 13082 net.cpp:399] fc_7_fc_7_0_split -> fc_7_fc_7_0_split_1
I0704 11:27:56.554893 13082 net.cpp:399] fc_7_fc_7_0_split -> fc_7_fc_7_0_split_2
I0704 11:27:56.554988 13082 net.cpp:141] Setting up fc_7_fc_7_0_split
I0704 11:27:56.555049 13082 net.cpp:148] Top shape: 5 135 (675)
I0704 11:27:56.555135 13082 net.cpp:148] Top shape: 5 135 (675)
I0704 11:27:56.555150 13082 net.cpp:148] Top shape: 5 135 (675)
I0704 11:27:56.555166 13082 net.cpp:156] Memory required for data: 575539840
I0704 11:27:56.555181 13082 layer_factory.hpp:77] Creating layer accuracy_top1-teste
I0704 11:27:56.555208 13082 net.cpp:91] Creating Layer accuracy_top1-teste
I0704 11:27:56.555223 13082 net.cpp:425] accuracy_top1-teste <- fc_7_fc_7_0_split_0
I0704 11:27:56.555241 13082 net.cpp:425] accuracy_top1-teste <- label_data_1_split_0
…
