…
I0625 13:54:59.858666  6288 net.cpp:313] The NetState phase (0) differed from the phase (1) specified by a rule in layer accuracy_top5-teste
I0625 13:54:59.858681  6288 net.cpp:313] The NetState phase (0) differed from the phase (1) specified by a rule in layer loss
I0625 13:54:59.858957  6288 net.cpp:49] Initializing net from parameters: 
name: "arface-vgg"
state {
  phase: TRAIN
}
layer {
  name: "data"
  type: "ImageData"
  top: "data"
  top: "label"
  include {
    phase: TRAIN
  }
  image_data_param {
    source: "treino-base-total.txt"
    batch_size: 7
    new_height: 224
    new_width: 224
  }
}
layer {
  name: "conv1_1"
  type: "Convolution"
  bottom: "data"
  top: "conv1_1"
  param {
    lr_mult: 0.1
  }
  convolution_param {
    num_output: 64
    pad: 1
    kernel_size: 3
  }
}
layer {
  name: "relu1_1"
  type: "ReLU"
  bottom: "conv1_1"
  top: "conv1_1"
}
layer {
  name: "conv1_2"
  type: "Convolution"
  bottom: "conv1_1"
  top: "conv1_2"
  param {
    lr_mult: 0.1
  }
  convolution_param {
    num_output: 64
    pad: 1
    kernel_size: 3
  }
}
layer {
  name: "relu1_2"
  type: "ReLU"
  bottom: "conv1_2"
  top: "conv1_2"
}
layer {
  name: "pool1"
  type: "Pooling"
  bottom: "conv1_2"
  top: "pool1"
  pooling_param {
    pool: MAX
    kernel_size: 2
    stride: 2
  }
}
layer {
  name: "conv2_1"
  type: "Convolution"
  bottom: "pool1"
  top: "conv2_1"
  param {
    lr_mult: 0.1
  }
  convolution_param {
    num_output: 128
    pad: 1
    kernel_size: 3
  }
}
layer {
  name: "relu2_1"
  type: "ReLU"
  bottom: "conv2_1"
  top: "conv2_1"
}
layer {
  name: "conv2_2"
  type: "Convolution"
  bottom: "conv2_1"
  top: "conv2_2"
  param {
    lr_mult: 0.1
  }
  convolution_param {
    num_output: 128
    pad: 1
    kernel_size: 3
  }
}
layer {
  name: "relu2_2"
  type: "ReLU"
  bottom: "conv2_2"
  top: "conv2_2"
}
layer {
  name: "pool2"
  type: "Pooling"
  bottom: "conv2_2"
  top: "pool2"
  pooling_param {
    pool: MAX
    kernel_size: 2
    stride: 2
  }
}
layer {
  name: "conv3_1"
  type: "Convolution"
  bottom: "pool2"
  top: "conv3_1"
  param {
    lr_mult: 0.1
    decay_mult: 1
  }
  convolution_param {
    num_output: 256
    pad: 1
    kernel_size: 3
  }
}
layer {
  name: "relu3_1"
  type: "ReLU"
  bottom: "conv3_1"
  top: "conv3_1"
}
layer {
  name: "conv3_2"
  type: "Convolution"
  bottom: "conv3_1"
  top: "conv3_2"
  param {
    lr_mult: 0.1
  }
  convolution_param {
    num_output: 256
    pad: 1
    kernel_size: 3
  }
}
layer {
  name: "relu3_2"
  type: "ReLU"
  bottom: "conv3_2"
  top: "conv3_2"
}
layer {
  name: "conv3_3"
  type: "Convolution"
  bottom: "conv3_2"
  top: "conv3_3"
  param {
    lr_mult: 0.1
  }
  convolution_param {
    num_output: 256
    pad: 1
    kernel_size: 3
  }
}
layer {
  name: "relu3_3"
  type: "ReLU"
  bottom: "conv3_3"
  top: "conv3_3"
}
layer {
  name: "pool3"
  type: "Pooling"
  bottom: "conv3_3"
  top: "pool3"
  pooling_param {
    pool: MAX
    kernel_size: 2
    stride: 2
  }
}
layer {
  name: "conv4_1"
  type: "Convolution"
  bottom: "pool3"
  top: "conv4_1"
  param {
    lr_mult: 0.1
  }
  convolution_param {
    num_output: 512
    pad: 1
    kernel_size: 3
  }
}
layer {
  name: "relu4_1"
  type: "ReLU"
  bottom: "conv4_1"
  top: "conv4_1"
}
layer {
  name: "conv4_2"
  type: "Convolution"
  bottom: "conv4_1"
  top: "conv4_2"
  param {
    lr_mult: 0.1
  }
  convolution_param {
    num_output: 512
    pad: 1
    kernel_size: 3
  }
}
layer {
  name: "relu4_2"
  type: "ReLU"
  bottom: "conv4_2"
  top: "conv4_2"
}
layer {
  name: "conv4_3"
  type: "Convolution"
  bottom: "conv4_2"
  top: "conv4_3"
  param {
    lr_mult: 0.1
  }
  convolution_param {
    num_output: 512
    pad: 1
    kernel_size: 3
  }
}
layer {
  name: "relu4_3"
  type: "ReLU"
  bottom: "conv4_3"
  top: "conv4_3"
}
layer {
  name: "pool4"
  type: "Pooling"
  bottom: "conv4_3"
  top: "pool4"
  pooling_param {
    pool: MAX
    kernel_size: 2
    stride: 2
  }
}
layer {
  name: "conv5_1"
  type: "Convolution"
  bottom: "pool4"
  top: "conv5_1"
  param {
    lr_mult: 0.1
  }
  convolution_param {
    num_output: 512
    pad: 1
    kernel_size: 3
  }
}
layer {
  name: "relu5_1"
  type: "ReLU"
  bottom: "conv5_1"
  top: "conv5_1"
}
layer {
  name: "conv5_2"
  type: "Convolution"
  bottom: "conv5_1"
  top: "conv5_2"
  param {
    lr_mult: 0.1
  }
  convolution_param {
    num_output: 512
    pad: 1
    kernel_size: 3
  }
}
layer {
  name: "relu5_2"
  type: "ReLU"
  bottom: "conv5_2"
  top: "conv5_2"
}
layer {
  name: "conv5_3"
  type: "Convolution"
  bottom: "conv5_2"
  top: "conv5_3"
  param {
    lr_mult: 0.1
  }
  convolution_param {
    num_output: 512
    pad: 1
    kernel_size: 3
  }
}
layer {
  name: "relu5_3"
  type: "ReLU"
  bottom: "conv5_3"
  top: "conv5_3"
}
layer {
  name: "pool5"
  type: "Pooling"
  bottom: "conv5_3"
  top: "pool5"
  pooling_param {
    pool: MAX
    kernel_size: 2
    stride: 2
  }
}
layer {
  name: "fc_6"
  type: "InnerProduct"
  bottom: "pool5"
  top: "fc_6"
  param {
    lr_mult: 1
    decay_mult: 1
  }
  param {
    lr_mult: 2
    decay_mult: 2
  }
  inner_product_param {
    num_output: 256
    weight_filler {
      type: "xavier"
    }
  }
}
layer {
  name: "relu_fc6"
  type: "ReLU"
  bottom: "fc_6"
  top: "fc_6"
}
layer {
  name: "fc_7"
  type: "InnerProduct"
  bottom: "fc_6"
  top: "fc_7"
  param {
    lr_mult: 1
    decay_mult: 1
  }
  param {
    lr_mult: 2
    decay_mult: 1
  }
  inner_product_param {
    num_output: 135
    weight_filler {
      type: "xavier"
      std: 0.5
    }
    bias_filler {
      type: "constant"
      value: 0.1
    }
  }
}
layer {
  name: "accuracy_top1-Treino"
  type: "Accuracy"
  bottom: "fc_7"
  bottom: "label"
  top: "accuracy_top1"
  include {
    phase: TRAIN
  }
  accuracy_param {
    top_k: 1
  }
}
layer {
  name: "loss-treino"
  type: "SoftmaxWithLoss"
  bottom: "fc_7"
  bottom: "label"
  top: "loss-treino"
  include {
    phase: TRAIN
  }
}
I0625 13:54:59.862284  6288 layer_factory.hpp:77] Creating layer data
I0625 13:54:59.862435  6288 net.cpp:91] Creating Layer data
I0625 13:54:59.862475  6288 net.cpp:399] data -> data
I0625 13:54:59.862565  6288 net.cpp:399] data -> label
I0625 13:54:59.862694  6288 image_data_layer.cpp:38] Opening file treino-base-total.txt
I0625 13:54:59.866504  6288 image_data_layer.cpp:53] A total of 3195 images.
I0625 13:54:59.895936  6288 image_data_layer.cpp:80] output data size: 7,3,224,224
I0625 13:54:59.911077  6288 net.cpp:141] Setting up data
I0625 13:54:59.911276  6288 net.cpp:148] Top shape: 7 3 224 224 (1053696)
I0625 13:54:59.911331  6288 net.cpp:148] Top shape: 7 (7)
I0625 13:54:59.911360  6288 net.cpp:156] Memory required for data: 4214812
I0625 13:54:59.911411  6288 layer_factory.hpp:77] Creating layer label_data_1_split
I0625 13:54:59.911453  6288 net.cpp:91] Creating Layer label_data_1_split
I0625 13:54:59.911474  6288 net.cpp:425] label_data_1_split <- label
I0625 13:54:59.911515  6288 net.cpp:399] label_data_1_split -> label_data_1_split_0
I0625 13:54:59.911556  6288 net.cpp:399] label_data_1_split -> label_data_1_split_1
I0625 13:54:59.911654  6288 net.cpp:141] Setting up label_data_1_split
I0625 13:54:59.911696  6288 net.cpp:148] Top shape: 7 (7)
I0625 13:54:59.911713  6288 net.cpp:148] Top shape: 7 (7)
I0625 13:54:59.911731  6288 net.cpp:156] Memory required for data: 4214868
I0625 13:54:59.911746  6288 layer_factory.hpp:77] Creating layer conv1_1
I0625 13:54:59.911780  6288 net.cpp:91] Creating Layer conv1_1
I0625 13:54:59.911893  6288 net.cpp:425] conv1_1 <- data
I0625 13:54:59.911914  6288 net.cpp:399] conv1_1 -> conv1_1
I0625 13:54:59.914250  6288 net.cpp:141] Setting up conv1_1
I0625 13:54:59.914343  6288 net.cpp:148] Top shape: 7 64 224 224 (22478848)
I0625 13:54:59.914360  6288 net.cpp:156] Memory required for data: 94130260
I0625 13:54:59.914405  6288 layer_factory.hpp:77] Creating layer relu1_1
I0625 13:54:59.914445  6288 net.cpp:91] Creating Layer relu1_1
I0625 13:54:59.914471  6288 net.cpp:425] relu1_1 <- conv1_1
I0625 13:54:59.914497  6288 net.cpp:386] relu1_1 -> conv1_1 (in-place)
I0625 13:54:59.914522  6288 net.cpp:141] Setting up relu1_1
I0625 13:54:59.914541  6288 net.cpp:148] Top shape: 7 64 224 224 (22478848)
I0625 13:54:59.914567  6288 net.cpp:156] Memory required for data: 184045652
I0625 13:54:59.914589  6288 layer_factory.hpp:77] Creating layer conv1_2
I0625 13:54:59.914613  6288 net.cpp:91] Creating Layer conv1_2
I0625 13:54:59.914628  6288 net.cpp:425] conv1_2 <- conv1_1
I0625 13:54:59.914649  6288 net.cpp:399] conv1_2 -> conv1_2
I0625 13:54:59.915086  6288 net.cpp:141] Setting up conv1_2
I0625 13:54:59.915171  6288 net.cpp:148] Top shape: 7 64 224 224 (22478848)
I0625 13:54:59.915189  6288 net.cpp:156] Memory required for data: 273961044
I0625 13:54:59.915212  6288 layer_factory.hpp:77] Creating layer relu1_2
I0625 13:54:59.915232  6288 net.cpp:91] Creating Layer relu1_2
I0625 13:54:59.915249  6288 net.cpp:425] relu1_2 <- conv1_2
I0625 13:54:59.915267  6288 net.cpp:386] relu1_2 -> conv1_2 (in-place)
I0625 13:54:59.915289  6288 net.cpp:141] Setting up relu1_2
I0625 13:54:59.915307  6288 net.cpp:148] Top shape: 7 64 224 224 (22478848)
I0625 13:54:59.915323  6288 net.cpp:156] Memory required for data: 363876436
I0625 13:54:59.915338  6288 layer_factory.hpp:77] Creating layer pool1
I0625 13:54:59.915362  6288 net.cpp:91] Creating Layer pool1
I0625 13:54:59.915380  6288 net.cpp:425] pool1 <- conv1_2
I0625 13:54:59.915400  6288 net.cpp:399] pool1 -> pool1
I0625 13:54:59.915495  6288 net.cpp:141] Setting up pool1
I0625 13:54:59.915573  6288 net.cpp:148] Top shape: 7 64 112 112 (5619712)
I0625 13:54:59.915587  6288 net.cpp:156] Memory required for data: 386355284
I0625 13:54:59.915604  6288 layer_factory.hpp:77] Creating layer conv2_1
I0625 13:54:59.915627  6288 net.cpp:91] Creating Layer conv2_1
I0625 13:54:59.915644  6288 net.cpp:425] conv2_1 <- pool1
I0625 13:54:59.915664  6288 net.cpp:399] conv2_1 -> conv2_1
I0625 13:54:59.917681  6288 net.cpp:141] Setting up conv2_1
I0625 13:54:59.917767  6288 net.cpp:148] Top shape: 7 128 112 112 (11239424)
I0625 13:54:59.917798  6288 net.cpp:156] Memory required for data: 431312980
I0625 13:54:59.917822  6288 layer_factory.hpp:77] Creating layer relu2_1
I0625 13:54:59.917845  6288 net.cpp:91] Creating Layer relu2_1
I0625 13:54:59.917870  6288 net.cpp:425] relu2_1 <- conv2_1
I0625 13:54:59.917889  6288 net.cpp:386] relu2_1 -> conv2_1 (in-place)
I0625 13:54:59.917917  6288 net.cpp:141] Setting up relu2_1
I0625 13:54:59.917940  6288 net.cpp:148] Top shape: 7 128 112 112 (11239424)
I0625 13:54:59.917960  6288 net.cpp:156] Memory required for data: 476270676
I0625 13:54:59.917974  6288 layer_factory.hpp:77] Creating layer conv2_2
I0625 13:54:59.918000  6288 net.cpp:91] Creating Layer conv2_2
I0625 13:54:59.918017  6288 net.cpp:425] conv2_2 <- conv2_1
I0625 13:54:59.918038  6288 net.cpp:399] conv2_2 -> conv2_2
I0625 13:54:59.918593  6288 net.cpp:141] Setting up conv2_2
I0625 13:54:59.918655  6288 net.cpp:148] Top shape: 7 128 112 112 (11239424)
I0625 13:54:59.918669  6288 net.cpp:156] Memory required for data: 521228372
I0625 13:54:59.918689  6288 layer_factory.hpp:77] Creating layer relu2_2
I0625 13:54:59.918709  6288 net.cpp:91] Creating Layer relu2_2
I0625 13:54:59.918723  6288 net.cpp:425] relu2_2 <- conv2_2
I0625 13:54:59.918745  6288 net.cpp:386] relu2_2 -> conv2_2 (in-place)
I0625 13:54:59.918768  6288 net.cpp:141] Setting up relu2_2
I0625 13:54:59.918787  6288 net.cpp:148] Top shape: 7 128 112 112 (11239424)
I0625 13:54:59.918802  6288 net.cpp:156] Memory required for data: 566186068
I0625 13:54:59.918841  6288 layer_factory.hpp:77] Creating layer pool2
I0625 13:54:59.918861  6288 net.cpp:91] Creating Layer pool2
I0625 13:54:59.918876  6288 net.cpp:425] pool2 <- conv2_2
I0625 13:54:59.918897  6288 net.cpp:399] pool2 -> pool2
I0625 13:54:59.918969  6288 net.cpp:141] Setting up pool2
I0625 13:54:59.919029  6288 net.cpp:148] Top shape: 7 128 56 56 (2809856)
I0625 13:54:59.919046  6288 net.cpp:156] Memory required for data: 577425492
I0625 13:54:59.919061  6288 layer_factory.hpp:77] Creating layer conv3_1
I0625 13:54:59.919088  6288 net.cpp:91] Creating Layer conv3_1
I0625 13:54:59.919106  6288 net.cpp:425] conv3_1 <- pool2
I0625 13:54:59.919127  6288 net.cpp:399] conv3_1 -> conv3_1
I0625 13:54:59.920702  6288 net.cpp:141] Setting up conv3_1
I0625 13:54:59.920768  6288 net.cpp:148] Top shape: 7 256 56 56 (5619712)
I0625 13:54:59.920783  6288 net.cpp:156] Memory required for data: 599904340
I0625 13:54:59.920806  6288 layer_factory.hpp:77] Creating layer relu3_1
I0625 13:54:59.920841  6288 net.cpp:91] Creating Layer relu3_1
I0625 13:54:59.920864  6288 net.cpp:425] relu3_1 <- conv3_1
I0625 13:54:59.920882  6288 net.cpp:386] relu3_1 -> conv3_1 (in-place)
I0625 13:54:59.920908  6288 net.cpp:141] Setting up relu3_1
I0625 13:54:59.920931  6288 net.cpp:148] Top shape: 7 256 56 56 (5619712)
I0625 13:54:59.920951  6288 net.cpp:156] Memory required for data: 622383188
I0625 13:54:59.920972  6288 layer_factory.hpp:77] Creating layer conv3_2
I0625 13:54:59.920996  6288 net.cpp:91] Creating Layer conv3_2
I0625 13:54:59.921015  6288 net.cpp:425] conv3_2 <- conv3_1
I0625 13:54:59.921035  6288 net.cpp:399] conv3_2 -> conv3_2
I0625 13:54:59.924005  6288 net.cpp:141] Setting up conv3_2
I0625 13:54:59.924078  6288 net.cpp:148] Top shape: 7 256 56 56 (5619712)
I0625 13:54:59.924094  6288 net.cpp:156] Memory required for data: 644862036
I0625 13:54:59.924132  6288 layer_factory.hpp:77] Creating layer relu3_2
I0625 13:54:59.924154  6288 net.cpp:91] Creating Layer relu3_2
I0625 13:54:59.924175  6288 net.cpp:425] relu3_2 <- conv3_2
I0625 13:54:59.924196  6288 net.cpp:386] relu3_2 -> conv3_2 (in-place)
I0625 13:54:59.924226  6288 net.cpp:141] Setting up relu3_2
I0625 13:54:59.924248  6288 net.cpp:148] Top shape: 7 256 56 56 (5619712)
I0625 13:54:59.924268  6288 net.cpp:156] Memory required for data: 667340884
I0625 13:54:59.924283  6288 layer_factory.hpp:77] Creating layer conv3_3
I0625 13:54:59.924320  6288 net.cpp:91] Creating Layer conv3_3
I0625 13:54:59.924338  6288 net.cpp:425] conv3_3 <- conv3_2
I0625 13:54:59.924357  6288 net.cpp:399] conv3_3 -> conv3_3
I0625 13:54:59.927340  6288 net.cpp:141] Setting up conv3_3
I0625 13:54:59.927413  6288 net.cpp:148] Top shape: 7 256 56 56 (5619712)
I0625 13:54:59.927450  6288 net.cpp:156] Memory required for data: 689819732
I0625 13:54:59.927471  6288 layer_factory.hpp:77] Creating layer relu3_3
I0625 13:54:59.927495  6288 net.cpp:91] Creating Layer relu3_3
I0625 13:54:59.927521  6288 net.cpp:425] relu3_3 <- conv3_3
I0625 13:54:59.927542  6288 net.cpp:386] relu3_3 -> conv3_3 (in-place)
I0625 13:54:59.927572  6288 net.cpp:141] Setting up relu3_3
I0625 13:54:59.927597  6288 net.cpp:148] Top shape: 7 256 56 56 (5619712)
I0625 13:54:59.927614  6288 net.cpp:156] Memory required for data: 712298580
I0625 13:54:59.927629  6288 layer_factory.hpp:77] Creating layer pool3
I0625 13:54:59.927656  6288 net.cpp:91] Creating Layer pool3
I0625 13:54:59.927672  6288 net.cpp:425] pool3 <- conv3_3
I0625 13:54:59.927695  6288 net.cpp:399] pool3 -> pool3
I0625 13:54:59.927774  6288 net.cpp:141] Setting up pool3
I0625 13:54:59.927799  6288 net.cpp:148] Top shape: 7 256 28 28 (1404928)
I0625 13:54:59.927814  6288 net.cpp:156] Memory required for data: 717918292
I0625 13:54:59.927829  6288 layer_factory.hpp:77] Creating layer conv4_1
I0625 13:54:59.927856  6288 net.cpp:91] Creating Layer conv4_1
I0625 13:54:59.927875  6288 net.cpp:425] conv4_1 <- pool3
I0625 13:54:59.927896  6288 net.cpp:399] conv4_1 -> conv4_1
I0625 13:54:59.934775  6288 net.cpp:141] Setting up conv4_1
I0625 13:54:59.934906  6288 net.cpp:148] Top shape: 7 512 28 28 (2809856)
I0625 13:54:59.934923  6288 net.cpp:156] Memory required for data: 729157716
I0625 13:54:59.934948  6288 layer_factory.hpp:77] Creating layer relu4_1
I0625 13:54:59.934974  6288 net.cpp:91] Creating Layer relu4_1
I0625 13:54:59.935008  6288 net.cpp:425] relu4_1 <- conv4_1
I0625 13:54:59.935029  6288 net.cpp:386] relu4_1 -> conv4_1 (in-place)
I0625 13:54:59.935062  6288 net.cpp:141] Setting up relu4_1
I0625 13:54:59.935084  6288 net.cpp:148] Top shape: 7 512 28 28 (2809856)
I0625 13:54:59.935106  6288 net.cpp:156] Memory required for data: 740397140
I0625 13:54:59.935120  6288 layer_factory.hpp:77] Creating layer conv4_2
I0625 13:54:59.935154  6288 net.cpp:91] Creating Layer conv4_2
I0625 13:54:59.935176  6288 net.cpp:425] conv4_2 <- conv4_1
I0625 13:54:59.935200  6288 net.cpp:399] conv4_2 -> conv4_2
I0625 13:54:59.945564  6288 net.cpp:141] Setting up conv4_2
I0625 13:54:59.945685  6288 net.cpp:148] Top shape: 7 512 28 28 (2809856)
I0625 13:54:59.945701  6288 net.cpp:156] Memory required for data: 751636564
I0625 13:54:59.945762  6288 layer_factory.hpp:77] Creating layer relu4_2
I0625 13:54:59.945798  6288 net.cpp:91] Creating Layer relu4_2
I0625 13:54:59.945816  6288 net.cpp:425] relu4_2 <- conv4_2
I0625 13:54:59.945837  6288 net.cpp:386] relu4_2 -> conv4_2 (in-place)
I0625 13:54:59.945871  6288 net.cpp:141] Setting up relu4_2
I0625 13:54:59.945894  6288 net.cpp:148] Top shape: 7 512 28 28 (2809856)
I0625 13:54:59.945914  6288 net.cpp:156] Memory required for data: 762875988
I0625 13:54:59.945927  6288 layer_factory.hpp:77] Creating layer conv4_3
I0625 13:54:59.945955  6288 net.cpp:91] Creating Layer conv4_3
I0625 13:54:59.945972  6288 net.cpp:425] conv4_3 <- conv4_2
I0625 13:54:59.945996  6288 net.cpp:399] conv4_3 -> conv4_3
I0625 13:54:59.956220  6288 net.cpp:141] Setting up conv4_3
I0625 13:54:59.956341  6288 net.cpp:148] Top shape: 7 512 28 28 (2809856)
I0625 13:54:59.956382  6288 net.cpp:156] Memory required for data: 774115412
I0625 13:54:59.956406  6288 layer_factory.hpp:77] Creating layer relu4_3
I0625 13:54:59.956432  6288 net.cpp:91] Creating Layer relu4_3
I0625 13:54:59.956454  6288 net.cpp:425] relu4_3 <- conv4_3
I0625 13:54:59.956482  6288 net.cpp:386] relu4_3 -> conv4_3 (in-place)
I0625 13:54:59.956514  6288 net.cpp:141] Setting up relu4_3
I0625 13:54:59.956537  6288 net.cpp:148] Top shape: 7 512 28 28 (2809856)
I0625 13:54:59.956558  6288 net.cpp:156] Memory required for data: 785354836
I0625 13:54:59.956579  6288 layer_factory.hpp:77] Creating layer pool4
I0625 13:54:59.956600  6288 net.cpp:91] Creating Layer pool4
I0625 13:54:59.956615  6288 net.cpp:425] pool4 <- conv4_3
I0625 13:54:59.956639  6288 net.cpp:399] pool4 -> pool4
I0625 13:54:59.956717  6288 net.cpp:141] Setting up pool4
I0625 13:54:59.956795  6288 net.cpp:148] Top shape: 7 512 14 14 (702464)
I0625 13:54:59.956809  6288 net.cpp:156] Memory required for data: 788164692
I0625 13:54:59.956825  6288 layer_factory.hpp:77] Creating layer conv5_1
I0625 13:54:59.956854  6288 net.cpp:91] Creating Layer conv5_1
I0625 13:54:59.956871  6288 net.cpp:425] conv5_1 <- pool4
I0625 13:54:59.956894  6288 net.cpp:399] conv5_1 -> conv5_1
I0625 13:54:59.967154  6288 net.cpp:141] Setting up conv5_1
I0625 13:54:59.967249  6288 net.cpp:148] Top shape: 7 512 14 14 (702464)
I0625 13:54:59.967283  6288 net.cpp:156] Memory required for data: 790974548
I0625 13:54:59.967310  6288 layer_factory.hpp:77] Creating layer relu5_1
I0625 13:54:59.967339  6288 net.cpp:91] Creating Layer relu5_1
I0625 13:54:59.967356  6288 net.cpp:425] relu5_1 <- conv5_1
I0625 13:54:59.967384  6288 net.cpp:386] relu5_1 -> conv5_1 (in-place)
I0625 13:54:59.967413  6288 net.cpp:141] Setting up relu5_1
I0625 13:54:59.967437  6288 net.cpp:148] Top shape: 7 512 14 14 (702464)
I0625 13:54:59.967454  6288 net.cpp:156] Memory required for data: 793784404
I0625 13:54:59.967469  6288 layer_factory.hpp:77] Creating layer conv5_2
I0625 13:54:59.967497  6288 net.cpp:91] Creating Layer conv5_2
I0625 13:54:59.967514  6288 net.cpp:425] conv5_2 <- conv5_1
I0625 13:54:59.967622  6288 net.cpp:399] conv5_2 -> conv5_2
I0625 13:54:59.977967  6288 net.cpp:141] Setting up conv5_2
I0625 13:54:59.978088  6288 net.cpp:148] Top shape: 7 512 14 14 (702464)
I0625 13:54:59.978132  6288 net.cpp:156] Memory required for data: 796594260
I0625 13:54:59.978154  6288 layer_factory.hpp:77] Creating layer relu5_2
I0625 13:54:59.978186  6288 net.cpp:91] Creating Layer relu5_2
I0625 13:54:59.978204  6288 net.cpp:425] relu5_2 <- conv5_2
I0625 13:54:59.978226  6288 net.cpp:386] relu5_2 -> conv5_2 (in-place)
I0625 13:54:59.978267  6288 net.cpp:141] Setting up relu5_2
I0625 13:54:59.978292  6288 net.cpp:148] Top shape: 7 512 14 14 (702464)
I0625 13:54:59.978307  6288 net.cpp:156] Memory required for data: 799404116
I0625 13:54:59.978328  6288 layer_factory.hpp:77] Creating layer conv5_3
I0625 13:54:59.978358  6288 net.cpp:91] Creating Layer conv5_3
I0625 13:54:59.978377  6288 net.cpp:425] conv5_3 <- conv5_2
I0625 13:54:59.978402  6288 net.cpp:399] conv5_3 -> conv5_3
I0625 13:54:59.988796  6288 net.cpp:141] Setting up conv5_3
I0625 13:54:59.988920  6288 net.cpp:148] Top shape: 7 512 14 14 (702464)
I0625 13:54:59.988936  6288 net.cpp:156] Memory required for data: 802213972
I0625 13:54:59.988961  6288 layer_factory.hpp:77] Creating layer relu5_3
I0625 13:54:59.988986  6288 net.cpp:91] Creating Layer relu5_3
I0625 13:54:59.989003  6288 net.cpp:425] relu5_3 <- conv5_3
I0625 13:54:59.989029  6288 net.cpp:386] relu5_3 -> conv5_3 (in-place)
I0625 13:54:59.989171  6288 net.cpp:141] Setting up relu5_3
I0625 13:54:59.989190  6288 net.cpp:148] Top shape: 7 512 14 14 (702464)
I0625 13:54:59.989204  6288 net.cpp:156] Memory required for data: 805023828
I0625 13:54:59.989219  6288 layer_factory.hpp:77] Creating layer pool5
I0625 13:54:59.989260  6288 net.cpp:91] Creating Layer pool5
I0625 13:54:59.989281  6288 net.cpp:425] pool5 <- conv5_3
I0625 13:54:59.989305  6288 net.cpp:399] pool5 -> pool5
I0625 13:54:59.989397  6288 net.cpp:141] Setting up pool5
I0625 13:54:59.989487  6288 net.cpp:148] Top shape: 7 512 7 7 (175616)
I0625 13:54:59.989502  6288 net.cpp:156] Memory required for data: 805726292
I0625 13:54:59.989518  6288 layer_factory.hpp:77] Creating layer fc_6
I0625 13:54:59.989552  6288 net.cpp:91] Creating Layer fc_6
I0625 13:54:59.989568  6288 net.cpp:425] fc_6 <- pool5
I0625 13:54:59.989590  6288 net.cpp:399] fc_6 -> fc_6
I0625 13:55:00.076546  6288 net.cpp:141] Setting up fc_6
I0625 13:55:00.076668  6288 net.cpp:148] Top shape: 7 256 (1792)
I0625 13:55:00.076709  6288 net.cpp:156] Memory required for data: 805733460
I0625 13:55:00.076735  6288 layer_factory.hpp:77] Creating layer relu_fc6
I0625 13:55:00.076771  6288 net.cpp:91] Creating Layer relu_fc6
I0625 13:55:00.076787  6288 net.cpp:425] relu_fc6 <- fc_6
I0625 13:55:00.076814  6288 net.cpp:386] relu_fc6 -> fc_6 (in-place)
I0625 13:55:00.076850  6288 net.cpp:141] Setting up relu_fc6
I0625 13:55:00.076869  6288 net.cpp:148] Top shape: 7 256 (1792)
I0625 13:55:00.076889  6288 net.cpp:156] Memory required for data: 805740628
I0625 13:55:00.076910  6288 layer_factory.hpp:77] Creating layer fc_7
I0625 13:55:00.076933  6288 net.cpp:91] Creating Layer fc_7
I0625 13:55:00.076951  6288 net.cpp:425] fc_7 <- fc_6
I0625 13:55:00.076975  6288 net.cpp:399] fc_7 -> fc_7
I0625 13:55:00.077620  6288 net.cpp:141] Setting up fc_7
I0625 13:55:00.077699  6288 net.cpp:148] Top shape: 7 135 (945)
I0625 13:55:00.077718  6288 net.cpp:156] Memory required for data: 805744408
I0625 13:55:00.077738  6288 layer_factory.hpp:77] Creating layer fc_7_fc_7_0_split
I0625 13:55:00.077756  6288 net.cpp:91] Creating Layer fc_7_fc_7_0_split
I0625 13:55:00.077771  6288 net.cpp:425] fc_7_fc_7_0_split <- fc_7
I0625 13:55:00.077800  6288 net.cpp:399] fc_7_fc_7_0_split -> fc_7_fc_7_0_split_0
I0625 13:55:00.077823  6288 net.cpp:399] fc_7_fc_7_0_split -> fc_7_fc_7_0_split_1
I0625 13:55:00.077898  6288 net.cpp:141] Setting up fc_7_fc_7_0_split
I0625 13:55:00.077973  6288 net.cpp:148] Top shape: 7 135 (945)
I0625 13:55:00.077991  6288 net.cpp:148] Top shape: 7 135 (945)
I0625 13:55:00.078068  6288 net.cpp:156] Memory required for data: 805751968
I0625 13:55:00.078085  6288 layer_factory.hpp:77] Creating layer accuracy_top1-Treino
I0625 13:55:00.078114  6288 net.cpp:91] Creating Layer accuracy_top1-Treino
I0625 13:55:00.078131  6288 net.cpp:425] accuracy_top1-Treino <- fc_7_fc_7_0_split_0
I0625 13:55:00.078148  6288 net.cpp:425] accuracy_top1-Treino <- label_data_1_split_0
…
I0625 13:55:00.080607  6288 net.cpp:313] The NetState phase (1) differed from the phase (0) specified by a rule in layer accuracy_top1-Treino
I0625 13:55:00.080627  6288 net.cpp:313] The NetState phase (1) differed from the phase (0) specified by a rule in layer loss-treino
I0625 13:55:00.080904  6288 net.cpp:49] Initializing net from parameters: 
name: "arface-vgg"
state {
  phase: TEST
}
layer {
  name: "data"
  type: "ImageData"
  top: "data"
  top: "label"
  include {
    phase: TEST
  }
  image_data_param {
    source: "teste.txt"
    batch_size: 3
    new_height: 224
    new_width: 224
  }
}
layer {
  name: "conv1_1"
  type: "Convolution"
  bottom: "data"
  top: "conv1_1"
  param {
    lr_mult: 0.1
  }
  convolution_param {
    num_output: 64
    pad: 1
    kernel_size: 3
  }
}
layer {
  name: "relu1_1"
  type: "ReLU"
  bottom: "conv1_1"
  top: "conv1_1"
}
layer {
  name: "conv1_2"
  type: "Convolution"
  bottom: "conv1_1"
  top: "conv1_2"
  param {
    lr_mult: 0.1
  }
  convolution_param {
    num_output: 64
    pad: 1
    kernel_size: 3
  }
}
layer {
  name: "relu1_2"
  type: "ReLU"
  bottom: "conv1_2"
  top: "conv1_2"
}
layer {
  name: "pool1"
  type: "Pooling"
  bottom: "conv1_2"
  top: "pool1"
  pooling_param {
    pool: MAX
    kernel_size: 2
    stride: 2
  }
}
layer {
  name: "conv2_1"
  type: "Convolution"
  bottom: "pool1"
  top: "conv2_1"
  param {
    lr_mult: 0.1
  }
  convolution_param {
    num_output: 128
    pad: 1
    kernel_size: 3
  }
}
layer {
  name: "relu2_1"
  type: "ReLU"
  bottom: "conv2_1"
  top: "conv2_1"
}
layer {
  name: "conv2_2"
  type: "Convolution"
  bottom: "conv2_1"
  top: "conv2_2"
  param {
    lr_mult: 0.1
  }
  convolution_param {
    num_output: 128
    pad: 1
    kernel_size: 3
  }
}
layer {
  name: "relu2_2"
  type: "ReLU"
  bottom: "conv2_2"
  top: "conv2_2"
}
layer {
  name: "pool2"
  type: "Pooling"
  bottom: "conv2_2"
  top: "pool2"
  pooling_param {
    pool: MAX
    kernel_size: 2
    stride: 2
  }
}
layer {
  name: "conv3_1"
  type: "Convolution"
  bottom: "pool2"
  top: "conv3_1"
  param {
    lr_mult: 0.1
    decay_mult: 1
  }
  convolution_param {
    num_output: 256
    pad: 1
    kernel_size: 3
  }
}
layer {
  name: "relu3_1"
  type: "ReLU"
  bottom: "conv3_1"
  top: "conv3_1"
}
layer {
  name: "conv3_2"
  type: "Convolution"
  bottom: "conv3_1"
  top: "conv3_2"
  param {
    lr_mult: 0.1
  }
  convolution_param {
    num_output: 256
    pad: 1
    kernel_size: 3
  }
}
layer {
  name: "relu3_2"
  type: "ReLU"
  bottom: "conv3_2"
  top: "conv3_2"
}
layer {
  name: "conv3_3"
  type: "Convolution"
  bottom: "conv3_2"
  top: "conv3_3"
  param {
    lr_mult: 0.1
  }
  convolution_param {
    num_output: 256
    pad: 1
    kernel_size: 3
  }
}
layer {
  name: "relu3_3"
  type: "ReLU"
  bottom: "conv3_3"
  top: "conv3_3"
}
layer {
  name: "pool3"
  type: "Pooling"
  bottom: "conv3_3"
  top: "pool3"
  pooling_param {
    pool: MAX
    kernel_size: 2
    stride: 2
  }
}
layer {
  name: "conv4_1"
  type: "Convolution"
  bottom: "pool3"
  top: "conv4_1"
  param {
    lr_mult: 0.1
  }
  convolution_param {
    num_output: 512
    pad: 1
    kernel_size: 3
  }
}
layer {
  name: "relu4_1"
  type: "ReLU"
  bottom: "conv4_1"
  top: "conv4_1"
}
layer {
  name: "conv4_2"
  type: "Convolution"
  bottom: "conv4_1"
  top: "conv4_2"
  param {
    lr_mult: 0.1
  }
  convolution_param {
    num_output: 512
    pad: 1
    kernel_size: 3
  }
}
layer {
  name: "relu4_2"
  type: "ReLU"
  bottom: "conv4_2"
  top: "conv4_2"
}
layer {
  name: "conv4_3"
  type: "Convolution"
  bottom: "conv4_2"
  top: "conv4_3"
  param {
    lr_mult: 0.1
  }
  convolution_param {
    num_output: 512
    pad: 1
    kernel_size: 3
  }
}
layer {
  name: "relu4_3"
  type: "ReLU"
  bottom: "conv4_3"
  top: "conv4_3"
}
layer {
  name: "pool4"
  type: "Pooling"
  bottom: "conv4_3"
  top: "pool4"
  pooling_param {
    pool: MAX
    kernel_size: 2
    stride: 2
  }
}
layer {
  name: "conv5_1"
  type: "Convolution"
  bottom: "pool4"
  top: "conv5_1"
  param {
    lr_mult: 0.1
  }
  convolution_param {
    num_output: 512
    pad: 1
    kernel_size: 3
  }
}
layer {
  name: "relu5_1"
  type: "ReLU"
  bottom: "conv5_1"
  top: "conv5_1"
}
layer {
  name: "conv5_2"
  type: "Convolution"
  bottom: "conv5_1"
  top: "conv5_2"
  param {
    lr_mult: 0.1
  }
  convolution_param {
    num_output: 512
    pad: 1
    kernel_size: 3
  }
}
layer {
  name: "relu5_2"
  type: "ReLU"
  bottom: "conv5_2"
  top: "conv5_2"
}
layer {
  name: "conv5_3"
  type: "Convolution"
  bottom: "conv5_2"
  top: "conv5_3"
  param {
    lr_mult: 0.1
  }
  convolution_param {
    num_output: 512
    pad: 1
    kernel_size: 3
  }
}
layer {
  name: "relu5_3"
  type: "ReLU"
  bottom: "conv5_3"
  top: "conv5_3"
}
layer {
  name: "pool5"
  type: "Pooling"
  bottom: "conv5_3"
  top: "pool5"
  pooling_param {
    pool: MAX
    kernel_size: 2
    stride: 2
  }
}
layer {
  name: "fc_6"
  type: "InnerProduct"
  bottom: "pool5"
  top: "fc_6"
  param {
    lr_mult: 1
    decay_mult: 1
  }
  param {
    lr_mult: 2
    decay_mult: 2
  }
  inner_product_param {
    num_output: 256
    weight_filler {
      type: "xavier"
    }
  }
}
layer {
  name: "relu_fc6"
  type: "ReLU"
  bottom: "fc_6"
  top: "fc_6"
}
layer {
  name: "fc_7"
  type: "InnerProduct"
  bottom: "fc_6"
  top: "fc_7"
  param {
    lr_mult: 1
    decay_mult: 1
  }
  param {
    lr_mult: 2
    decay_mult: 1
  }
  inner_product_param {
    num_output: 135
    weight_filler {
      type: "xavier"
      std: 0.5
    }
    bias_filler {
      type: "constant"
      value: 0.1
    }
  }
}
layer {
  name: "accuracy_top1-teste"
  type: "Accuracy"
  bottom: "fc_7"
  bottom: "label"
  top: "accuracy_top1-teste"
  include {
    phase: TEST
  }
  accuracy_param {
    top_k: 1
  }
}
layer {
  name: "accuracy_top5-teste"
  type: "Accuracy"
  bottom: "fc_7"
  bottom: "label"
  top: "accuracy_top5-teste"
  include {
    phase: TEST
  }
  accuracy_param {
    top_k: 5
  }
}
layer {
  name: "loss"
  type: "SoftmaxWithLoss"
  bottom: "fc_7"
  bottom: "label"
  top: "loss"
  include {
    phase: TEST
  }
}
I0625 13:55:00.083753  6288 layer_factory.hpp:77] Creating layer data
I0625 13:55:00.083827  6288 net.cpp:91] Creating Layer data
I0625 13:55:00.083847  6288 net.cpp:399] data -> data
I0625 13:55:00.083871  6288 net.cpp:399] data -> label
I0625 13:55:00.083899  6288 image_data_layer.cpp:38] Opening file teste.txt
I0625 13:55:00.084022  6288 image_data_layer.cpp:53] A total of 119 images.
I0625 13:55:00.096807  6288 image_data_layer.cpp:80] output data size: 3,3,224,224
I0625 13:55:00.103472  6288 net.cpp:141] Setting up data
I0625 13:55:00.103597  6288 net.cpp:148] Top shape: 3 3 224 224 (451584)
I0625 13:55:00.103618  6288 net.cpp:148] Top shape: 3 (3)
I0625 13:55:00.103657  6288 net.cpp:156] Memory required for data: 1806348
I0625 13:55:00.103677  6288 layer_factory.hpp:77] Creating layer label_data_1_split
I0625 13:55:00.103706  6288 net.cpp:91] Creating Layer label_data_1_split
I0625 13:55:00.103729  6288 net.cpp:425] label_data_1_split <- label
I0625 13:55:00.103754  6288 net.cpp:399] label_data_1_split -> label_data_1_split_0
I0625 13:55:00.103787  6288 net.cpp:399] label_data_1_split -> label_data_1_split_1
I0625 13:55:00.103813  6288 net.cpp:399] label_data_1_split -> label_data_1_split_2
I0625 13:55:00.103988  6288 net.cpp:141] Setting up label_data_1_split
I0625 13:55:00.104074  6288 net.cpp:148] Top shape: 3 (3)
I0625 13:55:00.104090  6288 net.cpp:148] Top shape: 3 (3)
I0625 13:55:00.104110  6288 net.cpp:148] Top shape: 3 (3)
I0625 13:55:00.104123  6288 net.cpp:156] Memory required for data: 1806384
I0625 13:55:00.104140  6288 layer_factory.hpp:77] Creating layer conv1_1
I0625 13:55:00.104167  6288 net.cpp:91] Creating Layer conv1_1
I0625 13:55:00.104185  6288 net.cpp:425] conv1_1 <- data
I0625 13:55:00.104204  6288 net.cpp:399] conv1_1 -> conv1_1
I0625 13:55:00.104666  6288 net.cpp:141] Setting up conv1_1
I0625 13:55:00.104753  6288 net.cpp:148] Top shape: 3 64 224 224 (9633792)
I0625 13:55:00.104768  6288 net.cpp:156] Memory required for data: 40341552
I0625 13:55:00.104799  6288 layer_factory.hpp:77] Creating layer relu1_1
I0625 13:55:00.104826  6288 net.cpp:91] Creating Layer relu1_1
I0625 13:55:00.104846  6288 net.cpp:425] relu1_1 <- conv1_1
I0625 13:55:00.104866  6288 net.cpp:386] relu1_1 -> conv1_1 (in-place)
I0625 13:55:00.104893  6288 net.cpp:141] Setting up relu1_1
I0625 13:55:00.104914  6288 net.cpp:148] Top shape: 3 64 224 224 (9633792)
I0625 13:55:00.104929  6288 net.cpp:156] Memory required for data: 78876720
I0625 13:55:00.104948  6288 layer_factory.hpp:77] Creating layer conv1_2
I0625 13:55:00.104970  6288 net.cpp:91] Creating Layer conv1_2
I0625 13:55:00.104987  6288 net.cpp:425] conv1_2 <- conv1_1
I0625 13:55:00.105008  6288 net.cpp:399] conv1_2 -> conv1_2
I0625 13:55:00.106360  6288 net.cpp:141] Setting up conv1_2
I0625 13:55:00.106452  6288 net.cpp:148] Top shape: 3 64 224 224 (9633792)
I0625 13:55:00.106482  6288 net.cpp:156] Memory required for data: 117411888
I0625 13:55:00.106504  6288 layer_factory.hpp:77] Creating layer relu1_2
I0625 13:55:00.106525  6288 net.cpp:91] Creating Layer relu1_2
I0625 13:55:00.106549  6288 net.cpp:425] relu1_2 <- conv1_2
I0625 13:55:00.106567  6288 net.cpp:386] relu1_2 -> conv1_2 (in-place)
I0625 13:55:00.106595  6288 net.cpp:141] Setting up relu1_2
I0625 13:55:00.106618  6288 net.cpp:148] Top shape: 3 64 224 224 (9633792)
I0625 13:55:00.106639  6288 net.cpp:156] Memory required for data: 155947056
I0625 13:55:00.106654  6288 layer_factory.hpp:77] Creating layer pool1
I0625 13:55:00.106681  6288 net.cpp:91] Creating Layer pool1
I0625 13:55:00.106698  6288 net.cpp:425] pool1 <- conv1_2
I0625 13:55:00.106714  6288 net.cpp:399] pool1 -> pool1
I0625 13:55:00.106793  6288 net.cpp:141] Setting up pool1
I0625 13:55:00.106875  6288 net.cpp:148] Top shape: 3 64 112 112 (2408448)
I0625 13:55:00.106890  6288 net.cpp:156] Memory required for data: 165580848
I0625 13:55:00.106909  6288 layer_factory.hpp:77] Creating layer conv2_1
I0625 13:55:00.106930  6288 net.cpp:91] Creating Layer conv2_1
I0625 13:55:00.106946  6288 net.cpp:425] conv2_1 <- pool1
I0625 13:55:00.106966  6288 net.cpp:399] conv2_1 -> conv2_1
I0625 13:55:00.108207  6288 net.cpp:141] Setting up conv2_1
I0625 13:55:00.108294  6288 net.cpp:148] Top shape: 3 128 112 112 (4816896)
I0625 13:55:00.108321  6288 net.cpp:156] Memory required for data: 184848432
I0625 13:55:00.108351  6288 layer_factory.hpp:77] Creating layer relu2_1
I0625 13:55:00.108376  6288 net.cpp:91] Creating Layer relu2_1
I0625 13:55:00.108399  6288 net.cpp:425] relu2_1 <- conv2_1
I0625 13:55:00.108418  6288 net.cpp:386] relu2_1 -> conv2_1 (in-place)
I0625 13:55:00.108444  6288 net.cpp:141] Setting up relu2_1
I0625 13:55:00.108469  6288 net.cpp:148] Top shape: 3 128 112 112 (4816896)
I0625 13:55:00.108489  6288 net.cpp:156] Memory required for data: 204116016
I0625 13:55:00.108502  6288 layer_factory.hpp:77] Creating layer conv2_2
I0625 13:55:00.108522  6288 net.cpp:91] Creating Layer conv2_2
I0625 13:55:00.108539  6288 net.cpp:425] conv2_2 <- conv2_1
I0625 13:55:00.108558  6288 net.cpp:399] conv2_2 -> conv2_2
I0625 13:55:00.109197  6288 net.cpp:141] Setting up conv2_2
I0625 13:55:00.109282  6288 net.cpp:148] Top shape: 3 128 112 112 (4816896)
I0625 13:55:00.109302  6288 net.cpp:156] Memory required for data: 223383600
I0625 13:55:00.109321  6288 layer_factory.hpp:77] Creating layer relu2_2
I0625 13:55:00.109364  6288 net.cpp:91] Creating Layer relu2_2
I0625 13:55:00.109382  6288 net.cpp:425] relu2_2 <- conv2_2
I0625 13:55:00.109402  6288 net.cpp:386] relu2_2 -> conv2_2 (in-place)
I0625 13:55:00.109424  6288 net.cpp:141] Setting up relu2_2
I0625 13:55:00.109443  6288 net.cpp:148] Top shape: 3 128 112 112 (4816896)
I0625 13:55:00.109458  6288 net.cpp:156] Memory required for data: 242651184
I0625 13:55:00.109475  6288 layer_factory.hpp:77] Creating layer pool2
I0625 13:55:00.109493  6288 net.cpp:91] Creating Layer pool2
I0625 13:55:00.109509  6288 net.cpp:425] pool2 <- conv2_2
I0625 13:55:00.109527  6288 net.cpp:399] pool2 -> pool2
I0625 13:55:00.109602  6288 net.cpp:141] Setting up pool2
I0625 13:55:00.109693  6288 net.cpp:148] Top shape: 3 128 56 56 (1204224)
I0625 13:55:00.109707  6288 net.cpp:156] Memory required for data: 247468080
I0625 13:55:00.109727  6288 layer_factory.hpp:77] Creating layer conv3_1
I0625 13:55:00.109747  6288 net.cpp:91] Creating Layer conv3_1
I0625 13:55:00.109763  6288 net.cpp:425] conv3_1 <- pool2
I0625 13:55:00.109783  6288 net.cpp:399] conv3_1 -> conv3_1
I0625 13:55:00.111380  6288 net.cpp:141] Setting up conv3_1
I0625 13:55:00.111474  6288 net.cpp:148] Top shape: 3 256 56 56 (2408448)
I0625 13:55:00.111507  6288 net.cpp:156] Memory required for data: 257101872
I0625 13:55:00.111532  6288 layer_factory.hpp:77] Creating layer relu3_1
I0625 13:55:00.111553  6288 net.cpp:91] Creating Layer relu3_1
I0625 13:55:00.111578  6288 net.cpp:425] relu3_1 <- conv3_1
I0625 13:55:00.111598  6288 net.cpp:386] relu3_1 -> conv3_1 (in-place)
I0625 13:55:00.111624  6288 net.cpp:141] Setting up relu3_1
I0625 13:55:00.111647  6288 net.cpp:148] Top shape: 3 256 56 56 (2408448)
I0625 13:55:00.111666  6288 net.cpp:156] Memory required for data: 266735664
I0625 13:55:00.111681  6288 layer_factory.hpp:77] Creating layer conv3_2
I0625 13:55:00.111707  6288 net.cpp:91] Creating Layer conv3_2
I0625 13:55:00.111724  6288 net.cpp:425] conv3_2 <- conv3_1
I0625 13:55:00.111743  6288 net.cpp:399] conv3_2 -> conv3_2
I0625 13:55:00.114784  6288 net.cpp:141] Setting up conv3_2
I0625 13:55:00.114869  6288 net.cpp:148] Top shape: 3 256 56 56 (2408448)
I0625 13:55:00.114902  6288 net.cpp:156] Memory required for data: 276369456
I0625 13:55:00.114923  6288 layer_factory.hpp:77] Creating layer relu3_2
I0625 13:55:00.114946  6288 net.cpp:91] Creating Layer relu3_2
I0625 13:55:00.114971  6288 net.cpp:425] relu3_2 <- conv3_2
I0625 13:55:00.114991  6288 net.cpp:386] relu3_2 -> conv3_2 (in-place)
I0625 13:55:00.115020  6288 net.cpp:141] Setting up relu3_2
I0625 13:55:00.115043  6288 net.cpp:148] Top shape: 3 256 56 56 (2408448)
I0625 13:55:00.115062  6288 net.cpp:156] Memory required for data: 286003248
I0625 13:55:00.115077  6288 layer_factory.hpp:77] Creating layer conv3_3
I0625 13:55:00.115108  6288 net.cpp:91] Creating Layer conv3_3
I0625 13:55:00.115125  6288 net.cpp:425] conv3_3 <- conv3_2
I0625 13:55:00.115147  6288 net.cpp:399] conv3_3 -> conv3_3
I0625 13:55:00.118162  6288 net.cpp:141] Setting up conv3_3
I0625 13:55:00.118262  6288 net.cpp:148] Top shape: 3 256 56 56 (2408448)
I0625 13:55:00.118338  6288 net.cpp:156] Memory required for data: 295637040
I0625 13:55:00.118360  6288 layer_factory.hpp:77] Creating layer relu3_3
I0625 13:55:00.118391  6288 net.cpp:91] Creating Layer relu3_3
I0625 13:55:00.118445  6288 net.cpp:425] relu3_3 <- conv3_3
I0625 13:55:00.118526  6288 net.cpp:386] relu3_3 -> conv3_3 (in-place)
I0625 13:55:00.118549  6288 net.cpp:141] Setting up relu3_3
I0625 13:55:00.118569  6288 net.cpp:148] Top shape: 3 256 56 56 (2408448)
I0625 13:55:00.118583  6288 net.cpp:156] Memory required for data: 305270832
I0625 13:55:00.118598  6288 layer_factory.hpp:77] Creating layer pool3
I0625 13:55:00.118631  6288 net.cpp:91] Creating Layer pool3
I0625 13:55:00.118646  6288 net.cpp:425] pool3 <- conv3_3
I0625 13:55:00.118665  6288 net.cpp:399] pool3 -> pool3
I0625 13:55:00.118757  6288 net.cpp:141] Setting up pool3
I0625 13:55:00.118840  6288 net.cpp:148] Top shape: 3 256 28 28 (602112)
I0625 13:55:00.118893  6288 net.cpp:156] Memory required for data: 307679280
I0625 13:55:00.118913  6288 layer_factory.hpp:77] Creating layer conv4_1
I0625 13:55:00.118935  6288 net.cpp:91] Creating Layer conv4_1
I0625 13:55:00.118952  6288 net.cpp:425] conv4_1 <- pool3
I0625 13:55:00.118973  6288 net.cpp:399] conv4_1 -> conv4_1
I0625 13:55:00.124717  6288 net.cpp:141] Setting up conv4_1
I0625 13:55:00.124826  6288 net.cpp:148] Top shape: 3 512 28 28 (1204224)
I0625 13:55:00.124860  6288 net.cpp:156] Memory required for data: 312496176
I0625 13:55:00.124891  6288 layer_factory.hpp:77] Creating layer relu4_1
I0625 13:55:00.124914  6288 net.cpp:91] Creating Layer relu4_1
I0625 13:55:00.124932  6288 net.cpp:425] relu4_1 <- conv4_1
I0625 13:55:00.124953  6288 net.cpp:386] relu4_1 -> conv4_1 (in-place)
I0625 13:55:00.124984  6288 net.cpp:141] Setting up relu4_1
I0625 13:55:00.125007  6288 net.cpp:148] Top shape: 3 512 28 28 (1204224)
I0625 13:55:00.125030  6288 net.cpp:156] Memory required for data: 317313072
I0625 13:55:00.125049  6288 layer_factory.hpp:77] Creating layer conv4_2
I0625 13:55:00.125139  6288 net.cpp:91] Creating Layer conv4_2
I0625 13:55:00.125174  6288 net.cpp:425] conv4_2 <- conv4_1
I0625 13:55:00.125195  6288 net.cpp:399] conv4_2 -> conv4_2
I0625 13:55:00.135381  6288 net.cpp:141] Setting up conv4_2
I0625 13:55:00.135490  6288 net.cpp:148] Top shape: 3 512 28 28 (1204224)
I0625 13:55:00.135525  6288 net.cpp:156] Memory required for data: 322129968
I0625 13:55:00.135557  6288 layer_factory.hpp:77] Creating layer relu4_2
I0625 13:55:00.135582  6288 net.cpp:91] Creating Layer relu4_2
I0625 13:55:00.135606  6288 net.cpp:425] relu4_2 <- conv4_2
I0625 13:55:00.135625  6288 net.cpp:386] relu4_2 -> conv4_2 (in-place)
I0625 13:55:00.135648  6288 net.cpp:141] Setting up relu4_2
I0625 13:55:00.135666  6288 net.cpp:148] Top shape: 3 512 28 28 (1204224)
I0625 13:55:00.135686  6288 net.cpp:156] Memory required for data: 326946864
I0625 13:55:00.135700  6288 layer_factory.hpp:77] Creating layer conv4_3
I0625 13:55:00.135728  6288 net.cpp:91] Creating Layer conv4_3
I0625 13:55:00.135749  6288 net.cpp:425] conv4_3 <- conv4_2
I0625 13:55:00.135768  6288 net.cpp:399] conv4_3 -> conv4_3
I0625 13:55:00.146062  6288 net.cpp:141] Setting up conv4_3
I0625 13:55:00.146172  6288 net.cpp:148] Top shape: 3 512 28 28 (1204224)
I0625 13:55:00.146209  6288 net.cpp:156] Memory required for data: 331763760
I0625 13:55:00.146241  6288 layer_factory.hpp:77] Creating layer relu4_3
I0625 13:55:00.146267  6288 net.cpp:91] Creating Layer relu4_3
I0625 13:55:00.146283  6288 net.cpp:425] relu4_3 <- conv4_3
I0625 13:55:00.146306  6288 net.cpp:386] relu4_3 -> conv4_3 (in-place)
I0625 13:55:00.146332  6288 net.cpp:141] Setting up relu4_3
I0625 13:55:00.146358  6288 net.cpp:148] Top shape: 3 512 28 28 (1204224)
I0625 13:55:00.146379  6288 net.cpp:156] Memory required for data: 336580656
I0625 13:55:00.146394  6288 layer_factory.hpp:77] Creating layer pool4
I0625 13:55:00.146425  6288 net.cpp:91] Creating Layer pool4
I0625 13:55:00.146438  6288 net.cpp:425] pool4 <- conv4_3
I0625 13:55:00.146466  6288 net.cpp:399] pool4 -> pool4
I0625 13:55:00.146545  6288 net.cpp:141] Setting up pool4
I0625 13:55:00.146601  6288 net.cpp:148] Top shape: 3 512 14 14 (301056)
I0625 13:55:00.146616  6288 net.cpp:156] Memory required for data: 337784880
I0625 13:55:00.146631  6288 layer_factory.hpp:77] Creating layer conv5_1
I0625 13:55:00.146659  6288 net.cpp:91] Creating Layer conv5_1
I0625 13:55:00.146677  6288 net.cpp:425] conv5_1 <- pool4
I0625 13:55:00.146697  6288 net.cpp:399] conv5_1 -> conv5_1
I0625 13:55:00.157003  6288 net.cpp:141] Setting up conv5_1
I0625 13:55:00.157150  6288 net.cpp:148] Top shape: 3 512 14 14 (301056)
I0625 13:55:00.157166  6288 net.cpp:156] Memory required for data: 338989104
I0625 13:55:00.157191  6288 layer_factory.hpp:77] Creating layer relu5_1
I0625 13:55:00.157220  6288 net.cpp:91] Creating Layer relu5_1
I0625 13:55:00.157236  6288 net.cpp:425] relu5_1 <- conv5_1
I0625 13:55:00.157259  6288 net.cpp:386] relu5_1 -> conv5_1 (in-place)
I0625 13:55:00.157378  6288 net.cpp:141] Setting up relu5_1
I0625 13:55:00.157428  6288 net.cpp:148] Top shape: 3 512 14 14 (301056)
I0625 13:55:00.157441  6288 net.cpp:156] Memory required for data: 340193328
I0625 13:55:00.157464  6288 layer_factory.hpp:77] Creating layer conv5_2
I0625 13:55:00.157490  6288 net.cpp:91] Creating Layer conv5_2
I0625 13:55:00.157511  6288 net.cpp:425] conv5_2 <- conv5_1
I0625 13:55:00.157536  6288 net.cpp:399] conv5_2 -> conv5_2
I0625 13:55:00.167940  6288 net.cpp:141] Setting up conv5_2
I0625 13:55:00.168051  6288 net.cpp:148] Top shape: 3 512 14 14 (301056)
I0625 13:55:00.168087  6288 net.cpp:156] Memory required for data: 341397552
I0625 13:55:00.168108  6288 layer_factory.hpp:77] Creating layer relu5_2
I0625 13:55:00.168138  6288 net.cpp:91] Creating Layer relu5_2
I0625 13:55:00.168154  6288 net.cpp:425] relu5_2 <- conv5_2
I0625 13:55:00.168174  6288 net.cpp:386] relu5_2 -> conv5_2 (in-place)
I0625 13:55:00.168203  6288 net.cpp:141] Setting up relu5_2
I0625 13:55:00.168226  6288 net.cpp:148] Top shape: 3 512 14 14 (301056)
I0625 13:55:00.168246  6288 net.cpp:156] Memory required for data: 342601776
I0625 13:55:00.168261  6288 layer_factory.hpp:77] Creating layer conv5_3
I0625 13:55:00.168287  6288 net.cpp:91] Creating Layer conv5_3
I0625 13:55:00.168303  6288 net.cpp:425] conv5_3 <- conv5_2
I0625 13:55:00.168325  6288 net.cpp:399] conv5_3 -> conv5_3
I0625 13:55:00.178900  6288 net.cpp:141] Setting up conv5_3
I0625 13:55:00.179020  6288 net.cpp:148] Top shape: 3 512 14 14 (301056)
I0625 13:55:00.179036  6288 net.cpp:156] Memory required for data: 343806000
I0625 13:55:00.179059  6288 layer_factory.hpp:77] Creating layer relu5_3
I0625 13:55:00.179085  6288 net.cpp:91] Creating Layer relu5_3
I0625 13:55:00.179101  6288 net.cpp:425] relu5_3 <- conv5_3
I0625 13:55:00.179124  6288 net.cpp:386] relu5_3 -> conv5_3 (in-place)
I0625 13:55:00.179174  6288 net.cpp:141] Setting up relu5_3
I0625 13:55:00.179198  6288 net.cpp:148] Top shape: 3 512 14 14 (301056)
I0625 13:55:00.179219  6288 net.cpp:156] Memory required for data: 345010224
I0625 13:55:00.179239  6288 layer_factory.hpp:77] Creating layer pool5
I0625 13:55:00.179267  6288 net.cpp:91] Creating Layer pool5
I0625 13:55:00.179283  6288 net.cpp:425] pool5 <- conv5_3
I0625 13:55:00.179309  6288 net.cpp:399] pool5 -> pool5
I0625 13:55:00.179399  6288 net.cpp:141] Setting up pool5
I0625 13:55:00.179479  6288 net.cpp:148] Top shape: 3 512 7 7 (75264)
I0625 13:55:00.179499  6288 net.cpp:156] Memory required for data: 345311280
I0625 13:55:00.179513  6288 layer_factory.hpp:77] Creating layer fc_6
I0625 13:55:00.179536  6288 net.cpp:91] Creating Layer fc_6
I0625 13:55:00.179553  6288 net.cpp:425] fc_6 <- pool5
I0625 13:55:00.179574  6288 net.cpp:399] fc_6 -> fc_6
I0625 13:55:00.265228  6288 net.cpp:141] Setting up fc_6
I0625 13:55:00.265333  6288 net.cpp:148] Top shape: 3 256 (768)
I0625 13:55:00.265373  6288 net.cpp:156] Memory required for data: 345314352
I0625 13:55:00.265396  6288 layer_factory.hpp:77] Creating layer relu_fc6
I0625 13:55:00.265420  6288 net.cpp:91] Creating Layer relu_fc6
I0625 13:55:00.265437  6288 net.cpp:425] relu_fc6 <- fc_6
I0625 13:55:00.265466  6288 net.cpp:386] relu_fc6 -> fc_6 (in-place)
I0625 13:55:00.265497  6288 net.cpp:141] Setting up relu_fc6
I0625 13:55:00.265522  6288 net.cpp:148] Top shape: 3 256 (768)
I0625 13:55:00.265539  6288 net.cpp:156] Memory required for data: 345317424
I0625 13:55:00.265560  6288 layer_factory.hpp:77] Creating layer fc_7
I0625 13:55:00.265583  6288 net.cpp:91] Creating Layer fc_7
I0625 13:55:00.265599  6288 net.cpp:425] fc_7 <- fc_6
I0625 13:55:00.265620  6288 net.cpp:399] fc_7 -> fc_7
I0625 13:55:00.266192  6288 net.cpp:141] Setting up fc_7
I0625 13:55:00.266275  6288 net.cpp:148] Top shape: 3 135 (405)
I0625 13:55:00.266294  6288 net.cpp:156] Memory required for data: 345319044
I0625 13:55:00.266314  6288 layer_factory.hpp:77] Creating layer fc_7_fc_7_0_split
I0625 13:55:00.266335  6288 net.cpp:91] Creating Layer fc_7_fc_7_0_split
I0625 13:55:00.266350  6288 net.cpp:425] fc_7_fc_7_0_split <- fc_7
I0625 13:55:00.266433  6288 net.cpp:399] fc_7_fc_7_0_split -> fc_7_fc_7_0_split_0
I0625 13:55:00.266455  6288 net.cpp:399] fc_7_fc_7_0_split -> fc_7_fc_7_0_split_1
I0625 13:55:00.266476  6288 net.cpp:399] fc_7_fc_7_0_split -> fc_7_fc_7_0_split_2
I0625 13:55:00.266571  6288 net.cpp:141] Setting up fc_7_fc_7_0_split
I0625 13:55:00.266651  6288 net.cpp:148] Top shape: 3 135 (405)
I0625 13:55:00.266672  6288 net.cpp:148] Top shape: 3 135 (405)
I0625 13:55:00.266688  6288 net.cpp:148] Top shape: 3 135 (405)
I0625 13:55:00.266701  6288 net.cpp:156] Memory required for data: 345323904
I0625 13:55:00.266719  6288 layer_factory.hpp:77] Creating layer accuracy_top1-teste
I0625 13:55:00.266742  6288 net.cpp:91] Creating Layer accuracy_top1-teste
I0625 13:55:00.266758  6288 net.cpp:425] accuracy_top1-teste <- fc_7_fc_7_0_split_0
I0625 13:55:00.266777  6288 net.cpp:425] accuracy_top1-teste <- label_data_1_split_0
…
