…
I0618 11:01:12.718217 38023 net.cpp:313] The NetState phase (0) differed from the phase (1) specified by a rule in layer accuracy_top5-teste
I0618 11:01:12.718235 38023 net.cpp:313] The NetState phase (0) differed from the phase (1) specified by a rule in layer loss
I0618 11:01:12.718507 38023 net.cpp:49] Initializing net from parameters: 
name: "arface-vgg"
state {
  phase: TRAIN
}
layer {
  name: "data"
  type: "ImageData"
  top: "data"
  top: "label"
  include {
    phase: TRAIN
  }
  image_data_param {
    source: "treino-b4.txt"
    batch_size: 7
    new_height: 224
    new_width: 224
  }
}
layer {
  name: "conv1_1"
  type: "Convolution"
  bottom: "data"
  top: "conv1_1"
  param {
    lr_mult: 0.1
  }
  convolution_param {
    num_output: 64
    pad: 1
    kernel_size: 3
  }
}
layer {
  name: "relu1_1"
  type: "ReLU"
  bottom: "conv1_1"
  top: "conv1_1"
}
layer {
  name: "conv1_2"
  type: "Convolution"
  bottom: "conv1_1"
  top: "conv1_2"
  param {
    lr_mult: 0.1
  }
  convolution_param {
    num_output: 64
    pad: 1
    kernel_size: 3
  }
}
layer {
  name: "relu1_2"
  type: "ReLU"
  bottom: "conv1_2"
  top: "conv1_2"
}
layer {
  name: "pool1"
  type: "Pooling"
  bottom: "conv1_2"
  top: "pool1"
  pooling_param {
    pool: MAX
    kernel_size: 2
    stride: 2
  }
}
layer {
  name: "conv2_1"
  type: "Convolution"
  bottom: "pool1"
  top: "conv2_1"
  param {
    lr_mult: 0.1
  }
  convolution_param {
    num_output: 128
    pad: 1
    kernel_size: 3
  }
}
layer {
  name: "relu2_1"
  type: "ReLU"
  bottom: "conv2_1"
  top: "conv2_1"
}
layer {
  name: "conv2_2"
  type: "Convolution"
  bottom: "conv2_1"
  top: "conv2_2"
  param {
    lr_mult: 0.1
  }
  convolution_param {
    num_output: 128
    pad: 1
    kernel_size: 3
  }
}
layer {
  name: "relu2_2"
  type: "ReLU"
  bottom: "conv2_2"
  top: "conv2_2"
}
layer {
  name: "pool2"
  type: "Pooling"
  bottom: "conv2_2"
  top: "pool2"
  pooling_param {
    pool: MAX
    kernel_size: 2
    stride: 2
  }
}
layer {
  name: "conv3_1"
  type: "Convolution"
  bottom: "pool2"
  top: "conv3_1"
  param {
    lr_mult: 0.1
    decay_mult: 1
  }
  convolution_param {
    num_output: 256
    pad: 1
    kernel_size: 3
  }
}
layer {
  name: "relu3_1"
  type: "ReLU"
  bottom: "conv3_1"
  top: "conv3_1"
}
layer {
  name: "conv3_2"
  type: "Convolution"
  bottom: "conv3_1"
  top: "conv3_2"
  param {
    lr_mult: 0.1
  }
  convolution_param {
    num_output: 256
    pad: 1
    kernel_size: 3
  }
}
layer {
  name: "relu3_2"
  type: "ReLU"
  bottom: "conv3_2"
  top: "conv3_2"
}
layer {
  name: "conv3_3"
  type: "Convolution"
  bottom: "conv3_2"
  top: "conv3_3"
  param {
    lr_mult: 0.1
  }
  convolution_param {
    num_output: 256
    pad: 1
    kernel_size: 3
  }
}
layer {
  name: "relu3_3"
  type: "ReLU"
  bottom: "conv3_3"
  top: "conv3_3"
}
layer {
  name: "pool3"
  type: "Pooling"
  bottom: "conv3_3"
  top: "pool3"
  pooling_param {
    pool: MAX
    kernel_size: 2
    stride: 2
  }
}
layer {
  name: "conv4_1"
  type: "Convolution"
  bottom: "pool3"
  top: "conv4_1"
  param {
    lr_mult: 0.1
  }
  convolution_param {
    num_output: 512
    pad: 1
    kernel_size: 3
  }
}
layer {
  name: "relu4_1"
  type: "ReLU"
  bottom: "conv4_1"
  top: "conv4_1"
}
layer {
  name: "conv4_2"
  type: "Convolution"
  bottom: "conv4_1"
  top: "conv4_2"
  param {
    lr_mult: 0.1
  }
  convolution_param {
    num_output: 512
    pad: 1
    kernel_size: 3
  }
}
layer {
  name: "relu4_2"
  type: "ReLU"
  bottom: "conv4_2"
  top: "conv4_2"
}
layer {
  name: "conv4_3"
  type: "Convolution"
  bottom: "conv4_2"
  top: "conv4_3"
  param {
    lr_mult: 0.1
  }
  convolution_param {
    num_output: 512
    pad: 1
    kernel_size: 3
  }
}
layer {
  name: "relu4_3"
  type: "ReLU"
  bottom: "conv4_3"
  top: "conv4_3"
}
layer {
  name: "pool4"
  type: "Pooling"
  bottom: "conv4_3"
  top: "pool4"
  pooling_param {
    pool: MAX
    kernel_size: 2
    stride: 2
  }
}
layer {
  name: "conv5_1"
  type: "Convolution"
  bottom: "pool4"
  top: "conv5_1"
  param {
    lr_mult: 0.1
  }
  convolution_param {
    num_output: 512
    pad: 1
    kernel_size: 3
  }
}
layer {
  name: "relu5_1"
  type: "ReLU"
  bottom: "conv5_1"
  top: "conv5_1"
}
layer {
  name: "conv5_2"
  type: "Convolution"
  bottom: "conv5_1"
  top: "conv5_2"
  param {
    lr_mult: 0.1
  }
  convolution_param {
    num_output: 512
    pad: 1
    kernel_size: 3
  }
}
layer {
  name: "relu5_2"
  type: "ReLU"
  bottom: "conv5_2"
  top: "conv5_2"
}
layer {
  name: "conv5_3"
  type: "Convolution"
  bottom: "conv5_2"
  top: "conv5_3"
  param {
    lr_mult: 0.1
  }
  convolution_param {
    num_output: 512
    pad: 1
    kernel_size: 3
  }
}
layer {
  name: "relu5_3"
  type: "ReLU"
  bottom: "conv5_3"
  top: "conv5_3"
}
layer {
  name: "pool5"
  type: "Pooling"
  bottom: "conv5_3"
  top: "pool5"
  pooling_param {
    pool: MAX
    kernel_size: 2
    stride: 2
  }
}
layer {
  name: "fc_6"
  type: "InnerProduct"
  bottom: "pool5"
  top: "fc_6"
  param {
    lr_mult: 1
    decay_mult: 1
  }
  param {
    lr_mult: 2
    decay_mult: 2
  }
  inner_product_param {
    num_output: 256
    weight_filler {
      type: "xavier"
    }
  }
}
layer {
  name: "relu_fc6"
  type: "ReLU"
  bottom: "fc_6"
  top: "fc_6"
}
layer {
  name: "fc_7"
  type: "InnerProduct"
  bottom: "fc_6"
  top: "fc_7"
  param {
    lr_mult: 1
    decay_mult: 1
  }
  param {
    lr_mult: 2
    decay_mult: 1
  }
  inner_product_param {
    num_output: 135
    weight_filler {
      type: "xavier"
      std: 0.5
    }
    bias_filler {
      type: "constant"
      value: 0.1
    }
  }
}
layer {
  name: "accuracy_top1-Treino"
  type: "Accuracy"
  bottom: "fc_7"
  bottom: "label"
  top: "accuracy_top1"
  include {
    phase: TRAIN
  }
  accuracy_param {
    top_k: 1
  }
}
layer {
  name: "loss-treino"
  type: "SoftmaxWithLoss"
  bottom: "fc_7"
  bottom: "label"
  top: "loss-treino"
  include {
    phase: TRAIN
  }
}
I0618 11:01:12.721492 38023 layer_factory.hpp:77] Creating layer data
I0618 11:01:12.721616 38023 net.cpp:91] Creating Layer data
I0618 11:01:12.721640 38023 net.cpp:399] data -> data
I0618 11:01:12.721701 38023 net.cpp:399] data -> label
I0618 11:01:12.721747 38023 image_data_layer.cpp:38] Opening file treino-b4.txt
I0618 11:01:12.722172 38023 image_data_layer.cpp:53] A total of 540 images.
I0618 11:01:12.748644 38023 image_data_layer.cpp:80] output data size: 7,3,224,224
I0618 11:01:12.764559 38023 net.cpp:141] Setting up data
I0618 11:01:12.764698 38023 net.cpp:148] Top shape: 7 3 224 224 (1053696)
I0618 11:01:12.764722 38023 net.cpp:148] Top shape: 7 (7)
I0618 11:01:12.764861 38023 net.cpp:156] Memory required for data: 4214812
I0618 11:01:12.764905 38023 layer_factory.hpp:77] Creating layer label_data_1_split
I0618 11:01:12.764942 38023 net.cpp:91] Creating Layer label_data_1_split
I0618 11:01:12.764963 38023 net.cpp:425] label_data_1_split <- label
I0618 11:01:12.765005 38023 net.cpp:399] label_data_1_split -> label_data_1_split_0
I0618 11:01:12.765051 38023 net.cpp:399] label_data_1_split -> label_data_1_split_1
I0618 11:01:12.765149 38023 net.cpp:141] Setting up label_data_1_split
I0618 11:01:12.765235 38023 net.cpp:148] Top shape: 7 (7)
I0618 11:01:12.765251 38023 net.cpp:148] Top shape: 7 (7)
I0618 11:01:12.765265 38023 net.cpp:156] Memory required for data: 4214868
I0618 11:01:12.765282 38023 layer_factory.hpp:77] Creating layer conv1_1
I0618 11:01:12.765318 38023 net.cpp:91] Creating Layer conv1_1
I0618 11:01:12.765382 38023 net.cpp:425] conv1_1 <- data
I0618 11:01:12.765406 38023 net.cpp:399] conv1_1 -> conv1_1
I0618 11:01:12.767688 38023 net.cpp:141] Setting up conv1_1
I0618 11:01:12.767784 38023 net.cpp:148] Top shape: 7 64 224 224 (22478848)
I0618 11:01:12.767803 38023 net.cpp:156] Memory required for data: 94130260
I0618 11:01:12.767848 38023 layer_factory.hpp:77] Creating layer relu1_1
I0618 11:01:12.767876 38023 net.cpp:91] Creating Layer relu1_1
I0618 11:01:12.767920 38023 net.cpp:425] relu1_1 <- conv1_1
I0618 11:01:12.767946 38023 net.cpp:386] relu1_1 -> conv1_1 (in-place)
I0618 11:01:12.767972 38023 net.cpp:141] Setting up relu1_1
I0618 11:01:12.768008 38023 net.cpp:148] Top shape: 7 64 224 224 (22478848)
I0618 11:01:12.768023 38023 net.cpp:156] Memory required for data: 184045652
I0618 11:01:12.768052 38023 layer_factory.hpp:77] Creating layer conv1_2
I0618 11:01:12.768086 38023 net.cpp:91] Creating Layer conv1_2
I0618 11:01:12.768103 38023 net.cpp:425] conv1_2 <- conv1_1
I0618 11:01:12.768126 38023 net.cpp:399] conv1_2 -> conv1_2
I0618 11:01:12.768555 38023 net.cpp:141] Setting up conv1_2
I0618 11:01:12.768647 38023 net.cpp:148] Top shape: 7 64 224 224 (22478848)
I0618 11:01:12.768728 38023 net.cpp:156] Memory required for data: 273961044
I0618 11:01:12.768767 38023 layer_factory.hpp:77] Creating layer relu1_2
I0618 11:01:12.768790 38023 net.cpp:91] Creating Layer relu1_2
I0618 11:01:12.768805 38023 net.cpp:425] relu1_2 <- conv1_2
I0618 11:01:12.768822 38023 net.cpp:386] relu1_2 -> conv1_2 (in-place)
I0618 11:01:12.768842 38023 net.cpp:141] Setting up relu1_2
I0618 11:01:12.768869 38023 net.cpp:148] Top shape: 7 64 224 224 (22478848)
I0618 11:01:12.768883 38023 net.cpp:156] Memory required for data: 363876436
I0618 11:01:12.768899 38023 layer_factory.hpp:77] Creating layer pool1
I0618 11:01:12.768921 38023 net.cpp:91] Creating Layer pool1
I0618 11:01:12.768939 38023 net.cpp:425] pool1 <- conv1_2
I0618 11:01:12.768975 38023 net.cpp:399] pool1 -> pool1
I0618 11:01:12.769090 38023 net.cpp:141] Setting up pool1
I0618 11:01:12.769158 38023 net.cpp:148] Top shape: 7 64 112 112 (5619712)
I0618 11:01:12.769173 38023 net.cpp:156] Memory required for data: 386355284
I0618 11:01:12.769192 38023 layer_factory.hpp:77] Creating layer conv2_1
I0618 11:01:12.769213 38023 net.cpp:91] Creating Layer conv2_1
I0618 11:01:12.769228 38023 net.cpp:425] conv2_1 <- pool1
I0618 11:01:12.769248 38023 net.cpp:399] conv2_1 -> conv2_1
I0618 11:01:12.771294 38023 net.cpp:141] Setting up conv2_1
I0618 11:01:12.771391 38023 net.cpp:148] Top shape: 7 128 112 112 (11239424)
I0618 11:01:12.771406 38023 net.cpp:156] Memory required for data: 431312980
I0618 11:01:12.771459 38023 layer_factory.hpp:77] Creating layer relu2_1
I0618 11:01:12.771482 38023 net.cpp:91] Creating Layer relu2_1
I0618 11:01:12.771498 38023 net.cpp:425] relu2_1 <- conv2_1
I0618 11:01:12.771517 38023 net.cpp:386] relu2_1 -> conv2_1 (in-place)
I0618 11:01:12.771540 38023 net.cpp:141] Setting up relu2_1
I0618 11:01:12.771559 38023 net.cpp:148] Top shape: 7 128 112 112 (11239424)
I0618 11:01:12.771574 38023 net.cpp:156] Memory required for data: 476270676
I0618 11:01:12.771590 38023 layer_factory.hpp:77] Creating layer conv2_2
I0618 11:01:12.771630 38023 net.cpp:91] Creating Layer conv2_2
I0618 11:01:12.771644 38023 net.cpp:425] conv2_2 <- conv2_1
I0618 11:01:12.771677 38023 net.cpp:399] conv2_2 -> conv2_2
I0618 11:01:12.772222 38023 net.cpp:141] Setting up conv2_2
I0618 11:01:12.772315 38023 net.cpp:148] Top shape: 7 128 112 112 (11239424)
I0618 11:01:12.772330 38023 net.cpp:156] Memory required for data: 521228372
I0618 11:01:12.772373 38023 layer_factory.hpp:77] Creating layer relu2_2
I0618 11:01:12.772393 38023 net.cpp:91] Creating Layer relu2_2
I0618 11:01:12.772425 38023 net.cpp:425] relu2_2 <- conv2_2
I0618 11:01:12.772446 38023 net.cpp:386] relu2_2 -> conv2_2 (in-place)
I0618 11:01:12.772466 38023 net.cpp:141] Setting up relu2_2
I0618 11:01:12.772498 38023 net.cpp:148] Top shape: 7 128 112 112 (11239424)
I0618 11:01:12.772513 38023 net.cpp:156] Memory required for data: 566186068
I0618 11:01:12.772557 38023 layer_factory.hpp:77] Creating layer pool2
I0618 11:01:12.772579 38023 net.cpp:91] Creating Layer pool2
I0618 11:01:12.772596 38023 net.cpp:425] pool2 <- conv2_2
I0618 11:01:12.772619 38023 net.cpp:399] pool2 -> pool2
I0618 11:01:12.772694 38023 net.cpp:141] Setting up pool2
I0618 11:01:12.772783 38023 net.cpp:148] Top shape: 7 128 56 56 (2809856)
I0618 11:01:12.772796 38023 net.cpp:156] Memory required for data: 577425492
I0618 11:01:12.772811 38023 layer_factory.hpp:77] Creating layer conv3_1
I0618 11:01:12.772840 38023 net.cpp:91] Creating Layer conv3_1
I0618 11:01:12.772857 38023 net.cpp:425] conv3_1 <- pool2
I0618 11:01:12.772882 38023 net.cpp:399] conv3_1 -> conv3_1
I0618 11:01:12.774469 38023 net.cpp:141] Setting up conv3_1
I0618 11:01:12.774564 38023 net.cpp:148] Top shape: 7 256 56 56 (5619712)
I0618 11:01:12.774580 38023 net.cpp:156] Memory required for data: 599904340
I0618 11:01:12.774626 38023 layer_factory.hpp:77] Creating layer relu3_1
I0618 11:01:12.774657 38023 net.cpp:91] Creating Layer relu3_1
I0618 11:01:12.774673 38023 net.cpp:425] relu3_1 <- conv3_1
I0618 11:01:12.774691 38023 net.cpp:386] relu3_1 -> conv3_1 (in-place)
I0618 11:01:12.774713 38023 net.cpp:141] Setting up relu3_1
I0618 11:01:12.774732 38023 net.cpp:148] Top shape: 7 256 56 56 (5619712)
I0618 11:01:12.774747 38023 net.cpp:156] Memory required for data: 622383188
I0618 11:01:12.774762 38023 layer_factory.hpp:77] Creating layer conv3_2
I0618 11:01:12.774788 38023 net.cpp:91] Creating Layer conv3_2
I0618 11:01:12.774826 38023 net.cpp:425] conv3_2 <- conv3_1
I0618 11:01:12.774853 38023 net.cpp:399] conv3_2 -> conv3_2
I0618 11:01:12.777938 38023 net.cpp:141] Setting up conv3_2
I0618 11:01:12.778045 38023 net.cpp:148] Top shape: 7 256 56 56 (5619712)
I0618 11:01:12.778060 38023 net.cpp:156] Memory required for data: 644862036
I0618 11:01:12.778087 38023 layer_factory.hpp:77] Creating layer relu3_2
I0618 11:01:12.778115 38023 net.cpp:91] Creating Layer relu3_2
I0618 11:01:12.778131 38023 net.cpp:425] relu3_2 <- conv3_2
I0618 11:01:12.778151 38023 net.cpp:386] relu3_2 -> conv3_2 (in-place)
I0618 11:01:12.778178 38023 net.cpp:141] Setting up relu3_2
I0618 11:01:12.778223 38023 net.cpp:148] Top shape: 7 256 56 56 (5619712)
I0618 11:01:12.778240 38023 net.cpp:156] Memory required for data: 667340884
I0618 11:01:12.778271 38023 layer_factory.hpp:77] Creating layer conv3_3
I0618 11:01:12.778298 38023 net.cpp:91] Creating Layer conv3_3
I0618 11:01:12.778314 38023 net.cpp:425] conv3_3 <- conv3_2
I0618 11:01:12.778350 38023 net.cpp:399] conv3_3 -> conv3_3
I0618 11:01:12.781478 38023 net.cpp:141] Setting up conv3_3
I0618 11:01:12.781576 38023 net.cpp:148] Top shape: 7 256 56 56 (5619712)
I0618 11:01:12.781608 38023 net.cpp:156] Memory required for data: 689819732
I0618 11:01:12.781632 38023 layer_factory.hpp:77] Creating layer relu3_3
I0618 11:01:12.781654 38023 net.cpp:91] Creating Layer relu3_3
I0618 11:01:12.781683 38023 net.cpp:425] relu3_3 <- conv3_3
I0618 11:01:12.781708 38023 net.cpp:386] relu3_3 -> conv3_3 (in-place)
I0618 11:01:12.781744 38023 net.cpp:141] Setting up relu3_3
I0618 11:01:12.781769 38023 net.cpp:148] Top shape: 7 256 56 56 (5619712)
I0618 11:01:12.781795 38023 net.cpp:156] Memory required for data: 712298580
I0618 11:01:12.781811 38023 layer_factory.hpp:77] Creating layer pool3
I0618 11:01:12.781841 38023 net.cpp:91] Creating Layer pool3
I0618 11:01:12.781862 38023 net.cpp:425] pool3 <- conv3_3
I0618 11:01:12.781885 38023 net.cpp:399] pool3 -> pool3
I0618 11:01:12.781965 38023 net.cpp:141] Setting up pool3
I0618 11:01:12.782006 38023 net.cpp:148] Top shape: 7 256 28 28 (1404928)
I0618 11:01:12.782024 38023 net.cpp:156] Memory required for data: 717918292
I0618 11:01:12.782043 38023 layer_factory.hpp:77] Creating layer conv4_1
I0618 11:01:12.782070 38023 net.cpp:91] Creating Layer conv4_1
I0618 11:01:12.782086 38023 net.cpp:425] conv4_1 <- pool3
I0618 11:01:12.782109 38023 net.cpp:399] conv4_1 -> conv4_1
I0618 11:01:12.788532 38023 net.cpp:141] Setting up conv4_1
I0618 11:01:12.788663 38023 net.cpp:148] Top shape: 7 512 28 28 (2809856)
I0618 11:01:12.788700 38023 net.cpp:156] Memory required for data: 729157716
I0618 11:01:12.788724 38023 layer_factory.hpp:77] Creating layer relu4_1
I0618 11:01:12.788839 38023 net.cpp:91] Creating Layer relu4_1
I0618 11:01:12.788859 38023 net.cpp:425] relu4_1 <- conv4_1
I0618 11:01:12.788883 38023 net.cpp:386] relu4_1 -> conv4_1 (in-place)
I0618 11:01:12.788926 38023 net.cpp:141] Setting up relu4_1
I0618 11:01:12.788955 38023 net.cpp:148] Top shape: 7 512 28 28 (2809856)
I0618 11:01:12.788981 38023 net.cpp:156] Memory required for data: 740397140
I0618 11:01:12.788997 38023 layer_factory.hpp:77] Creating layer conv4_2
I0618 11:01:12.789026 38023 net.cpp:91] Creating Layer conv4_2
I0618 11:01:12.789046 38023 net.cpp:425] conv4_2 <- conv4_1
I0618 11:01:12.789070 38023 net.cpp:399] conv4_2 -> conv4_2
I0618 11:01:12.799737 38023 net.cpp:141] Setting up conv4_2
I0618 11:01:12.799849 38023 net.cpp:148] Top shape: 7 512 28 28 (2809856)
I0618 11:01:12.799885 38023 net.cpp:156] Memory required for data: 751636564
I0618 11:01:12.799928 38023 layer_factory.hpp:77] Creating layer relu4_2
I0618 11:01:12.799970 38023 net.cpp:91] Creating Layer relu4_2
I0618 11:01:12.799999 38023 net.cpp:425] relu4_2 <- conv4_2
I0618 11:01:12.800032 38023 net.cpp:386] relu4_2 -> conv4_2 (in-place)
I0618 11:01:12.800076 38023 net.cpp:141] Setting up relu4_2
I0618 11:01:12.800097 38023 net.cpp:148] Top shape: 7 512 28 28 (2809856)
I0618 11:01:12.800117 38023 net.cpp:156] Memory required for data: 762875988
I0618 11:01:12.800132 38023 layer_factory.hpp:77] Creating layer conv4_3
I0618 11:01:12.800163 38023 net.cpp:91] Creating Layer conv4_3
I0618 11:01:12.800185 38023 net.cpp:425] conv4_3 <- conv4_2
I0618 11:01:12.800206 38023 net.cpp:399] conv4_3 -> conv4_3
I0618 11:01:12.810935 38023 net.cpp:141] Setting up conv4_3
I0618 11:01:12.811072 38023 net.cpp:148] Top shape: 7 512 28 28 (2809856)
I0618 11:01:12.811091 38023 net.cpp:156] Memory required for data: 774115412
I0618 11:01:12.811120 38023 layer_factory.hpp:77] Creating layer relu4_3
I0618 11:01:12.811168 38023 net.cpp:91] Creating Layer relu4_3
I0618 11:01:12.811195 38023 net.cpp:425] relu4_3 <- conv4_3
I0618 11:01:12.811233 38023 net.cpp:386] relu4_3 -> conv4_3 (in-place)
I0618 11:01:12.811271 38023 net.cpp:141] Setting up relu4_3
I0618 11:01:12.811292 38023 net.cpp:148] Top shape: 7 512 28 28 (2809856)
I0618 11:01:12.811323 38023 net.cpp:156] Memory required for data: 785354836
I0618 11:01:12.811339 38023 layer_factory.hpp:77] Creating layer pool4
I0618 11:01:12.811360 38023 net.cpp:91] Creating Layer pool4
I0618 11:01:12.811379 38023 net.cpp:425] pool4 <- conv4_3
I0618 11:01:12.811403 38023 net.cpp:399] pool4 -> pool4
I0618 11:01:12.811481 38023 net.cpp:141] Setting up pool4
I0618 11:01:12.811554 38023 net.cpp:148] Top shape: 7 512 14 14 (702464)
I0618 11:01:12.811568 38023 net.cpp:156] Memory required for data: 788164692
I0618 11:01:12.811588 38023 layer_factory.hpp:77] Creating layer conv5_1
I0618 11:01:12.811617 38023 net.cpp:91] Creating Layer conv5_1
I0618 11:01:12.811637 38023 net.cpp:425] conv5_1 <- pool4
I0618 11:01:12.811660 38023 net.cpp:399] conv5_1 -> conv5_1
I0618 11:01:12.822521 38023 net.cpp:141] Setting up conv5_1
I0618 11:01:12.822655 38023 net.cpp:148] Top shape: 7 512 14 14 (702464)
I0618 11:01:12.822695 38023 net.cpp:156] Memory required for data: 790974548
I0618 11:01:12.822723 38023 layer_factory.hpp:77] Creating layer relu5_1
I0618 11:01:12.822767 38023 net.cpp:91] Creating Layer relu5_1
I0618 11:01:12.822784 38023 net.cpp:425] relu5_1 <- conv5_1
I0618 11:01:12.822829 38023 net.cpp:386] relu5_1 -> conv5_1 (in-place)
I0618 11:01:12.822859 38023 net.cpp:141] Setting up relu5_1
I0618 11:01:12.822878 38023 net.cpp:148] Top shape: 7 512 14 14 (702464)
I0618 11:01:12.822908 38023 net.cpp:156] Memory required for data: 793784404
I0618 11:01:12.822926 38023 layer_factory.hpp:77] Creating layer conv5_2
I0618 11:01:12.822967 38023 net.cpp:91] Creating Layer conv5_2
I0618 11:01:12.822988 38023 net.cpp:425] conv5_2 <- conv5_1
I0618 11:01:12.823051 38023 net.cpp:399] conv5_2 -> conv5_2
I0618 11:01:12.833879 38023 net.cpp:141] Setting up conv5_2
I0618 11:01:12.834004 38023 net.cpp:148] Top shape: 7 512 14 14 (702464)
I0618 11:01:12.834022 38023 net.cpp:156] Memory required for data: 796594260
I0618 11:01:12.834046 38023 layer_factory.hpp:77] Creating layer relu5_2
I0618 11:01:12.834094 38023 net.cpp:91] Creating Layer relu5_2
I0618 11:01:12.834121 38023 net.cpp:425] relu5_2 <- conv5_2
I0618 11:01:12.834156 38023 net.cpp:386] relu5_2 -> conv5_2 (in-place)
I0618 11:01:12.834193 38023 net.cpp:141] Setting up relu5_2
I0618 11:01:12.834218 38023 net.cpp:148] Top shape: 7 512 14 14 (702464)
I0618 11:01:12.834245 38023 net.cpp:156] Memory required for data: 799404116
I0618 11:01:12.834264 38023 layer_factory.hpp:77] Creating layer conv5_3
I0618 11:01:12.834295 38023 net.cpp:91] Creating Layer conv5_3
I0618 11:01:12.834313 38023 net.cpp:425] conv5_3 <- conv5_2
I0618 11:01:12.834336 38023 net.cpp:399] conv5_3 -> conv5_3
I0618 11:01:12.845087 38023 net.cpp:141] Setting up conv5_3
I0618 11:01:12.845222 38023 net.cpp:148] Top shape: 7 512 14 14 (702464)
I0618 11:01:12.845240 38023 net.cpp:156] Memory required for data: 802213972
I0618 11:01:12.845286 38023 layer_factory.hpp:77] Creating layer relu5_3
I0618 11:01:12.845314 38023 net.cpp:91] Creating Layer relu5_3
I0618 11:01:12.845345 38023 net.cpp:425] relu5_3 <- conv5_3
I0618 11:01:12.845373 38023 net.cpp:386] relu5_3 -> conv5_3 (in-place)
I0618 11:01:12.845404 38023 net.cpp:141] Setting up relu5_3
I0618 11:01:12.845424 38023 net.cpp:148] Top shape: 7 512 14 14 (702464)
I0618 11:01:12.845443 38023 net.cpp:156] Memory required for data: 805023828
I0618 11:01:12.845474 38023 layer_factory.hpp:77] Creating layer pool5
I0618 11:01:12.845500 38023 net.cpp:91] Creating Layer pool5
I0618 11:01:12.845521 38023 net.cpp:425] pool5 <- conv5_3
I0618 11:01:12.845561 38023 net.cpp:399] pool5 -> pool5
I0618 11:01:12.845649 38023 net.cpp:141] Setting up pool5
I0618 11:01:12.845708 38023 net.cpp:148] Top shape: 7 512 7 7 (175616)
I0618 11:01:12.845723 38023 net.cpp:156] Memory required for data: 805726292
I0618 11:01:12.845746 38023 layer_factory.hpp:77] Creating layer fc_6
I0618 11:01:12.845783 38023 net.cpp:91] Creating Layer fc_6
I0618 11:01:12.845806 38023 net.cpp:425] fc_6 <- pool5
I0618 11:01:12.845832 38023 net.cpp:399] fc_6 -> fc_6
I0618 11:01:12.932920 38023 net.cpp:141] Setting up fc_6
I0618 11:01:12.933043 38023 net.cpp:148] Top shape: 7 256 (1792)
I0618 11:01:12.933089 38023 net.cpp:156] Memory required for data: 805733460
I0618 11:01:12.933125 38023 layer_factory.hpp:77] Creating layer relu_fc6
I0618 11:01:12.933152 38023 net.cpp:91] Creating Layer relu_fc6
I0618 11:01:12.933171 38023 net.cpp:425] relu_fc6 <- fc_6
I0618 11:01:12.933193 38023 net.cpp:386] relu_fc6 -> fc_6 (in-place)
I0618 11:01:12.933253 38023 net.cpp:141] Setting up relu_fc6
I0618 11:01:12.933290 38023 net.cpp:148] Top shape: 7 256 (1792)
I0618 11:01:12.933320 38023 net.cpp:156] Memory required for data: 805740628
I0618 11:01:12.933338 38023 layer_factory.hpp:77] Creating layer fc_7
I0618 11:01:12.933377 38023 net.cpp:91] Creating Layer fc_7
I0618 11:01:12.933394 38023 net.cpp:425] fc_7 <- fc_6
I0618 11:01:12.933418 38023 net.cpp:399] fc_7 -> fc_7
I0618 11:01:12.933979 38023 net.cpp:141] Setting up fc_7
I0618 11:01:12.934061 38023 net.cpp:148] Top shape: 7 135 (945)
I0618 11:01:12.934083 38023 net.cpp:156] Memory required for data: 805744408
I0618 11:01:12.934103 38023 layer_factory.hpp:77] Creating layer fc_7_fc_7_0_split
I0618 11:01:12.934124 38023 net.cpp:91] Creating Layer fc_7_fc_7_0_split
I0618 11:01:12.934140 38023 net.cpp:425] fc_7_fc_7_0_split <- fc_7
I0618 11:01:12.934165 38023 net.cpp:399] fc_7_fc_7_0_split -> fc_7_fc_7_0_split_0
I0618 11:01:12.934188 38023 net.cpp:399] fc_7_fc_7_0_split -> fc_7_fc_7_0_split_1
I0618 11:01:12.934267 38023 net.cpp:141] Setting up fc_7_fc_7_0_split
I0618 11:01:12.934350 38023 net.cpp:148] Top shape: 7 135 (945)
I0618 11:01:12.934367 38023 net.cpp:148] Top shape: 7 135 (945)
I0618 11:01:12.934445 38023 net.cpp:156] Memory required for data: 805751968
I0618 11:01:12.934461 38023 layer_factory.hpp:77] Creating layer accuracy_top1-Treino
I0618 11:01:12.934492 38023 net.cpp:91] Creating Layer accuracy_top1-Treino
I0618 11:01:12.934512 38023 net.cpp:425] accuracy_top1-Treino <- fc_7_fc_7_0_split_0
I0618 11:01:12.934532 38023 net.cpp:425] accuracy_top1-Treino <- label_data_1_split_0
…
I0618 11:01:12.937079 38023 net.cpp:313] The NetState phase (1) differed from the phase (0) specified by a rule in layer accuracy_top1-Treino
I0618 11:01:12.937114 38023 net.cpp:313] The NetState phase (1) differed from the phase (0) specified by a rule in layer loss-treino
I0618 11:01:12.937398 38023 net.cpp:49] Initializing net from parameters: 
name: "arface-vgg"
state {
  phase: TEST
}
layer {
  name: "data"
  type: "ImageData"
  top: "data"
  top: "label"
  include {
    phase: TEST
  }
  image_data_param {
    source: "teste.txt"
    batch_size: 3
    new_height: 224
    new_width: 224
  }
}
layer {
  name: "conv1_1"
  type: "Convolution"
  bottom: "data"
  top: "conv1_1"
  param {
    lr_mult: 0.1
  }
  convolution_param {
    num_output: 64
    pad: 1
    kernel_size: 3
  }
}
layer {
  name: "relu1_1"
  type: "ReLU"
  bottom: "conv1_1"
  top: "conv1_1"
}
layer {
  name: "conv1_2"
  type: "Convolution"
  bottom: "conv1_1"
  top: "conv1_2"
  param {
    lr_mult: 0.1
  }
  convolution_param {
    num_output: 64
    pad: 1
    kernel_size: 3
  }
}
layer {
  name: "relu1_2"
  type: "ReLU"
  bottom: "conv1_2"
  top: "conv1_2"
}
layer {
  name: "pool1"
  type: "Pooling"
  bottom: "conv1_2"
  top: "pool1"
  pooling_param {
    pool: MAX
    kernel_size: 2
    stride: 2
  }
}
layer {
  name: "conv2_1"
  type: "Convolution"
  bottom: "pool1"
  top: "conv2_1"
  param {
    lr_mult: 0.1
  }
  convolution_param {
    num_output: 128
    pad: 1
    kernel_size: 3
  }
}
layer {
  name: "relu2_1"
  type: "ReLU"
  bottom: "conv2_1"
  top: "conv2_1"
}
layer {
  name: "conv2_2"
  type: "Convolution"
  bottom: "conv2_1"
  top: "conv2_2"
  param {
    lr_mult: 0.1
  }
  convolution_param {
    num_output: 128
    pad: 1
    kernel_size: 3
  }
}
layer {
  name: "relu2_2"
  type: "ReLU"
  bottom: "conv2_2"
  top: "conv2_2"
}
layer {
  name: "pool2"
  type: "Pooling"
  bottom: "conv2_2"
  top: "pool2"
  pooling_param {
    pool: MAX
    kernel_size: 2
    stride: 2
  }
}
layer {
  name: "conv3_1"
  type: "Convolution"
  bottom: "pool2"
  top: "conv3_1"
  param {
    lr_mult: 0.1
    decay_mult: 1
  }
  convolution_param {
    num_output: 256
    pad: 1
    kernel_size: 3
  }
}
layer {
  name: "relu3_1"
  type: "ReLU"
  bottom: "conv3_1"
  top: "conv3_1"
}
layer {
  name: "conv3_2"
  type: "Convolution"
  bottom: "conv3_1"
  top: "conv3_2"
  param {
    lr_mult: 0.1
  }
  convolution_param {
    num_output: 256
    pad: 1
    kernel_size: 3
  }
}
layer {
  name: "relu3_2"
  type: "ReLU"
  bottom: "conv3_2"
  top: "conv3_2"
}
layer {
  name: "conv3_3"
  type: "Convolution"
  bottom: "conv3_2"
  top: "conv3_3"
  param {
    lr_mult: 0.1
  }
  convolution_param {
    num_output: 256
    pad: 1
    kernel_size: 3
  }
}
layer {
  name: "relu3_3"
  type: "ReLU"
  bottom: "conv3_3"
  top: "conv3_3"
}
layer {
  name: "pool3"
  type: "Pooling"
  bottom: "conv3_3"
  top: "pool3"
  pooling_param {
    pool: MAX
    kernel_size: 2
    stride: 2
  }
}
layer {
  name: "conv4_1"
  type: "Convolution"
  bottom: "pool3"
  top: "conv4_1"
  param {
    lr_mult: 0.1
  }
  convolution_param {
    num_output: 512
    pad: 1
    kernel_size: 3
  }
}
layer {
  name: "relu4_1"
  type: "ReLU"
  bottom: "conv4_1"
  top: "conv4_1"
}
layer {
  name: "conv4_2"
  type: "Convolution"
  bottom: "conv4_1"
  top: "conv4_2"
  param {
    lr_mult: 0.1
  }
  convolution_param {
    num_output: 512
    pad: 1
    kernel_size: 3
  }
}
layer {
  name: "relu4_2"
  type: "ReLU"
  bottom: "conv4_2"
  top: "conv4_2"
}
layer {
  name: "conv4_3"
  type: "Convolution"
  bottom: "conv4_2"
  top: "conv4_3"
  param {
    lr_mult: 0.1
  }
  convolution_param {
    num_output: 512
    pad: 1
    kernel_size: 3
  }
}
layer {
  name: "relu4_3"
  type: "ReLU"
  bottom: "conv4_3"
  top: "conv4_3"
}
layer {
  name: "pool4"
  type: "Pooling"
  bottom: "conv4_3"
  top: "pool4"
  pooling_param {
    pool: MAX
    kernel_size: 2
    stride: 2
  }
}
layer {
  name: "conv5_1"
  type: "Convolution"
  bottom: "pool4"
  top: "conv5_1"
  param {
    lr_mult: 0.1
  }
  convolution_param {
    num_output: 512
    pad: 1
    kernel_size: 3
  }
}
layer {
  name: "relu5_1"
  type: "ReLU"
  bottom: "conv5_1"
  top: "conv5_1"
}
layer {
  name: "conv5_2"
  type: "Convolution"
  bottom: "conv5_1"
  top: "conv5_2"
  param {
    lr_mult: 0.1
  }
  convolution_param {
    num_output: 512
    pad: 1
    kernel_size: 3
  }
}
layer {
  name: "relu5_2"
  type: "ReLU"
  bottom: "conv5_2"
  top: "conv5_2"
}
layer {
  name: "conv5_3"
  type: "Convolution"
  bottom: "conv5_2"
  top: "conv5_3"
  param {
    lr_mult: 0.1
  }
  convolution_param {
    num_output: 512
    pad: 1
    kernel_size: 3
  }
}
layer {
  name: "relu5_3"
  type: "ReLU"
  bottom: "conv5_3"
  top: "conv5_3"
}
layer {
  name: "pool5"
  type: "Pooling"
  bottom: "conv5_3"
  top: "pool5"
  pooling_param {
    pool: MAX
    kernel_size: 2
    stride: 2
  }
}
layer {
  name: "fc_6"
  type: "InnerProduct"
  bottom: "pool5"
  top: "fc_6"
  param {
    lr_mult: 1
    decay_mult: 1
  }
  param {
    lr_mult: 2
    decay_mult: 2
  }
  inner_product_param {
    num_output: 256
    weight_filler {
      type: "xavier"
    }
  }
}
layer {
  name: "relu_fc6"
  type: "ReLU"
  bottom: "fc_6"
  top: "fc_6"
}
layer {
  name: "fc_7"
  type: "InnerProduct"
  bottom: "fc_6"
  top: "fc_7"
  param {
    lr_mult: 1
    decay_mult: 1
  }
  param {
    lr_mult: 2
    decay_mult: 1
  }
  inner_product_param {
    num_output: 135
    weight_filler {
      type: "xavier"
      std: 0.5
    }
    bias_filler {
      type: "constant"
      value: 0.1
    }
  }
}
layer {
  name: "accuracy_top1-teste"
  type: "Accuracy"
  bottom: "fc_7"
  bottom: "label"
  top: "accuracy_top1-teste"
  include {
    phase: TEST
  }
  accuracy_param {
    top_k: 1
  }
}
layer {
  name: "accuracy_top5-teste"
  type: "Accuracy"
  bottom: "fc_7"
  bottom: "label"
  top: "accuracy_top5-teste"
  include {
    phase: TEST
  }
  accuracy_param {
    top_k: 5
  }
}
layer {
  name: "loss"
  type: "SoftmaxWithLoss"
  bottom: "fc_7"
  bottom: "label"
  top: "loss"
  include {
    phase: TEST
  }
}
I0618 11:01:12.940588 38023 layer_factory.hpp:77] Creating layer data
I0618 11:01:12.940629 38023 net.cpp:91] Creating Layer data
I0618 11:01:12.940650 38023 net.cpp:399] data -> data
I0618 11:01:12.940678 38023 net.cpp:399] data -> label
I0618 11:01:12.940706 38023 image_data_layer.cpp:38] Opening file teste.txt
I0618 11:01:12.940837 38023 image_data_layer.cpp:53] A total of 119 images.
I0618 11:01:12.953575 38023 image_data_layer.cpp:80] output data size: 3,3,224,224
I0618 11:01:12.960530 38023 net.cpp:141] Setting up data
I0618 11:01:12.960638 38023 net.cpp:148] Top shape: 3 3 224 224 (451584)
I0618 11:01:12.960680 38023 net.cpp:148] Top shape: 3 (3)
I0618 11:01:12.960695 38023 net.cpp:156] Memory required for data: 1806348
I0618 11:01:12.960732 38023 layer_factory.hpp:77] Creating layer label_data_1_split
I0618 11:01:12.960893 38023 net.cpp:91] Creating Layer label_data_1_split
I0618 11:01:12.960927 38023 net.cpp:425] label_data_1_split <- label
I0618 11:01:12.960963 38023 net.cpp:399] label_data_1_split -> label_data_1_split_0
I0618 11:01:12.960994 38023 net.cpp:399] label_data_1_split -> label_data_1_split_1
I0618 11:01:12.961019 38023 net.cpp:399] label_data_1_split -> label_data_1_split_2
I0618 11:01:12.961117 38023 net.cpp:141] Setting up label_data_1_split
I0618 11:01:12.961206 38023 net.cpp:148] Top shape: 3 (3)
I0618 11:01:12.961225 38023 net.cpp:148] Top shape: 3 (3)
I0618 11:01:12.961243 38023 net.cpp:148] Top shape: 3 (3)
I0618 11:01:12.961261 38023 net.cpp:156] Memory required for data: 1806384
I0618 11:01:12.961275 38023 layer_factory.hpp:77] Creating layer conv1_1
I0618 11:01:12.961305 38023 net.cpp:91] Creating Layer conv1_1
I0618 11:01:12.961325 38023 net.cpp:425] conv1_1 <- data
I0618 11:01:12.961350 38023 net.cpp:399] conv1_1 -> conv1_1
I0618 11:01:12.961822 38023 net.cpp:141] Setting up conv1_1
I0618 11:01:12.961912 38023 net.cpp:148] Top shape: 3 64 224 224 (9633792)
I0618 11:01:12.961938 38023 net.cpp:156] Memory required for data: 40341552
I0618 11:01:12.961973 38023 layer_factory.hpp:77] Creating layer relu1_1
I0618 11:01:12.961997 38023 net.cpp:91] Creating Layer relu1_1
I0618 11:01:12.962020 38023 net.cpp:425] relu1_1 <- conv1_1
I0618 11:01:12.962043 38023 net.cpp:386] relu1_1 -> conv1_1 (in-place)
I0618 11:01:12.962066 38023 net.cpp:141] Setting up relu1_1
I0618 11:01:12.962086 38023 net.cpp:148] Top shape: 3 64 224 224 (9633792)
I0618 11:01:12.962105 38023 net.cpp:156] Memory required for data: 78876720
I0618 11:01:12.962122 38023 layer_factory.hpp:77] Creating layer conv1_2
I0618 11:01:12.962143 38023 net.cpp:91] Creating Layer conv1_2
I0618 11:01:12.962163 38023 net.cpp:425] conv1_2 <- conv1_1
I0618 11:01:12.962187 38023 net.cpp:399] conv1_2 -> conv1_2
I0618 11:01:12.963449 38023 net.cpp:141] Setting up conv1_2
I0618 11:01:12.963512 38023 net.cpp:148] Top shape: 3 64 224 224 (9633792)
I0618 11:01:12.963544 38023 net.cpp:156] Memory required for data: 117411888
I0618 11:01:12.963583 38023 layer_factory.hpp:77] Creating layer relu1_2
I0618 11:01:12.963614 38023 net.cpp:91] Creating Layer relu1_2
I0618 11:01:12.963639 38023 net.cpp:425] relu1_2 <- conv1_2
I0618 11:01:12.963660 38023 net.cpp:386] relu1_2 -> conv1_2 (in-place)
I0618 11:01:12.963690 38023 net.cpp:141] Setting up relu1_2
I0618 11:01:12.963716 38023 net.cpp:148] Top shape: 3 64 224 224 (9633792)
I0618 11:01:12.963735 38023 net.cpp:156] Memory required for data: 155947056
I0618 11:01:12.963754 38023 layer_factory.hpp:77] Creating layer pool1
I0618 11:01:12.963778 38023 net.cpp:91] Creating Layer pool1
I0618 11:01:12.963794 38023 net.cpp:425] pool1 <- conv1_2
I0618 11:01:12.963815 38023 net.cpp:399] pool1 -> pool1
I0618 11:01:12.963896 38023 net.cpp:141] Setting up pool1
I0618 11:01:12.963922 38023 net.cpp:148] Top shape: 3 64 112 112 (2408448)
I0618 11:01:12.963940 38023 net.cpp:156] Memory required for data: 165580848
I0618 11:01:12.963954 38023 layer_factory.hpp:77] Creating layer conv2_1
I0618 11:01:12.963976 38023 net.cpp:91] Creating Layer conv2_1
I0618 11:01:12.963995 38023 net.cpp:425] conv2_1 <- pool1
I0618 11:01:12.964018 38023 net.cpp:399] conv2_1 -> conv2_1
I0618 11:01:12.965283 38023 net.cpp:141] Setting up conv2_1
I0618 11:01:12.965351 38023 net.cpp:148] Top shape: 3 128 112 112 (4816896)
I0618 11:01:12.965369 38023 net.cpp:156] Memory required for data: 184848432
I0618 11:01:12.965394 38023 layer_factory.hpp:77] Creating layer relu2_1
I0618 11:01:12.965415 38023 net.cpp:91] Creating Layer relu2_1
I0618 11:01:12.965446 38023 net.cpp:425] relu2_1 <- conv2_1
I0618 11:01:12.965476 38023 net.cpp:386] relu2_1 -> conv2_1 (in-place)
I0618 11:01:12.965507 38023 net.cpp:141] Setting up relu2_1
I0618 11:01:12.965534 38023 net.cpp:148] Top shape: 3 128 112 112 (4816896)
I0618 11:01:12.965560 38023 net.cpp:156] Memory required for data: 204116016
I0618 11:01:12.965584 38023 layer_factory.hpp:77] Creating layer conv2_2
I0618 11:01:12.965606 38023 net.cpp:91] Creating Layer conv2_2
I0618 11:01:12.965625 38023 net.cpp:425] conv2_2 <- conv2_1
I0618 11:01:12.965646 38023 net.cpp:399] conv2_2 -> conv2_2
I0618 11:01:12.966202 38023 net.cpp:141] Setting up conv2_2
I0618 11:01:12.966260 38023 net.cpp:148] Top shape: 3 128 112 112 (4816896)
I0618 11:01:12.966279 38023 net.cpp:156] Memory required for data: 223383600
I0618 11:01:12.966298 38023 layer_factory.hpp:77] Creating layer relu2_2
I0618 11:01:12.966341 38023 net.cpp:91] Creating Layer relu2_2
I0618 11:01:12.966361 38023 net.cpp:425] relu2_2 <- conv2_2
I0618 11:01:12.966382 38023 net.cpp:386] relu2_2 -> conv2_2 (in-place)
I0618 11:01:12.966404 38023 net.cpp:141] Setting up relu2_2
I0618 11:01:12.966426 38023 net.cpp:148] Top shape: 3 128 112 112 (4816896)
I0618 11:01:12.966446 38023 net.cpp:156] Memory required for data: 242651184
I0618 11:01:12.966465 38023 layer_factory.hpp:77] Creating layer pool2
I0618 11:01:12.966485 38023 net.cpp:91] Creating Layer pool2
I0618 11:01:12.966503 38023 net.cpp:425] pool2 <- conv2_2
I0618 11:01:12.966526 38023 net.cpp:399] pool2 -> pool2
I0618 11:01:12.966601 38023 net.cpp:141] Setting up pool2
I0618 11:01:12.966629 38023 net.cpp:148] Top shape: 3 128 56 56 (1204224)
I0618 11:01:12.966646 38023 net.cpp:156] Memory required for data: 247468080
I0618 11:01:12.966665 38023 layer_factory.hpp:77] Creating layer conv3_1
I0618 11:01:12.966688 38023 net.cpp:91] Creating Layer conv3_1
I0618 11:01:12.966706 38023 net.cpp:425] conv3_1 <- pool2
I0618 11:01:12.966727 38023 net.cpp:399] conv3_1 -> conv3_1
I0618 11:01:12.968343 38023 net.cpp:141] Setting up conv3_1
I0618 11:01:12.968380 38023 net.cpp:148] Top shape: 3 256 56 56 (2408448)
I0618 11:01:12.968395 38023 net.cpp:156] Memory required for data: 257101872
I0618 11:01:12.968432 38023 layer_factory.hpp:77] Creating layer relu3_1
I0618 11:01:12.968461 38023 net.cpp:91] Creating Layer relu3_1
I0618 11:01:12.968487 38023 net.cpp:425] relu3_1 <- conv3_1
I0618 11:01:12.968507 38023 net.cpp:386] relu3_1 -> conv3_1 (in-place)
I0618 11:01:12.968528 38023 net.cpp:141] Setting up relu3_1
I0618 11:01:12.968559 38023 net.cpp:148] Top shape: 3 256 56 56 (2408448)
I0618 11:01:12.968585 38023 net.cpp:156] Memory required for data: 266735664
I0618 11:01:12.968603 38023 layer_factory.hpp:77] Creating layer conv3_2
I0618 11:01:12.968633 38023 net.cpp:91] Creating Layer conv3_2
I0618 11:01:12.968652 38023 net.cpp:425] conv3_2 <- conv3_1
I0618 11:01:12.968675 38023 net.cpp:399] conv3_2 -> conv3_2
I0618 11:01:12.971745 38023 net.cpp:141] Setting up conv3_2
I0618 11:01:12.971822 38023 net.cpp:148] Top shape: 3 256 56 56 (2408448)
I0618 11:01:12.971837 38023 net.cpp:156] Memory required for data: 276369456
I0618 11:01:12.971859 38023 layer_factory.hpp:77] Creating layer relu3_2
I0618 11:01:12.971894 38023 net.cpp:91] Creating Layer relu3_2
I0618 11:01:12.971920 38023 net.cpp:425] relu3_2 <- conv3_2
I0618 11:01:12.971953 38023 net.cpp:386] relu3_2 -> conv3_2 (in-place)
I0618 11:01:12.971988 38023 net.cpp:141] Setting up relu3_2
I0618 11:01:12.972018 38023 net.cpp:148] Top shape: 3 256 56 56 (2408448)
I0618 11:01:12.972040 38023 net.cpp:156] Memory required for data: 286003248
I0618 11:01:12.972060 38023 layer_factory.hpp:77] Creating layer conv3_3
I0618 11:01:12.972091 38023 net.cpp:91] Creating Layer conv3_3
I0618 11:01:12.972111 38023 net.cpp:425] conv3_3 <- conv3_2
I0618 11:01:12.972136 38023 net.cpp:399] conv3_3 -> conv3_3
I0618 11:01:12.975541 38023 net.cpp:141] Setting up conv3_3
I0618 11:01:12.975617 38023 net.cpp:148] Top shape: 3 256 56 56 (2408448)
I0618 11:01:12.975633 38023 net.cpp:156] Memory required for data: 295637040
I0618 11:01:12.975654 38023 layer_factory.hpp:77] Creating layer relu3_3
I0618 11:01:12.975677 38023 net.cpp:91] Creating Layer relu3_3
I0618 11:01:12.975709 38023 net.cpp:425] relu3_3 <- conv3_3
I0618 11:01:12.975729 38023 net.cpp:386] relu3_3 -> conv3_3 (in-place)
I0618 11:01:12.975769 38023 net.cpp:141] Setting up relu3_3
I0618 11:01:12.975802 38023 net.cpp:148] Top shape: 3 256 56 56 (2408448)
I0618 11:01:12.975826 38023 net.cpp:156] Memory required for data: 305270832
I0618 11:01:12.975852 38023 layer_factory.hpp:77] Creating layer pool3
I0618 11:01:12.975873 38023 net.cpp:91] Creating Layer pool3
I0618 11:01:12.975893 38023 net.cpp:425] pool3 <- conv3_3
I0618 11:01:12.975913 38023 net.cpp:399] pool3 -> pool3
I0618 11:01:12.975996 38023 net.cpp:141] Setting up pool3
I0618 11:01:12.976057 38023 net.cpp:148] Top shape: 3 256 28 28 (602112)
I0618 11:01:12.976111 38023 net.cpp:156] Memory required for data: 307679280
I0618 11:01:12.976132 38023 layer_factory.hpp:77] Creating layer conv4_1
I0618 11:01:12.976155 38023 net.cpp:91] Creating Layer conv4_1
I0618 11:01:12.976174 38023 net.cpp:425] conv4_1 <- pool3
I0618 11:01:12.976196 38023 net.cpp:399] conv4_1 -> conv4_1
I0618 11:01:12.981791 38023 net.cpp:141] Setting up conv4_1
I0618 11:01:12.981880 38023 net.cpp:148] Top shape: 3 512 28 28 (1204224)
I0618 11:01:12.981912 38023 net.cpp:156] Memory required for data: 312496176
I0618 11:01:12.981937 38023 layer_factory.hpp:77] Creating layer relu4_1
I0618 11:01:12.981971 38023 net.cpp:91] Creating Layer relu4_1
I0618 11:01:12.981999 38023 net.cpp:425] relu4_1 <- conv4_1
I0618 11:01:12.982034 38023 net.cpp:386] relu4_1 -> conv4_1 (in-place)
I0618 11:01:12.982067 38023 net.cpp:141] Setting up relu4_1
I0618 11:01:12.982089 38023 net.cpp:148] Top shape: 3 512 28 28 (1204224)
I0618 11:01:12.982107 38023 net.cpp:156] Memory required for data: 317313072
I0618 11:01:12.982125 38023 layer_factory.hpp:77] Creating layer conv4_2
I0618 11:01:12.982152 38023 net.cpp:91] Creating Layer conv4_2
I0618 11:01:12.982172 38023 net.cpp:425] conv4_2 <- conv4_1
I0618 11:01:12.982194 38023 net.cpp:399] conv4_2 -> conv4_2
I0618 11:01:12.992710 38023 net.cpp:141] Setting up conv4_2
I0618 11:01:12.992907 38023 net.cpp:148] Top shape: 3 512 28 28 (1204224)
I0618 11:01:12.992925 38023 net.cpp:156] Memory required for data: 322129968
I0618 11:01:12.992964 38023 layer_factory.hpp:77] Creating layer relu4_2
I0618 11:01:12.993013 38023 net.cpp:91] Creating Layer relu4_2
I0618 11:01:12.993044 38023 net.cpp:425] relu4_2 <- conv4_2
I0618 11:01:12.993077 38023 net.cpp:386] relu4_2 -> conv4_2 (in-place)
I0618 11:01:12.993114 38023 net.cpp:141] Setting up relu4_2
I0618 11:01:12.993135 38023 net.cpp:148] Top shape: 3 512 28 28 (1204224)
I0618 11:01:12.993162 38023 net.cpp:156] Memory required for data: 326946864
I0618 11:01:12.993182 38023 layer_factory.hpp:77] Creating layer conv4_3
I0618 11:01:12.993206 38023 net.cpp:91] Creating Layer conv4_3
I0618 11:01:12.993227 38023 net.cpp:425] conv4_3 <- conv4_2
I0618 11:01:12.993248 38023 net.cpp:399] conv4_3 -> conv4_3
I0618 11:01:13.003782 38023 net.cpp:141] Setting up conv4_3
I0618 11:01:13.003906 38023 net.cpp:148] Top shape: 3 512 28 28 (1204224)
I0618 11:01:13.003940 38023 net.cpp:156] Memory required for data: 331763760
I0618 11:01:13.003965 38023 layer_factory.hpp:77] Creating layer relu4_3
I0618 11:01:13.003994 38023 net.cpp:91] Creating Layer relu4_3
I0618 11:01:13.004024 38023 net.cpp:425] relu4_3 <- conv4_3
I0618 11:01:13.004058 38023 net.cpp:386] relu4_3 -> conv4_3 (in-place)
I0618 11:01:13.004097 38023 net.cpp:141] Setting up relu4_3
I0618 11:01:13.004122 38023 net.cpp:148] Top shape: 3 512 28 28 (1204224)
I0618 11:01:13.004149 38023 net.cpp:156] Memory required for data: 336580656
I0618 11:01:13.004165 38023 layer_factory.hpp:77] Creating layer pool4
I0618 11:01:13.004190 38023 net.cpp:91] Creating Layer pool4
I0618 11:01:13.004210 38023 net.cpp:425] pool4 <- conv4_3
I0618 11:01:13.004231 38023 net.cpp:399] pool4 -> pool4
I0618 11:01:13.004313 38023 net.cpp:141] Setting up pool4
I0618 11:01:13.004375 38023 net.cpp:148] Top shape: 3 512 14 14 (301056)
I0618 11:01:13.004395 38023 net.cpp:156] Memory required for data: 337784880
I0618 11:01:13.004415 38023 layer_factory.hpp:77] Creating layer conv5_1
I0618 11:01:13.004439 38023 net.cpp:91] Creating Layer conv5_1
I0618 11:01:13.004459 38023 net.cpp:425] conv5_1 <- pool4
I0618 11:01:13.004480 38023 net.cpp:399] conv5_1 -> conv5_1
I0618 11:01:13.015027 38023 net.cpp:141] Setting up conv5_1
I0618 11:01:13.015163 38023 net.cpp:148] Top shape: 3 512 14 14 (301056)
I0618 11:01:13.015180 38023 net.cpp:156] Memory required for data: 338989104
I0618 11:01:13.015205 38023 layer_factory.hpp:77] Creating layer relu5_1
I0618 11:01:13.015234 38023 net.cpp:91] Creating Layer relu5_1
I0618 11:01:13.015264 38023 net.cpp:425] relu5_1 <- conv5_1
I0618 11:01:13.015300 38023 net.cpp:386] relu5_1 -> conv5_1 (in-place)
I0618 11:01:13.015434 38023 net.cpp:141] Setting up relu5_1
I0618 11:01:13.015453 38023 net.cpp:148] Top shape: 3 512 14 14 (301056)
I0618 11:01:13.015486 38023 net.cpp:156] Memory required for data: 340193328
I0618 11:01:13.015501 38023 layer_factory.hpp:77] Creating layer conv5_2
I0618 11:01:13.015527 38023 net.cpp:91] Creating Layer conv5_2
I0618 11:01:13.015553 38023 net.cpp:425] conv5_2 <- conv5_1
I0618 11:01:13.015583 38023 net.cpp:399] conv5_2 -> conv5_2
I0618 11:01:13.026139 38023 net.cpp:141] Setting up conv5_2
I0618 11:01:13.026262 38023 net.cpp:148] Top shape: 3 512 14 14 (301056)
I0618 11:01:13.026299 38023 net.cpp:156] Memory required for data: 341397552
I0618 11:01:13.026324 38023 layer_factory.hpp:77] Creating layer relu5_2
I0618 11:01:13.026355 38023 net.cpp:91] Creating Layer relu5_2
I0618 11:01:13.026372 38023 net.cpp:425] relu5_2 <- conv5_2
I0618 11:01:13.026413 38023 net.cpp:386] relu5_2 -> conv5_2 (in-place)
I0618 11:01:13.026455 38023 net.cpp:141] Setting up relu5_2
I0618 11:01:13.026474 38023 net.cpp:148] Top shape: 3 512 14 14 (301056)
I0618 11:01:13.026499 38023 net.cpp:156] Memory required for data: 342601776
I0618 11:01:13.026515 38023 layer_factory.hpp:77] Creating layer conv5_3
I0618 11:01:13.026540 38023 net.cpp:91] Creating Layer conv5_3
I0618 11:01:13.026567 38023 net.cpp:425] conv5_3 <- conv5_2
I0618 11:01:13.026590 38023 net.cpp:399] conv5_3 -> conv5_3
I0618 11:01:13.037214 38023 net.cpp:141] Setting up conv5_3
I0618 11:01:13.037334 38023 net.cpp:148] Top shape: 3 512 14 14 (301056)
I0618 11:01:13.037397 38023 net.cpp:156] Memory required for data: 343806000
I0618 11:01:13.037425 38023 layer_factory.hpp:77] Creating layer relu5_3
I0618 11:01:13.037462 38023 net.cpp:91] Creating Layer relu5_3
I0618 11:01:13.037490 38023 net.cpp:425] relu5_3 <- conv5_3
I0618 11:01:13.037524 38023 net.cpp:386] relu5_3 -> conv5_3 (in-place)
I0618 11:01:13.037561 38023 net.cpp:141] Setting up relu5_3
I0618 11:01:13.037582 38023 net.cpp:148] Top shape: 3 512 14 14 (301056)
I0618 11:01:13.037601 38023 net.cpp:156] Memory required for data: 345010224
I0618 11:01:13.037619 38023 layer_factory.hpp:77] Creating layer pool5
I0618 11:01:13.037648 38023 net.cpp:91] Creating Layer pool5
I0618 11:01:13.037664 38023 net.cpp:425] pool5 <- conv5_3
I0618 11:01:13.037688 38023 net.cpp:399] pool5 -> pool5
I0618 11:01:13.037781 38023 net.cpp:141] Setting up pool5
I0618 11:01:13.037863 38023 net.cpp:148] Top shape: 3 512 7 7 (75264)
I0618 11:01:13.037883 38023 net.cpp:156] Memory required for data: 345311280
I0618 11:01:13.037902 38023 layer_factory.hpp:77] Creating layer fc_6
I0618 11:01:13.037926 38023 net.cpp:91] Creating Layer fc_6
I0618 11:01:13.037942 38023 net.cpp:425] fc_6 <- pool5
I0618 11:01:13.037966 38023 net.cpp:399] fc_6 -> fc_6
I0618 11:01:13.124312 38023 net.cpp:141] Setting up fc_6
I0618 11:01:13.124423 38023 net.cpp:148] Top shape: 3 256 (768)
I0618 11:01:13.124460 38023 net.cpp:156] Memory required for data: 345314352
I0618 11:01:13.124500 38023 layer_factory.hpp:77] Creating layer relu_fc6
I0618 11:01:13.124538 38023 net.cpp:91] Creating Layer relu_fc6
I0618 11:01:13.124557 38023 net.cpp:425] relu_fc6 <- fc_6
I0618 11:01:13.124593 38023 net.cpp:386] relu_fc6 -> fc_6 (in-place)
I0618 11:01:13.124630 38023 net.cpp:141] Setting up relu_fc6
I0618 11:01:13.124660 38023 net.cpp:148] Top shape: 3 256 (768)
I0618 11:01:13.124680 38023 net.cpp:156] Memory required for data: 345317424
I0618 11:01:13.124699 38023 layer_factory.hpp:77] Creating layer fc_7
I0618 11:01:13.124727 38023 net.cpp:91] Creating Layer fc_7
I0618 11:01:13.124816 38023 net.cpp:425] fc_7 <- fc_6
I0618 11:01:13.124884 38023 net.cpp:399] fc_7 -> fc_7
I0618 11:01:13.125458 38023 net.cpp:141] Setting up fc_7
I0618 11:01:13.125541 38023 net.cpp:148] Top shape: 3 135 (405)
I0618 11:01:13.125556 38023 net.cpp:156] Memory required for data: 345319044
I0618 11:01:13.125578 38023 layer_factory.hpp:77] Creating layer fc_7_fc_7_0_split
I0618 11:01:13.125600 38023 net.cpp:91] Creating Layer fc_7_fc_7_0_split
I0618 11:01:13.125614 38023 net.cpp:425] fc_7_fc_7_0_split <- fc_7
I0618 11:01:13.125727 38023 net.cpp:399] fc_7_fc_7_0_split -> fc_7_fc_7_0_split_0
I0618 11:01:13.125754 38023 net.cpp:399] fc_7_fc_7_0_split -> fc_7_fc_7_0_split_1
I0618 11:01:13.125777 38023 net.cpp:399] fc_7_fc_7_0_split -> fc_7_fc_7_0_split_2
I0618 11:01:13.125870 38023 net.cpp:141] Setting up fc_7_fc_7_0_split
I0618 11:01:13.125948 38023 net.cpp:148] Top shape: 3 135 (405)
I0618 11:01:13.125965 38023 net.cpp:148] Top shape: 3 135 (405)
I0618 11:01:13.125984 38023 net.cpp:148] Top shape: 3 135 (405)
I0618 11:01:13.126005 38023 net.cpp:156] Memory required for data: 345323904
I0618 11:01:13.126024 38023 layer_factory.hpp:77] Creating layer accuracy_top1-teste
I0618 11:01:13.126045 38023 net.cpp:91] Creating Layer accuracy_top1-teste
I0618 11:01:13.126066 38023 net.cpp:425] accuracy_top1-teste <- fc_7_fc_7_0_split_0
I0618 11:01:13.126085 38023 net.cpp:425] accuracy_top1-teste <- label_data_1_split_0
…
